models/experiments/synthetic_data_finetuned_2024-12-07_00-56-22_L1E/checkpoints/model_best.pth (torch, 633186 bytes, 53 tensors)

project_inp.weight f4 [64, 5]
000000 c3 53 f1 bd 35 45 95 be 48 c1 19 be 86 8a 67 3e
       -0.117835544 -0.29154363 -0.15015137 0.22611436
000010 f8 0b 8e be 7b 24 c3 bc 6a cd b4 be d0 89 8e bd
       -0.27743506 -0.023821106 -0.35312968 -0.069598794
000020 e2 b1 cb be 50 70 26 be c2 be 9c 3e bb 40 06 be
       -0.3978415 -0.16253781 0.30614287 -0.1311063
000030 f0 74 80 3e dc 70 2b be d0 db 83 3d 11 01 9a be
       0.25089216 -0.16742271 0.0643841 -0.3007894
000040 bb f6 82 3d 86 73 98 be a8 1a 98 be fb c3 77 be
       0.06394716 -0.29775637 -0.29707837 -0.24195854
000050 3a 51 a6 3e f5 64 30 3c fa 44 88 3e e4 be c7 3e
       0.32483846 0.0107662575 0.26615125 0.39012825
000060 97 dd 30 3e 03 90 9a be b8 97 14 be f3 6f 88 3e
       0.1727203 -0.30187997 -0.14511001 0.2664791
000070 f3 d6 cf 3e fc 82 c8 bd 35 b1 dd 3d 11 9e c3 3d
       0.4059368 -0.09790608 0.10824815 0.09551633
000080 a4 fc bf 3e 3c 4f 20 3e 8f e0 61 be 5b 06 da 3e
       0.37497437 0.15655226 -0.22058319 0.42582974
000090 cf 3b 16 be a4 10 6c 3e bd 78 44 3e 1f 4d b6 3e
       -0.14671253 0.23053223 0.19186683 0.35605714
0000a0 57 02 85 3d b3 2e af be ae 57 ba 3e 9f e1 b4 3d
       0.06494587 -0.34215316 0.3639502 0.08832096
0000b0 c1 7c 68 3e 6e d7 b4 bc 5a e3 4c 3e 1b 9f 1f be
       0.2270384 -0.022075381 0.20008603 -0.15588038
0000c0 71 8a ea bd 77 a1 c2 be f6 bb 8b be f7 04 89 be
       -0.11452187 -0.38013813 -0.2729184 -0.267616
0000d0 ef 8c de bd 48 be 89 3e aa 68 bf be e5 82 8f 3e
       -0.10866725 0.26902986 -0.3738454 0.28029552
0000e0 ce 7c 5d bc 78 5a ba be 28 06 b6 bd 49 af 94 3e
       -0.013518525 -0.36397147 -0.08887893 0.29039982
0000f0 78 23 7e be a9 6b f5 3d fa b1 89 bd 56 3d 7c 3e
       -0.24818218 0.11983425 -0.067233995 0.24632773
000100 db bc e2 3e 81 a4 8a be da f4 96 3e 5e 2c d6 be
       0.4428471 -0.27078632 0.29483682 -0.41830724
000110 e6 b3 fc 3d 60 2a 94 be 84 76 8e be e5 28 4c 3e
       0.123390004 -0.2893858 -0.27824795 0.19937475
000120 a7 4d 74 3e 71 54 be be d0 64 92 be 23 9a 4c 3d
       0.23857747 -0.371738 -0.2859254 0.049951684
000130 5a 95 de be b3 86 bf be 71 b0 ad 3d 73 4f dc 3e
       -0.4347332 -0.37407455 0.08480919 0.43029365
000140 8d 3f 8b be 62 4a a9 3e 6a d8 9e be 40 bc 9c 3d
       -0.27196923 0.33064562 -0.31024486 0.07653093
000150 03 30 ca be 92 08 62 bd 07 50 12 3c 4e 76 68 be
       -0.39489755 -0.055183955 0.008930213 -0.2270138
000160 a8 96 d9 be 64 30 dd 3e f6 a5 4e be 34 75 38 be
       -0.42497754 0.43200982 -0.20180497 -0.1801346
000170 11 19 82 be 87 15 b1 3d 00 bf d5 be 1e 37 97 be
       -0.2540975 0.08646684 -0.41747284 -0.2953424
000180 37 39 22 3d 0c db 6e 3e 88 74 bf be b4 c7 c8 be
       0.039605346 0.23325747 -0.37393594 -0.3921486
000190 30 d5 2f be 91 0d 85 bc ef cc 9a 3e e1 89 94 be
       -0.17171168 -0.01624182 0.30234477 -0.29011443
0001a0 a7 a4 aa 3e 34 7d ce be 52 be 90 be 50 73 3b be
       0.33328745 -0.40329897 -0.28270203 -0.18305707
0001b0 51 f0 e1 3e 8e 03 3a bd d7 68 d3 3e 75 10 41 3e
       0.4412866 -0.045413546 0.41290924 0.18853934
0001c0 e4 13 bd bd 8c 11 da 3e e0 26 67 3e 51 9d aa 3e
       -0.092323095 0.42591512 0.22573423 0.33323148
0001d0 73 bf 72 3e 0d d4 5b 3c 24 de 9a be 34 61 d9 3e
       0.23705845 0.013417256 -0.30247605 0.42456973
0001e0 50 bd 80 bd fe de 38 be 87 9e 5d be 0f ce 89 3e
       -0.062861085 -0.18053815 -0.21642505 0.26915023
0001f0 27 0c a1 be 01 9c 39 3e fd 0a 5b be 79 a8 c6 be
       -0.31454584 0.18125917 -0.2139091 -0.3880041
000200 83 12 32 3e 25 35 7d 3e 58 92 a3 be a6 5b 98 be
       0.17389874 0.24727304 -0.3194759 -0.29757422
000210 58 cc 5a be 28 67 c2 3e 52 3e e1 3e 97 cd ae be
       -0.21367013 0.37969327 0.4399286 -0.34141228
000220 11 ce 83 be 71 3e b7 3e dd be 4d bc 4a 23 c2 be
       -0.25743154 0.35789827 -0.012557712 -0.37917548
000230 e0 e7 d4 3e dd b2 ac be 44 2d d9 bd bd c6 ba be
       0.41583157 -0.33730212 -0.10604337 -0.3647975
000240 7c d3 29 be 1f 4d a9 3e ad 04 25 be ca 16 4c bd
       -0.16584581 0.3306665 -0.16115065 -0.04982642
000250 b9 83 d4 3e 9f 04 8b be 95 23 0a 3e 3e 30 d6 bd
       0.41506746 -0.27151963 0.13490136 -0.1045842
000260 32 35 99 be fc 1b e6 3e 81 ed a2 3e fe a1 6c be
       -0.29923397 0.44943225 0.31821826 -0.2310867
000270 01 2e a9 3c e5 99 80 3e 03 bf 42 3d b5 30 be 3e
       0.02065182 0.25117412 0.047545444 0.37146536
000280 9e 1a 8e 3e 69 c3 ab 3e aa de 44 3e 83 a3 5b 3e
       0.27754682 0.33547524 0.19225565 0.21449094
000290 1c e2 15 3e 56 ee bd bd 1a 4a 8d 3e 5b 31 26 be
       0.14637035 -0.092739746 0.27595598 -0.16229765
0002a0 fa 76 86 3c fa 26 82 be e5 b8 35 3e 24 38 bc be
       0.016414154 -0.25420362 0.17746313 -0.36761582
0002b0 82 86 a4 bc a0 b9 1a bc bc bc 4c be 59 b0 7c be
       -0.02008367 -0.0094436705 -0.19993871 -0.24676646
0002c0 72 50 27 be 8d 4f e3 3b f0 90 dc be cc 1e 93 3e
       -0.16339281 0.0069369734 -0.4307933 0.28734434
0002d0 39 ef 37 3e 3b 81 b7 3a 76 a8 87 be 64 ed 4f bd
       0.1796235 0.0014000306 -0.26495713 -0.050763503
0002e0 59 a9 ce be 9a 83 36 3d 86 70 ac 3e 7d 34 fa bd
       -0.40363577 0.0445591 0.336796 -0.122170426
0002f0 e6 77 9f be f5 09 a3 3e 9f e3 18 bd 71 4d ab 3c
       -0.31146163 0.31843534 -0.03732645 0.02091095
000300 ca 76 12 3e 3a 92 cd 3e 2e 0f ab 3e e7 4c 08 3e
       0.14303127 0.40150625 0.3341002 0.13310586
000310 2c c2 b0 bd d8 b4 b2 be 10 c9 78 bd 07 83 df bd
       -0.08630785 -0.34903598 -0.060738623 -0.10913663
000320 1a 80 5c 3e 98 62 95 bd a6 c0 36 3e 66 1f e2 3e
       0.21533242 -0.07294196 0.17846927 0.4416458
000330 67 3d a1 be 2d 41 bf 3e 7d 02 68 3e 64 c1 9a 3d
       -0.3149216 0.37354413 0.22657199 0.075564176
000340 c5 25 2f 3d 1b ae 89 3e 4a 00 30 3e 7f 76 d1 be
       0.04276063 0.26890644 0.1718761 -0.40910718
000350 41 59 52 3e 34 5f 04 3d c7 d6 50 be 25 45 cf bd
       0.2054186 0.032317355 -0.20394431 -0.1012061
000360 77 f4 7b 3e 94 9e 61 3e 35 d5 bc 3e 1c 12 6f bc
       0.24604975 0.22033149 0.36881414 -0.01459172
000370 61 aa 27 3e 27 a9 31 be 6b 40 90 3e 53 6a b6 3e
       0.16373588 -0.17349683 0.28174147 0.35627994
000380 8a 0b 67 bc 94 07 c5 3e 9c c9 8c bc f3 a4 99 be
       -0.014101872 0.38482344 -0.017185979 -0.3000866
000390 19 5d 08 bc c7 a7 c4 be 14 c5 6b be 86 5c b1 be
       -0.008322977 -0.38409254 -0.23024398 -0.34640902
0003a0 58 24 c3 3e 62 fb d2 be 68 dd d6 3e 9b a9 f9 3c
       0.38113666 -0.41207415 0.41965795 0.030476382
0003b0 15 f9 24 3d 59 8b 52 3e dc cc 00 3e 76 c2 75 be
       0.040276606 0.2056097 0.12578148 -0.23999962
0003c0 f0 33 cf be cd 37 cf 3e b4 11 cc be 8e 5f 9b be
       -0.40469313 0.4047226 -0.39857256 -0.3034634
0003d0 1e 53 b5 3e 15 24 e5 bd d4 bf 25 be d4 1f 5c be
       0.35414976 -0.11188523 -0.16186458 -0.21496516
0003e0 56 80 c7 be bd 45 cb 3e 6f ec 8e 3e 50 68 64 be
       -0.389651 0.39701644 0.2791476 -0.22305417
0003f0 2b d6 a5 3e d6 c0 3d 3e 86 0a c2 be e9 68 87 3e
       0.3238996 0.18530592 -0.37898654 0.26447228

project_inp.bias f4 [64]
000000 d6 16 bb 3e f4 20 b3 3e 15 77 cd 3e 41 e6 09 bd
       0.3654086 0.3498608 0.40129915 -0.033666853
000010 bb 5c c9 bd 80 17 2f 3e cf e4 4e be 22 56 ba 3e
       -0.0983214 0.17098808 -0.20204471 0.3639384
000020 44 9f a4 be 08 ff c0 3d 15 7d df 3e 59 96 ae bd
       -0.3215276 0.09423643 0.43650118 -0.0852477
000030 34 b9 b2 be 58 72 5a 3e d8 f3 c9 3d 1a a2 b2 3e
       -0.34906924 0.21332681 0.09860963 0.348893
000040 93 6b 08 be 91 e8 05 3d 30 ab c6 bc 97 e3 8d be
       -0.13322286 0.032692496 -0.02425155 -0.277127
000050 d3 13 92 3e 30 7b 54 bd c0 30 1a be 44 3d c4 3e
       0.2853075 -0.051875293 -0.15057659 0.38327992
000060 ba 22 8c be 4d 03 01 bd ed 3e d7 3c ae 2c 85 3d
       -0.27370244 -0.03149729 0.026275123 0.065026626
000070 9c b0 47 3e c0 b3 09 3e bd 5a c8 be 5d fb ae 3e
       0.19500965 0.13447475 -0.39131728 0.3417615
000080 f6 0e 25 be 84 64 85 3d 59 a9 3e be 9d d7 c4 be
       -0.16118988 0.065133125 -0.18619289 -0.3844575
000090 c6 8d a1 3e 1c 40 92 3e 73 1b 3d ba 1c 09 bd 3c
       0.31553477 0.28564537 -0.0007213868 0.023075633
0000a0 17 a9 b1 3e 06 6b f8 bb 26 e0 85 3e 3d 22 bc 3e
       0.34699318 -0.0075811176 0.26147574 0.36744872
0000b0 f2 da 4f 3e 94 6e fc 3c 54 21 1e bd 19 80 a9 3e
       0.20298365 0.030814447 -0.038606003 0.33105543
0000c0 8a 03 8a be 0f ba 3c 3e 7d 18 9e 3e 1a c1 ce 3e
       -0.26955825 0.1843035 0.30878058 0.403817
0000d0 7a b2 ce be 20 07 0b 3e 7c a2 59 3e 1b e4 ce 3e
       -0.40370542 0.13576937 0.21253389 0.40408406
0000e0 30 4b 83 bd 67 3b 4d 3d 91 e9 8e 3e 44 19 56 3e
       -0.06410825 0.05010548 0.27912572 0.20908076
0000f0 c6 55 e7 bc 9f a9 85 3e 59 d8 72 bc af 03 9e 3e
       -0.028239142 0.26105973 -0.014822089 0.30862185

pos_enc.pe f4 [10, 1, 64]
000000 77 00 6e bc 9c ae b3 bc a2 d6 8d bc 41 12 73 bc
       -0.014526478 -0.021933846 -0.017314259 -0.014835895
000010 7f 6e b5 bb f1 36 94 bc 8a 22 ad bb 72 01 a6 37
       -0.005536854 -0.018092604 -0.0052836584 1.9789415e-05
000020 82 65 9c 3b d1 1b 0a 3c 33 32 83 bb 99 ca 98 bc
       0.004772843 0.0084294835 -0.004003787 -0.018651294
000030 b6 9c 05 bc 2d f3 1f bc 22 d2 02 bb d0 e5 d9 bb
       -0.008155039 -0.0097625675 -0.0019961675 -0.0066497102
000040 be 61 6d 3b f4 50 96 bb 1b 5b 9f bb 6d 5c 27 bc
       0.003622159 -0.004587287 -0.0048631555 -0.010214907
000050 18 8a f5 bc 04 61 38 bb f5 90 c2 bc 23 8a 1e bc
       -0.029973075 -0.0028133998 -0.023750762 -0.009676489
000060 1f c9 a4 3b a8 7f 66 3b 0b 52 57 bc 96 09 fa bb
       0.0050288583 0.0035171304 -0.013142119 -0.0076305373
000070 b4 5b 64 bb 54 f7 83 3c d8 d1 bd 3c a7 d4 ab bc
       -0.0034844698 0.016109146 0.02317135 -0.020975424
000080 4f 11 a5 3c f2 61 9d bb 33 df a8 3b 85 8c fe 3b
       0.020149855 -0.0048029358 0.0051535605 0.007768216
000090 77 fc 23 bc c9 fc a2 bc a8 fa ec 3c fe 14 c3 bc
       -0.010008923 -0.019895928 0.028928116 -0.02381372
0000a0 c1 da d9 bc f8 50 2d 3c e4 38 88 bb 61 29 6a bc
       -0.026593568 0.0105783865 -0.0041571725 -0.014292092
0000b0 a9 da 14 3c d6 d7 b6 bb 8c ac 56 ba 5c 4c 9a bc
       0.009085336 -0.005579929 -0.00081891636 -0.01883524
0000c0 e9 42 e5 3a 9f 11 26 3c e6 a9 88 3b 3d c1 ad 3c
       0.0017491254 0.010136037 0.004170644 0.021210307
0000d0 71 57 0b bc 01 10 1c 3b 74 fc 12 ba 3e 81 cc bc
       -0.008504734 0.002381325 -0.00056070765 -0.024963971
0000e0 53 70 89 3a 65 9d fc 3b 8e 52 e2 bc fb ed 63 bb
       0.0010485746 0.0077091926 -0.027627256 -0.0034779299
0000f0 4d ac 44 bc 33 18 01 bb fe f8 04 3c 56 51 5f 3c
       -0.01200397 -0.0019698262 0.008116005 0.013630232
000100 40 90 5a bc 10 8c a7 bc 2d 19 82 3b 93 3c af bc
       -0.013340056 -0.02045253 0.0039702863 -0.021391189
000110 75 75 b7 bc 5b ff ba ba 75 93 a9 bb a7 58 46 bb
       -0.022394875 -0.0014266776 -0.005175049 -0.0030265243
000120 ca 14 ab 3b 48 49 3b 3c 5d 85 cb 3b 04 8b 60 bc
       0.005220984 0.011431046 0.0062109665 -0.013705019
000130 b1 07 03 3c 6a 70 ff 3b 61 66 8b bc b4 ab cf 39
       0.007997439 0.007795383 -0.017016592 0.00039610045
000140 a6 fc fb bb 10 93 a3 bc 44 08 1e 3c 7a 1a 8b bc
       -0.00769003 -0.019967586 0.009645525 -0.016980398
000150 8a 29 5a 3c 5e 99 35 bc 9d 72 e4 bc 0e 84 2b 3b
       0.013315568 -0.011083929 -0.027886683 0.002617124
000160 78 9a 2c 3b 47 88 94 bc d7 20 ea 3c 2d 89 30 bc
       0.0026337188 -0.018131388 0.028580112 -0.010774893
000170 40 3a 40 3c 54 53 32 bc 87 bc 10 bb ab ff 41 3c
       0.011732638 -0.010884125 -0.0022085027 0.011840741
000180 93 25 4f bc 49 70 63 3b c3 b5 b0 bb f0 64 88 bc
       -0.012643236 0.0034704378 -0.0053927614 -0.016649693
000190 39 b9 20 bc a0 71 80 3c a1 cb 8c 3c 24 4b 0a bc
       -0.0098097855 0.01567918 0.017186942 -0.0084407665
0001a0 2c d0 b0 3c 67 bb 3d bc a6 86 69 3c c9 c1 4b 3c
       0.02158364 -0.011580325 0.014253294 0.012436339
0001b0 06 ba 86 bc ee bf 7a 3b 14 29 82 bc f4 57 ba 3b
       -0.016446125 0.0038261372 -0.015888728 0.0056867544
0001c0 c7 89 7f bc ca 9c 34 3c 06 5c 9c bc 1b 15 cd bb
       -0.0155968135 0.01102371 -0.019086849 -0.0062586195
0001d0 04 51 29 bb bb 43 d0 bb 09 85 96 bc 89 8b ab 3b
       -0.0025835643 -0.0063557304 -0.018373983 0.0052351397
0001e0 6c 86 68 bc 45 94 a4 3c d6 c7 6c bc e1 bd 9f bc
       -0.014192205 0.020090232 -0.0144519415 -0.019499721
0001f0 68 85 c0 3c 1e ef b5 bc e2 ae 60 bc b6 ac 53 bc
       0.023501113 -0.022208747 -0.01371357 -0.012919595
000200 00 77 c2 ba e3 c5 a8 bc 51 0a 32 bc 3a 98 45 3c
       -0.001483649 -0.020602172 -0.010866717 0.012060219
000210 cc 6e 01 3c 25 c0 62 3b ac f6 bb 3c 05 d8 29 3c
       0.007899951 0.003459939 0.02294477 0.0103664445
000220 ce c7 74 bc d6 62 8c bb 5f a5 9f 3b 3d a6 b2 bc
       -0.014940215 -0.004284243 0.0048720087 -0.021807784
000230 b1 f5 19 bb 64 13 80 3c 92 16 52 bb 3b 0d 02 bc
       -0.002349239 0.015634246 -0.003205691 -0.007937725
000240 ca 99 b7 3b 65 60 2a 3c 71 f9 c3 bc 7e 4e 09 3c
       0.00560305 0.010398959 -0.023922654 0.00838053
000250 f6 d3 41 bc 32 c9 e5 bc 2f 5f 34 3b 26 4a c8 bc
       -0.011830321 -0.028050039 0.0027522554 -0.02444942
000260 b9 f8 19 bc cc 74 36 3b d1 b5 40 3a 54 ec 6e 3c
       -0.009397679 0.0027840612 0.00073513115 0.014582712
000270 46 50 00 3b b5 30 a1 3b 19 5f d4 3a c3 81 5b bc
       0.0019579097 0.0049191364 0.0016202658 -0.013397637
000280 4f ce 73 bc 19 03 b8 bc 74 c2 a6 bb 01 72 89 3c
       -0.014880731 -0.022462415 -0.0050890986 0.016777994
000290 d9 cc 86 3b 1a 14 b1 bc cd 62 47 bc ab a1 80 3b
       0.004113775 -0.02161603 -0.012169552 0.0039255223
0002a0 c7 ca 02 bb 5d f3 93 3c d5 05 3c bc 15 d4 37 bc
       -0.001995729 0.01806038 -0.011476 -0.011219998
0002b0 52 0d 7c bc 46 9d e2 3c 54 60 b3 bc ff 1c 63 bc
       -0.015384035 0.027662884 -0.021896519 -0.013861894
0002c0 5d b3 ba bb 31 33 90 3c 8e 8c 95 bc fd 0e 3e 3c
       -0.0056976513 0.017602535 -0.018255498 0.011600253
0002d0 3b 60 98 3b 0b a2 5e 3c b0 b3 4b bc b9 32 da 3b
       0.0046501434 0.013588439 -0.012432978 0.0066588786
0002e0 8f f8 41 bc 38 fe 7f 3b 84 c6 a5 bc 6a 76 c0 3c
       -0.011839046 0.0039061438 -0.020236261 0.023493964
0002f0 82 37 89 bb 6c 2b 46 3a bb ca 93 bc ef 18 49 bb
       -0.0041875253 0.0007559571 -0.018041005 -0.0030685028
000300 95 38 79 3c c7 ac b3 bc 12 9c 23 3c e0 d4 62 bc
       0.015211244 -0.021932973 0.0099859405 -0.013844699
000310 d5 97 a4 bc d2 69 99 bb f9 0b 6e 3c 1d cd 95 3b
       -0.02009193 -0.004681804 0.014529222 0.0045715705
000320 68 51 b3 bb f2 ae 8d 3b ee 52 84 bb ca 71 1c 3c
       -0.005472351 0.0043238336 -0.0040382063 0.009548614
000330 dd ce b9 3c 79 45 f0 ba cc 96 ff bc 0c ff 90 3c
       0.022681648 -0.0018331251 -0.031199835 0.01769974
000340 ca 43 5d 3b 18 76 d4 3b 59 fb 61 3c d9 9a 88 3c
       0.003376233 0.0064838044 0.013792836 0.0166754
000350 99 76 00 ba d8 5c 5c bc e9 65 86 3c 0e db 92 3b
       -0.0004900485 -0.01344987 0.016406016 0.0044816798
000360 e2 83 8b bb a3 b9 9c 3c be 8c 3b 3c c7 c4 06 bc
       -0.004257665 0.019131487 0.01144713 -0.008225626
000370 79 c9 7c 3c 2b 6e 0c bb df b7 f4 3c a9 57 6d bc
       0.015428894 -0.002142797 0.029872833 -0.014486232
000380 41 48 0e 3b 35 49 30 bc b5 fa 9a 3c 2e 54 a0 3c
       0.0021710547 -0.010759641 0.018918375 0.01957139
000390 e9 5a 45 3c 54 63 76 3c 59 ff dd 3c 2d 46 20 bb
       0.0120456 0.01503833 0.027099298 -0.002445589
0003a0 3d ad 26 3c a9 7a 8d 3b a4 5b b8 3c 0f 7b c5 3b
       0.010173139 0.0043176007 0.022504635 0.0060266326
0003b0 58 c0 47 3c 17 4a 2d bc 4a 49 74 bc c2 4e b9 3b
       0.012191854 -0.010576746 -0.014910052 0.0056551406
0003c0 0c 49 86 bc eb 49 a0 3b 40 c9 b3 bc 6d 3f 0c 3c
       -0.016392253 0.004891624 -0.02194655 0.008560044
0003d0 bf 0f d5 3c dc 86 1f 3c 71 c7 a2 bc 9d 02 80 bc
       0.026008485 0.009736743 -0.019870492 -0.015626246
0003e0 e8 25 3e ba e4 83 8b 3a dc 82 fa 3b 1c d3 b4 bc
       -0.0007253573 0.0010644165 0.007644994 -0.022073321
0003f0 8a b2 10 ba 6c 05 0d bc da 63 9f 3b 7f cd d3 bb
       -0.00055197685 -0.00860725 0.004864198 -0.006463706

transformer_encoder.layers.0.self_attn.in_proj_weight f4 [192, 64]
000000 fd 7f 19 bc f7 2a 35 3c b2 96 d3 bd 51 c6 89 3d
       -0.009368894 0.011057607 -0.10331477 0.06727279
000010 e9 f5 0a be 69 3a 04 be be 6b 8a bd ac 35 b6 3d
       -0.1357037 -0.12912907 -0.067588314 0.08896956
000020 f4 4e 98 bd d3 ad 20 3e c6 2c 7c bd c7 cd cb bd
       -0.07436934 0.15691309 -0.061566137 -0.09951358
000030 ae d2 f6 bd e2 d5 6e 3d 4d c7 5f bd b7 7d f1 3c
       -0.12051903 0.058309443 -0.054633427 0.02947889
000040 e2 7a 83 bd 50 4b 5f 3d 3e 7e 36 bd 95 3c 90 bc
       -0.064199224 0.054515183 -0.044553988 -0.017607013
000050 9b 36 04 3d 6d 20 95 bd 69 f6 e7 bd 26 34 d7 bd
       0.03227864 -0.07281575 -0.11326296 -0.105079934
000060 ac a5 08 bd 9b 34 07 be 89 1d e2 bd e8 83 d4 3d
       -0.033361122 -0.13203661 -0.1104079 0.103767216
000070 30 61 e6 bd 62 32 b3 bd 11 f7 90 3d 8b 6e 08 bd
       -0.11249006 -0.08749844 0.07078374 -0.033308547
000080 fa 8a a6 bd e3 0d d7 bd 3a 64 fa 3d f1 a0 64 3d
       -0.081319764 -0.105006956 0.12226148 0.05581755
000090 b9 b3 93 3d 27 64 f5 bd 67 d0 67 bc 80 24 fb bd
       0.07212014 -0.11981993 -0.014148808 -0.12262821
0000a0 34 3b e4 bc 57 c6 9b 3c 93 8f bb 3d 6d a1 11 3e
       -0.027860261 0.019015474 0.09158244 0.14221735
0000b0 c3 dd 72 3d 68 c4 c3 bc ca a7 e1 bd d8 35 73 3d
       0.05929352 -0.023897365 -0.11018331 0.05937752
0000c0 ee 4e b0 3d 27 88 ab bc 48 20 15 3d 0a a8 16 3d
       0.08608805 -0.020938946 0.03640774 0.03678135
0000d0 7c b6 0e be 02 42 e3 bd ca 57 3e 3d c9 ee 52 3d
       -0.139368 -0.11096574 0.04647044 0.051497255
0000e0 65 7d c8 3c 08 07 73 3d 5a 43 24 bd 71 68 11 be
       0.024473855 0.059332877 -0.040103294 -0.14199997
0000f0 a0 a9 8c 3d d8 6f 5d 3d 3d fa 01 bd 4a c2 c5 bd
       0.06868291 0.05406174 -0.031732786 -0.09656198
000100 65 0d 47 bd aa be f2 3d d2 9e 97 bd e7 0c 9b 3d
       -0.04859676 0.118527725 -0.074033394 0.0757082
000110 35 07 01 bc 55 8e c1 3d 96 e3 16 be 64 49 df bd
       -0.007875253 0.09450976 -0.14735255 -0.1090267
000120 80 e9 cb 3d 87 a9 d5 3d 77 4d a6 bd 68 f8 9b 3d
       0.09956646 0.104327254 -0.08120244 0.07615739
000130 5c 0a d8 3d 62 42 06 3c 64 bb e3 3d fa 19 09 3e
       0.10548851 0.008194538 0.11119726 0.13388816
000140 b8 44 b8 3d 54 50 ae bd b5 72 eb 3d 2d 4a 38 bc
       0.08997482 -0.08511415 0.11496488 -0.011248154
000150 e3 43 f2 3d 8e 8b a7 bd 55 a8 b9 3d a3 e6 3e bd
       0.118293546 -0.08180915 0.0906531 -0.04660667
000160 ad fa 2c 3d 98 af b3 3d d0 0b 02 3e 2b 70 85 3d
       0.04223125 0.08773726 0.12699819 0.06515535
000170 25 97 c2 bd b2 e0 ae 3d 88 0f d0 3d 96 53 fb bd
       -0.09501485 0.08538951 0.10159212 -0.12271802
000180 1f 30 b0 bc 16 57 94 bd 55 e7 f0 bc ea 1d 06 3e
       -0.02150732 -0.07243173 -0.029407183 0.13097349
000190 58 5a b8 3d 44 88 31 bd 43 67 94 bd 39 26 d7 bd
       0.09001607 -0.043342844 -0.07246258 -0.10505337
0001a0 71 cc d9 bc e0 b2 10 3e 9e c4 9d 3c 57 32 d6 3d
       -0.026586743 0.14130735 0.019258793 0.1045882
0001b0 e3 91 7f 3d f5 de 07 3e 56 45 f2 3d b5 ee b3 3c
       0.062394988 0.13268645 0.11829631 0.02196441
0001c0 7a d0 0d 3e d3 bd ce bc 63 d0 03 3e c3 c8 f4 bd
       0.13849059 -0.025237 0.12872462 -0.11952355
0001d0 6c 55 ca 3d db d6 13 be 57 01 0c 3e 66 eb 6d 3d
       0.09879574 -0.1443743 0.13672386 0.05808582
0001e0 5a 6b 6d 3d 71 e6 e4 bd 45 78 6b bd a7 63 d1 bd
       0.057963707 -0.11176766 -0.057487745 -0.10224085
0001f0 a4 71 0b 3e e7 90 4b 3b 9f 21 57 3d 91 76 0e 3b
       0.13617569 0.003106171 0.052522298 0.0021738152
000200 89 61 b4 bd 82 f5 00 bd fe b7 ab bb 56 d4 1c 3d
       -0.08807666 -0.031484134 -0.0052404394 0.038288437
000210 ea 53 9c 3d bf 75 22 3c bf 67 dc bc d3 83 f2 3c
       0.07633193 0.009915768 -0.026904939 0.029603874
000220 62 e9 9d 3d a6 41 23 3d 5c d6 c1 bc b3 8d a3 3d
       0.0771053 0.03985753 -0.023661785 0.07986011
000230 33 d2 a0 bd fe 01 c2 bc aa c4 da bd 17 8f e0 3d
       -0.07852592 -0.02368259 -0.10682042 0.10964792
000240 15 66 77 bd 5a e2 e6 bd 5a 32 99 bd 4d 3f 38 3d
       -0.060400087 -0.11273642 -0.07480307 0.044982243
000250 fc c2 f7 3c eb f3 98 3c 78 d1 84 bd 67 17 b3 bd
       0.030244343 0.018670997 -0.064852655 -0.08744698
000260 cf 17 89 3c 6b 7d 4a 3d a1 53 47 bd 75 81 c5 bd
       0.016734986 0.049436014 -0.04866374 -0.096438326
000270 d0 9c 5b bd 35 25 8b bd 61 fc d5 bc a7 18 a4 3c
       -0.053616345 -0.06794206 -0.02612132 0.020031286
000280 ae 06 77 bd 1e 25 a4 3d 12 34 43 3b e7 1e 14 3e
       -0.060309105 0.08014892 0.0029785675 0.14464913
000290 54 40 17 be 43 24 08 be 97 4a 03 be 97 a0 e0 3b
       -0.14770633 -0.13295083 -0.12821423 0.0068550813
0002a0 d5 0c a0 3c 7f e3 96 3d 8b 11 12 be 3a 2e f4 bd
       0.019537369 0.0736761 -0.14264505 -0.119228795
0002b0 3e 4e cc 3d 28 62 f3 bd e6 0a c4 3d 59 7d 72 bd
       0.09975861 -0.11883956 0.09572391 -0.059201572
0002c0 29 ee 10 be ff 27 07 3e 93 ad 99 bd b1 4f 88 bc
       -0.14153351 0.13198851 -0.0750381 -0.016639562
0002d0 45 85 d2 3d 22 6c 2e 3d 50 bf c7 3d 84 b0 96 3d
       0.102793254 0.042583592 0.09753287 0.073578864
0002e0 90 d6 17 3e 6b 79 12 bc bc 7a 53 bd cf 00 d4 3c
       0.14827943 -0.008940081 -0.05163072 0.025879292
0002f0 df b3 c7 3d 3d b7 28 bd a5 a1 89 3c 24 4c 53 3d
       0.097511046 -0.041190375 0.016800711 0.051586285
000300 46 6d 13 bd e1 ee 1c bb 45 31 b6 bc 89 b4 01 3e
       -0.035992883 -0.0023946094 -0.02224029 0.12666525
000310 52 af 7e bd c6 67 19 be 31 df 95 bb dc 34 a8 3d
       -0.062178917 -0.14980993 -0.0045737256 0.08213207
000320 1b 4d 69 bb 5e dc a9 3d 48 ed b6 3d 24 88 1c be
       -0.0035598937 0.08293985 0.089319766 -0.15286309
000330 27 e2 b9 bd 39 e0 10 bd 94 fa 49 3d ee b6 76 3d
       -0.09076338 -0.035370085 0.049311236 0.06023305
000340 a6 48 9b bd 0c ea cd bd d9 41 02 3e d3 94 08 be
       -0.07582216 -0.100544065 0.12720431 -0.13338022
000350 1e 97 6b bd 18 89 ac 3c 47 9f 84 bb 2b 66 9e bd
       -0.057517163 0.021061465 -0.0040473077 -0.07734331
000360 22 d7 2b 3d 12 dc e3 bd 94 23 da 3d 86 0f b5 bd
       0.041953214 -0.111259595 0.10651317 -0.088408515
000370 0d 13 1f 3e 82 cc 0b be 81 6b 0a bc 36 cf 3f 3d
       0.15534611 -0.13652232 -0.0084484825 0.04682847
000380 b1 7b 0f be 27 75 da 3c 0f 2f 5f 3d 7a 82 b6 bd
       -0.14012028 0.02666719 0.054488238 -0.08911605
000390 d8 8c 9e bb 8f b1 12 3c 69 a3 e5 bd a5 e4 07 bd
       -0.004838567 0.008953466 -0.11212809 -0.033177037
0003a0 d5 e3 05 be c6 f7 6e 39 7a c4 e0 bd 2e 55 ac bd
       -0.13075192 0.00022789752 -0.10974975 -0.08414684
0003b0 a9 64 51 bd cc 51 bb bd a6 77 4d 3b 85 03 18 3d
       -0.051121388 -0.09146461 0.0031351834 0.03711273
0003c0 39 0e 37 3d af 60 86 bd b9 a8 08 be 49 18 ce bd
       0.0446913 -0.0656141 -0.13345613 -0.10063226
0003d0 81 a9 0f be b6 82 e6 3d ff ef 1a 3c 10 1a a8 bc
       -0.14029504 0.112554 0.009456634 -0.02052024
0003e0 52 02 f5 3d a8 b0 05 3e 77 0c b1 bd 1a 49 e3 bd
       0.11963333 0.1305567 -0.086449556 -0.110979274
0003f0 22 60 00 3e ce bb 43 3d 2d a7 55 bd 0d c9 a1 bd
       0.12536672 0.047786526 -0.052161384 -0.078996755

transformer_encoder.layers.0.self_attn.in_proj_bias f4 [192]
000000 d5 e6 a1 bb e1 8a df 3b 76 2e d3 3b 04 07 b8 ba
       -0.0049408474 0.0068219756 0.0064447476 -0.0014040177
000010 c1 1f d6 3b 05 76 f3 ba 1c f0 81 ba 23 60 0d 3c
       0.006534547 -0.0018574601 -0.0009913477 0.008628878
000020 f8 83 7f ba 54 9b 0a 3c 73 77 45 3c 97 c4 99 3c
       -0.0009747143 0.008459885 0.012052405 0.0187705
000030 28 39 64 3b cd 41 c9 3b f8 6f 37 3b 81 54 21 bc
       0.0034824107 0.0061418773 0.0027990323 -0.009846807
000040 a4 5f ad 3b 3b 09 0f 3b f7 4e 63 bc 7a 22 99 bc
       0.0052909423 0.002182557 -0.013873807 -0.018693198
000050 47 2f 82 ba 08 78 53 bb 69 c4 d4 b9 20 80 45 3b
       -0.0009932303 -0.003226759 -0.00040582128 0.0030136183
000060 52 0f b3 3b 1f f0 1f 3c 58 83 b8 bb f9 0e 06 3b
       0.005464473 0.009761839 -0.005630892 0.0020455702
000070 c8 5a a4 3a 72 7a 92 bb 20 78 66 3c 46 a3 db bb
       0.0012539262 -0.004470163 0.014066726 -0.0067028133
000080 d9 a0 c5 bb 64 95 ec 3a d6 e2 a5 bb 8f 71 4a bb
       -0.0060311374 0.0018049893 -0.0050624413 -0.003089044
000090 08 ae 1f bc 2c bd 81 3c 12 59 0b bc 47 43 77 bb
       -0.009746082 0.015837274 -0.008505123 -0.003772931
0000a0 92 4c 5f bb 67 14 02 3a 85 64 9e 3b 85 9b 6b 3b
       -0.003407274 0.00049621466 0.00483376 0.003595085
0000b0 ec 75 06 bc 15 06 d7 3b ae 8f d5 3a cf 23 c8 3b
       -0.008206826 0.0065620043 0.001629343 0.0061077843
0000c0 5a 02 94 3a ac 85 20 bc 69 16 fe ba 51 9c 07 bc
       0.0011292205 -0.009797495 -0.0019385341 -0.008277015
0000d0 5d a7 96 bc fb a8 bc b9 a7 a3 82 3c b2 36 2d bc
       -0.018390352 -0.00035984055 0.015947176 -0.010572122
0000e0 29 1c 51 3c 2c 02 41 3a 40 a7 8a bb 1a bb 22 3c
       0.012763062 0.00073626894 -0.0042313635 0.009932304
0000f0 2c 3d b8 b9 dd 0e d8 bb 5a 46 14 bb c2 5d 94 bb
       -0.0003514079 -0.0065935687 -0.002262494 -0.0045277784
000100 4d aa 0f b7 c4 b5 c6 39 29 ec f8 b8 98 ab c6 b7
       -8.563115e-06 0.0003790093 -0.0001186955 -2.3683344e-05
000110 ee 37 16 b9 7b 8c 42 39 0a 47 e8 b6 f7 9d 35 b9
       -0.0001432595 0.00018553615 -6.922409e-06 -0.00017320352
000120 ba 6c 25 39 17 87 bb b7 72 1d 0e 39 87 3e 14 39
       0.0001577613 -2.2355043e-05 0.00013553145 0.00014137673
000130 e2 4d 12 3a 79 fb 20 b9 9a 1d 75 b7 5b 51 19 39
       0.00055810635 -0.0001535247 -1.461003e-05 0.00014621524
000140 a7 a0 a7 39 ee aa cd b9 d0 07 58 34 9c 8f 36 39
       0.00031972417 -0.00039228 2.011941e-07 0.00017410371
000150 70 93 4b b8 8b c2 ed 37 ba 6a f3 b9 fc cf 9f b9
       -4.8536283e-05 2.8343193e-05 -0.0004642809 -0.00030481804
000160 4e 90 2f 39 24 45 2f 38 a5 b7 32 b9 08 79 47 38
       0.00016743058 4.1787644e-05 -0.00017043816 4.7558016e-05
000170 75 71 87 37 13 af 54 b9 3a 44 aa 37 44 57 2c b9
       1.6146087e-05 -0.00020283116 2.029735e-05 -0.00016435707
000180 63 75 a9 37 06 27 68 38 51 c7 a8 39 6d ec bf b8
       2.0201032e-05 5.5349454e-05 0.0003219196 -9.1516275e-05
000190 d6 57 83 39 96 5d a7 b8 b9 b3 e1 b8 93 87 18 39
       0.0002505171 -7.980612e-05 -0.00010762312 0.00014546355
0001a0 6a 25 b2 b9 3a 5c a5 37 da 91 a5 37 28 8f bd b8
       -0.0003397868 1.971248e-05 1.973745e-05 -9.038887e-05
0001b0 f8 a4 77 38 2b 9b 4e b8 4d ca 03 36 d6 ea 10 39
       5.9043028e-05 -4.925874e-05 1.9638276e-06 0.00013820393
0001c0 80 44 3d b9 24 cb 54 b9 c3 04 21 39 f1 1f ca b8
       -0.00018049963 -0.00020293571 0.0001535593 -9.63806e-05
0001d0 56 e9 0a 38 3b 83 6e b9 9f 49 44 b9 b0 59 b8 38
       3.3119075e-05 -0.00022746336 -0.00018719443 8.790509e-05
0001e0 08 2a 2d b8 8d 76 08 b8 23 f2 38 39 e6 37 8b b9
       -4.128556e-05 -3.2535336e-05 0.0001763781 -0.00026553794
0001f0 11 f7 3e 38 f4 26 df 38 a3 7a c1 b9 53 8b 12 39
       4.552963e-05 0.00010640724 -0.000369032 0.00013975547
000200 47 eb 5d 3c 55 93 ad bc 6e ee 16 bc ba f4 76 3c
       0.013544864 -0.021188417 -0.0092121195 0.015072996
000210 41 ef 8e bb bd 3d ea bb 05 a5 7b 3c 4f 59 85 bc
       -0.0043620174 -0.007148473 0.015359168 -0.016277937
000220 e6 1f ac bc ee 1b c2 bb d1 68 39 3c b3 cd 90 3b
       -0.021011304 -0.0059237396 0.011316494 0.0044190525
000230 1f 30 b4 3b 22 99 fe bb 52 43 84 bb 0d ee 91 bb
       0.0054989005 -0.0077697197 -0.0040363455 -0.0044534267
000240 42 3d a5 bb 9a d4 95 bc 9f 68 88 bb a5 d0 86 bc
       -0.005042703 -0.018289853 -0.0041628624 -0.016456911
000250 91 f9 d6 3a 38 0c 26 3c a9 48 28 bb 50 f7 1b 3c
       0.0016401281 0.010134749 -0.0025678074 0.009519413
000260 79 d2 19 bc 23 09 70 3b 92 e1 a7 b9 b6 01 30 3c
       -0.0093885595 0.003662654 -0.00032020785 0.010742595
000270 ba f0 69 3c bc 6d 94 ba 33 9d 20 3a fd b7 1f 3c
       0.014278585 -0.0011324207 0.000612694 0.009748456
000280 2e 4d b1 39 f4 96 8f bc b2 71 25 bc 6e 83 a0 bb
       0.00033817574 -0.017528035 -0.010097908 -0.00489848
000290 0d 74 a6 bb e2 26 5e bb 99 8c a0 3b 33 6b 68 bb
       -0.0050797523 -0.0033897688 0.004899573 -0.0035464286
0002a0 60 b8 3a 3c f5 96 f7 bb 7a 09 3b bc d6 3d 12 3c
       0.0113964975 -0.0075558373 -0.011415834 0.008925876
0002b0 0c 8d 9a bc cb 5d a8 3b 41 0e 0e ba 10 76 48 3c
       -0.018866085 0.005138134 -0.0005418994 0.01223518
0002c0 ee 7e 57 bc 74 7e 02 3c 4b fd b9 bb 84 ac 07 ba
       -0.013152821 0.007964719 -0.005675947 -0.0005175548
0002d0 91 29 26 3c 1b 7c eb 3b 34 dc ab 3b 66 86 5d 3c
       0.010141746 0.0071864254 0.005244756 0.013520813
0002e0 b2 31 80 3b d5 28 ab 3b 72 46 95 bb 7a c3 19 3a
       0.003912174 0.0052233734 -0.004555517 0.0005865615
0002f0 28 45 11 3c 26 25 07 bc fd 39 94 ba bc 87 1a 3c
       0.008866586 -0.008248603 -0.0011308786 0.009431776

transformer_encoder.layers.0.self_attn.out_proj.weight f4 [64, 64]
000000 1a aa bd 3d 5a 51 43 3d f5 e4 0d bd 39 43 d0 bd
       0.0926096 0.047685005 -0.03464218 -0.10169072
000010 64 c9 d1 bd 81 5e b3 3d 37 50 cd bd b4 bb 9c 3d
       -0.1024349 0.087582596 -0.100250654 0.07652989
000020 7b 33 ab 3d 7f 8b e3 b9 1c 06 15 bc 0a 7c 2a 3d
       0.083594285 -0.00043400747 -0.009095695 0.0416222
000030 6e 09 c3 bd 24 25 a1 3d a5 23 31 bc 8d e8 25 bd
       -0.09523283 0.07868412 -0.010811721 -0.04050498
000040 b1 9f b0 bd e3 9c e3 3d 2e d4 83 bc c8 4a c2 3d
       -0.08624209 0.11113908 -0.016092386 0.0948692
000050 49 ce 26 3d 2b 8c 83 3b 44 25 a2 3d df d2 85 bd
       0.040724073 0.004014512 0.07917264 -0.06534361
000060 02 63 b2 3d ba 97 92 3c 47 b5 68 bd b2 39 1c 3d
       0.087102905 0.017894614 -0.056813505 0.03814096
000070 d9 dd 6f bd d2 2d c8 bd 9c 1d a2 3d ab 44 9c 3d
       -0.05856118 -0.097743645 0.07915804 0.07630285
000080 1d a1 9b 3d 2f 79 cb bc d6 e1 ad 3d ff 37 81 3c
       0.07599089 -0.024838058 0.084903404 0.015773771
000090 6f 01 2c 3d 32 8b 2c bc f4 15 fd 3d e4 9f 1d bd
       0.041993555 -0.010531234 0.12357703 -0.03848256
0000a0 b4 48 26 3d ba a6 e9 3c 89 aa 44 3d bf 6e c5 3d
       0.04059668 0.028521884 0.048014197 0.09640264
0000b0 9b e3 ae bd 11 92 b4 3d e4 ad a7 3d 28 74 e0 bc
       -0.08539506 0.088169225 0.08187464 -0.027399138
0000c0 ad f5 5f 3d 76 26 d4 bd bc 63 cc 3d d9 8f 29 3d
       0.054677654 -0.10358898 0.0997996 0.04139695
0000d0 e6 b5 ab 3c 73 af e6 bc a8 23 b1 bd 69 57 92 3d
       0.02096076 -0.028159833 -0.08649379 0.071455784
0000e0 8c fb 44 bc 0f ea c1 3d e9 b1 33 bd f8 aa 20 3d
       -0.012022864 0.09468471 -0.04387084 0.03922555
0000f0 fe 64 cc 3d 1e e2 ed 3c 80 57 a9 3c 0d a4 e2 bc
       0.099802 0.029038485 0.020671606 -0.027666116
000100 b6 09 6b 3d ae 9c 91 3c b2 f7 1a 3d 9f c1 e9 bc
       0.057382308 0.017774906 0.037833877 -0.028534709
000110 e0 53 50 bc a0 de 92 3d 82 4e dd bd 93 c1 75 bd
       -0.01271531 0.071713686 -0.1080599 -0.05999906
000120 21 f7 55 3d df cf 86 3d 71 e4 a3 3d 5b a4 19 3c
       0.052237634 0.06582617 0.08002556 0.009377564
000130 60 19 8f 3d 64 16 89 bd 42 5a c4 bc f4 e9 a1 bc
       0.06987262 -0.06693724 -0.02396882 -0.019764878
000140 69 31 ef bd 0f 5c df 3d 1a 0c c9 bd b6 58 c4 3d
       -0.11679346 0.10906231 -0.09816761 0.09587233
000150 2b 56 00 be c5 41 12 3d 25 55 ec bd 60 2a 4d bd
       -0.1253287 0.035707254 -0.115396775 -0.05008924
000160 cc 26 ba 3d 0d ae 90 bd 89 cb 15 bd 46 c6 9a 3d
       0.09089431 -0.070644476 -0.03657106 0.07557349
000170 b5 86 31 bd c8 1e af ba 5d 21 90 bc 36 95 80 bd
       -0.043341357 -0.0013360614 -0.017594034 -0.0627846
000180 71 da 70 bd 2b be 29 3d d4 98 c2 bb 57 50 56 3d
       -0.058802072 0.041441124 -0.0059386287 0.05232271
000190 46 13 32 3d e1 8a f2 3d 2f 9f d8 bc 05 e9 fa bd
       0.04347541 0.11842895 -0.026443092 -0.12251476
0001a0 bd 1f 04 3d c2 84 7b 3d bf 89 96 bb d0 48 31 3d
       0.03225683 0.061405905 -0.0045940573 0.04328233
0001b0 6c 9f e8 3d 85 a2 db bd c8 63 32 bd 53 0f da 3c
       0.11358532 -0.107243575 -0.04355219 0.026618635
0001c0 53 4f ee 3d 21 af ac 3d 4e 5d ee bd c1 99 0e bd
       0.11636224 0.08431841 -0.1163889 -0.0348146
0001d0 dc 43 b2 3d 02 a4 66 3d db d2 c9 3d 54 9a d5 bd
       0.087043494 0.056308754 0.098546706 -0.104298264
0001e0 13 7d d5 bd 33 08 2a 3d b7 8e 08 bd 74 4c 01 3d
       -0.10424247 0.041511726 -0.03333923 0.031567052
0001f0 70 d4 d6 3c 6b 1c dd 3d 98 bc 2f bd 81 51 a4 bc
       0.026224345 0.10796436 -0.042904466 -0.020058395
000200 05 11 8e 3d 4b 9f dc bd 4b 38 0d 3c 33 5b 3f bd
       0.0693684 -0.1077257 0.008619378 -0.046717834
000210 23 40 e4 bd a7 c4 40 bd 17 84 07 bd ec df c5 3d
       -0.111450456 -0.047062542 -0.033084955 0.0966185
000220 6e dc c3 bc 17 fc ba bd 23 ef 7f bd 64 fc b6 bb
       -0.02390882 -0.091301136 -0.062483918 -0.0055842865
000230 b0 87 e9 bc 60 78 c4 3c 91 d9 7c bd f2 9e 53 bd
       -0.028507084 0.02398318 -0.061730925 -0.051665254
000240 59 8b c1 3c 98 e8 b4 bc e4 3e e4 3d eb 24 14 3d
       0.023626016 -0.022083566 0.11144808 0.03616802
000250 a0 04 23 3d 9a 2a b4 3d 28 07 9b 3d 2c 51 ea 3d
       0.039799333 0.08797188 0.07569724 0.114412636
000260 18 c5 82 3d 68 a9 11 3d 07 cb fd bd 01 08 38 bd
       0.06385249 0.03556195 -0.1239224 -0.044929508
000270 a2 a4 93 3d 57 ac b7 bc c2 db b0 bd d7 d4 80 bc
       0.072091356 -0.022421045 -0.086356655 -0.01572649
000280 f5 5c 1d 3d f6 05 19 bd a8 b4 70 bc 2c 5a 82 3d
       0.03841873 -0.0373592 -0.014691509 0.06364855
000290 f7 a9 f9 3d 62 1b e6 3a 58 8d 8f bd d2 3b df bd
       0.12190621 0.0017555768 -0.07009381 -0.10900082
0002a0 f5 d7 58 bd 9b 71 fb 3a ce 34 00 3e ab 06 bf bc
       -0.052940328 0.0019183637 0.12520143 -0.02331861
0002b0 2e 64 f1 3d ab e0 52 3c 4e b2 92 bb bb 27 8b bd
       0.11786686 0.012870948 -0.004476822 -0.06794687
0002c0 4a ac 1b 3c 6f 71 dc bd 69 df 9d 3d 3b 8d 91 bd
       0.009501526 -0.10763823 0.07708628 -0.07107016
0002d0 d3 6c df 3c bc f4 bd 3d 83 a7 00 3d 02 a8 7e 3d
       0.027273571 0.09275195 0.03140975 0.062171943
0002e0 cf c3 46 3d 53 b4 96 3c c6 f9 d6 bd 91 96 c7 bd
       0.04852658 0.018396532 -0.10496859 -0.09745515
0002f0 99 ad b9 bd d0 7f d6 bd 66 63 98 bd 87 f6 9f bd
       -0.09066314 -0.10473597 -0.07440834 -0.07810693
000300 41 f0 09 be 83 1f b6 bd ea 9c b7 3d 2e d5 f6 bc
       -0.13470556 -0.08892729 0.08965476 -0.030130949
000310 54 26 64 3d 80 62 8b bd 5c 36 aa bb c4 59 77 3d
       0.055700615 -0.06805897 -0.0051944684 0.06038834
000320 b6 af 74 bd 66 a1 86 3d 70 68 6f bd bc 38 ff 3b
       -0.059737884 0.06573753 -0.05844921 0.0077887457
000330 9c 58 fa 3d 1f 5b 4a bb 54 48 f5 3d d3 7c d4 bd
       0.12223932 -0.0030877066 0.11976686 -0.10375371
000340 ca dc 92 bd fd 83 ce bd 58 8b 72 bd 36 a4 74 bc
       -0.071710184 -0.100837685 -0.05921492 -0.014931729
000350 81 95 a8 bd 46 f9 ed 3c 44 34 85 3c 2f 85 27 3d
       -0.082316406 0.029049527 0.016260274 0.0408985
000360 b6 49 93 3c 7e ef c3 bd 7a e9 91 bd 16 42 cd 3b
       0.017979484 -0.09567164 -0.0712461 0.0062639816
000370 4e 7d fb 3c 27 6b a2 bc 29 7d 01 be 16 e7 67 3b
       0.030699398 -0.019826485 -0.12645401 0.003538554
000380 08 00 8b bd 53 42 53 bd 47 89 51 3c bd b5 db 3d
       -0.06787115 -0.051576924 0.012789077 0.10728023
000390 2e ab 91 3d b9 d8 2c 3c 9a 86 44 bd cd af ae bd
       0.07112728 0.010549718 -0.04797993 -0.08529625
0003a0 b5 50 bf 3c 68 d1 92 3d 6d e4 d9 3d 12 e9 99 3d
       0.023353914 0.07168847 0.10639272 0.07515158
0003b0 c0 4d ca bb 91 2c be 3c fb 47 43 3b 41 d5 0d 3c
       -0.0061738193 0.02321461 0.0029797542 0.008656801
0003c0 f5 76 b5 bd c0 2f 92 3d c4 1b 57 3d 7a d4 fe bd
       -0.0886058 0.07138014 0.052516714 -0.124428704
0003d0 20 6d bf bc df 8f 7c 3d f4 ff b6 bd c4 98 9b bc
       -0.023367465 0.061660644 -0.08935538 -0.018993743
0003e0 58 65 56 bd ca 19 97 3c e0 87 d7 3c f4 1e e2 bd
       -0.052342743 0.018444914 0.026309907 -0.1104106
0003f0 65 e1 a8 3d 1c 0d dc 3d 03 e8 be bc ce e0 f2 3d
       0.082461156 0.10744688 -0.023303991 0.11859284

transformer_encoder.layers.0.self_attn.out_proj.bias f4 [64]
000000 d4 df 9d ba 61 f5 c8 3a 5e 2b c3 3a de c0 3e 3c
       -0.0012044855 0.0015331918 0.0014890244 0.011642663
000010 13 bf 8f 3b 88 cb 19 bb 3a d4 22 3c 08 16 94 bc
       0.0043867915 -0.0023467261 0.009938294 -0.018076912
000020 1d c8 08 bb ec 11 25 bc 14 b8 fc bb bd c0 d1 ba
       -0.002087123 -0.010075074 -0.0077123735 -0.0016002875
000030 39 0b 30 3c 89 c4 a3 bc b4 76 6e bc 00 7d 3d 3b
       0.010744863 -0.019991176 -0.014554668 0.0028913617
000040 69 a6 b6 3b 2b 70 b3 3a 92 6c 4b bc ae ac 73 3b
       0.005574037 0.0013690045 -0.012416022 0.0037181783
000050 43 49 41 bc 0a 60 16 bc 41 be 27 bc b7 d2 a8 bc
       -0.011797252 -0.009178171 -0.010238231 -0.02060829
000060 97 cf 0d bc be bf cf ba de 71 ef bb 36 aa df 3a
       -0.00865545 -0.001584999 -0.007307275 0.0017064277
000070 2d bb 8d bb 08 1c 14 bc 52 5b 7e ba e9 c5 23 3c
       -0.0043252916 -0.009039886 -0.0009702939 0.009995916
000080 12 ec 8b bb 04 58 dd 3a db 07 ff bb 96 b4 33 3b
       -0.004270085 0.0016887193 -0.007782919 0.002742087
000090 cd dc 2b bc b1 87 78 bc 93 0e bc bb 76 ac a7 bb
       -0.010489655 -0.01516907 -0.005739042 -0.0051169945
0000a0 18 86 a6 3b 65 bb 2e 3c e7 51 7a bb f7 ed 1d 3b
       0.005081903 0.0106647955 -0.003819579 0.0024098137
0000b0 0b b0 94 bc 71 b0 1f bc 71 17 c9 bb d9 39 f8 3a
       -0.01815035 -0.009746657 -0.0061368276 0.0018938138
0000c0 d2 9e eb bc dc 43 b7 3b 8e 2b ae bc ca 5b bf bb
       -0.028762255 0.0055928063 -0.021261003 -0.0058397995
0000d0 ab 9a 03 bc 6f 42 5b bc 96 bf 6d bc ca 96 24 bb
       -0.008032481 -0.013382538 -0.01451101 -0.0025114291
0000e0 9e 36 d3 3b d3 78 1f 3a 56 7c a5 bb 2e f8 01 bb
       0.00644572 0.0006083373 -0.0050502224 -0.0019831765
0000f0 8d c5 51 3c b8 3f 9d bb 96 74 04 bc 19 cc f2 3a
       0.012803447 -0.0047988556 -0.008084437 0.0018523961

transformer_encoder.layers.0.linear1.weight f4 [256, 64]
000000 b4 93 91 3d 44 01 ce bd 1d 77 dd 3d 8e 44 b3 bc
       0.0710825 -0.10058835 0.10813735 -0.021883275
000010 d4 be 05 be f4 0c 05 3d df 6b aa bb 43 2e fe bc
       -0.13061076 0.032483056 -0.0052008475 -0.031027919
000020 39 e2 bb 3d 51 17 a3 3d 31 af e7 bc d8 45 1a bd
       0.09174008 0.079634316 -0.02828178 -0.037664264
000030 d0 cc 03 be d3 b3 7d 3d 26 82 e8 b9 ad 15 02 be
       -0.12871099 0.061939072 -0.00044347456 -0.12703581
000040 19 09 ae 3b 07 70 7d bd eb 04 49 bd c8 72 2e 3d
       0.005311143 -0.061874416 -0.049076956 0.042589933
000050 20 2f c0 3d 39 75 d7 bd 62 f1 22 bc 3e 04 81 bd
       0.093839884 -0.10520405 -0.009945245 -0.06299637
000060 05 70 39 bd 77 c7 13 be 6a 8c f7 bc 03 b8 fd bc
       -0.045272846 -0.14431559 -0.030218322 -0.030971533
000070 ea 82 9a 3c fc c8 ee bd ff 3b 47 3c f5 b1 1d 3c
       0.018861253 -0.116594285 0.0121603 0.009624948
000080 13 41 e3 bd 2d b4 5a bd 5e f0 e4 3c 6b fb ae 3c
       -0.11096396 -0.053394485 0.027946647 0.02136012
000090 81 f2 a9 3d 32 1c a4 3d e4 b0 54 bd e6 dd 8c 3d
       0.08298207 0.0801319 -0.05192651 0.06878261
0000a0 67 63 ae bd be 60 22 3c c4 b1 59 3d 1f 2c f8 bd
       -0.08515053 0.00991076 0.053148046 -0.121177904
0000b0 e4 18 c0 bd a4 5e 9c bd 7a 8e b6 bc 0c 02 ff 3d
       -0.093797475 -0.07635239 -0.022284735 0.12451562
0000c0 13 b2 d3 bc 5e ba 89 3d 47 0c 22 3d 30 e7 8c 3d
       -0.025841748 0.06725 0.03956249 0.06880033
0000d0 e8 71 2e bc d3 1c f8 bc 09 d8 df 3d 7a 64 1c bc
       -0.010647275 -0.030287182 0.10929877 -0.00954544
0000e0 63 3a 08 be f9 a0 a5 3d 73 6a ec 3d b9 4b 7d 3d
       -0.13303523 0.08087344 0.11543741 0.061839793
0000f0 07 24 0a be 67 ea ae bc a4 90 f5 b7 28 d1 a0 3d
       -0.13490306 -0.021352006 -2.927363e-05 0.078523934
000100 53 32 7d 3b 38 93 e6 3d 34 05 0e bd 16 fe 3b 3c
       0.0038634732 0.112585485 -0.03467293 0.011474153
000110 4f fd 5a 3c ca fe fd 3d 3e 2f dc 3d 80 6e 80 bc
       0.013366058 0.12402113 0.10751198 -0.01567769
000120 2e d0 7e 3d 5f f6 8a 3d 36 00 8f bd 94 8f bb 3d
       0.062210254 0.06785273 -0.06982462 0.09158245
000130 b8 58 79 3d 2c 5c ce bc d4 61 9f bb 21 71 65 3d
       0.060875624 -0.025190435 -0.004863957 0.05601609
000140 80 5f d2 bd a3 7c df 3c df 98 c7 3c 43 18 51 bd
       -0.102721214 0.027281111 0.024364887 -0.05104853
000150 f2 1e 94 3c 6b 2f 03 3d 02 16 5c 3d c1 78 8f bd
       0.018081162 0.032027643 0.053731926 -0.07005454
000160 dc 75 bb 3a 0a 88 88 3d f0 5f 6a 3d 7c 65 18 3d
       0.0014302093 0.066665724 0.0572204 0.037206158
000170 37 01 50 3d ca 0f 69 3d d6 b5 c4 bd af 68 e6 3d
       0.05078241 0.056899823 -0.09604995 0.112504356
000180 31 b7 d8 3d 2b ab d4 bd 76 06 00 bd f3 30 73 3d
       0.10581816 -0.1038421 -0.03125616 0.059372853
000190 1f a5 f3 bb 81 c5 cd 3c 2a 51 07 bc 80 24 aa bb
       -0.0074354555 0.025118591 -0.008259097 -0.0051923394
0001a0 65 62 e2 3d 70 ca 2e 3c 91 c5 53 bd e1 45 f2 bb
       0.110539235 0.010668382 -0.051702086 -0.007393584
0001b0 7d a3 26 bd 1f c1 00 bc fa 4f 81 ba e4 c0 0a 3d
       -0.04068326 -0.007858544 -0.0009865754 0.03387536
0001c0 95 52 ef bd ea d3 3a 3c 36 2f a6 bd 95 13 b3 bd
       -0.11685673 0.011403063 -0.081144735 -0.08743969
0001d0 a7 5f f6 bc 2b 46 bb bd 16 17 2d 3d 1c 73 8d bd
       -0.030074907 -0.09144243 0.042258345 -0.06906721
0001e0 56 80 0b bc 37 f9 dd bc 7a 6f b1 bd 03 81 44 bd
       -0.008514484 -0.027096374 -0.086638406 -0.047974598
0001f0 c6 dc 33 bd ba 2b bf 3d 7e 98 7f bd ab 6b a3 3d
       -0.043911718 0.09334512 -0.062401287 0.079795204
000200 51 75 90 3d 0d 09 ce 3d d2 5e c4 3d 22 50 29 3d
       0.07053626 0.1006032 0.09588398 0.041336186
000210 f1 65 ab bb 30 14 32 bd 85 bb a5 bd 5f e3 df bd
       -0.005230658 -0.043476284 -0.08092407 -0.109320395
000220 82 7b b2 3d d5 d1 c3 3d a8 70 b3 bd e5 f8 d2 bd
       0.087149635 0.09561507 -0.08761722 -0.10301379
000230 7c fa d7 bd 05 39 5d bd dc e3 95 3d e7 28 d5 bd
       -0.10545823 -0.054009456 0.07318851 -0.10408192
000240 38 6f be 3c 72 eb bd 3d 06 50 c9 3d 13 68 c6 3d
       0.023246393 0.09273423 0.098297164 0.09687819
000250 c9 b1 5e bc f8 e6 96 bb 94 1d c1 bd 76 b9 1c bd
       -0.013592192 -0.0046051703 -0.0942947 -0.038262807
000260 6d d9 27 bc 9b 54 df bd e8 13 6f 3d f9 5a 66 bd
       -0.010244709 -0.10904809 0.058368593 -0.056239102
000270 73 58 65 bc 5a 6a de 3d 21 b6 51 bd d0 a2 8c 3d
       -0.013998139 0.10860129 -0.051199082 0.068669915
000280 ca 22 ac bd 98 f9 f5 3d a3 8c 65 3b 3a 42 06 bd
       -0.08405073 0.12010497 0.0035026453 -0.032778002
000290 bb e4 c0 3d ba bf cc 3c 2c 52 69 bd b8 7d 00 be
       0.09418627 0.024993766 -0.05696313 -0.12547958
0002a0 26 29 c0 bd 8d f6 a6 3d 86 df 78 3d 98 46 4f 3c
       -0.093828484 0.081524946 0.060760044 0.012651108
0002b0 e1 19 a6 3d c3 c1 fd 3d 80 70 4e 3d b9 59 e6 3c
       0.08110405 0.12390473 0.050400257 0.028118955
0002c0 a2 8e 9b 3d 3c 26 06 be 80 cf 76 3d 70 bf bb bd
       0.075955644 -0.13100523 0.06025648 -0.09167373
0002d0 a1 ac 1b 3d 17 c2 1d bd bd 51 de bc 64 42 bf 3d
       0.03800643 -0.038515177 -0.027138585 0.09338835
0002e0 52 2e 54 3c 48 7f 0c 3d 54 86 eb 3d 01 e4 89 3d
       0.012950497 0.034301072 0.115002304 0.067329414
0002f0 79 d3 36 bd 8f 6c 06 bd 65 a5 82 bc 42 54 aa 3c
       -0.04463527 -0.032818373 -0.015948007 0.02079213
000300 a8 c4 cd 3d 2d 41 c7 3d ff bb 7e bc 27 07 01 3e
       0.10047275 0.09729228 -0.015547751 0.12600385
000310 61 e7 2e 3b d1 38 bd 3d 37 97 8f 3c 8c af 9a 3d
       0.0026688206 0.092393525 0.01752816 0.07553014
000320 78 92 e6 3d 51 58 07 3e 03 33 00 be fe 43 f0 bd
       0.112584054 0.13217284 -0.1251946 -0.117317185
000330 2d 75 18 bc aa 4d a7 3d e1 80 c7 bd b6 44 c1 3d
       -0.009305281 0.0816911 -0.097413786 0.09436934
000340 27 9c e6 bd 5e bc 83 3d 9d 6c 34 3d 7b 95 e1 3b
       -0.112602524 0.064324126 0.044048894 0.0068842745
000350 ed b4 8b 3d 40 9c 56 3d 11 ca db bd 5b b1 1d 3d
       0.06821618 0.052395105 -0.107319005 0.038499217
000360 70 65 87 bd 2c 73 b8 bd 77 e9 0c bd eb b8 c5 bd
       -0.066111445 -0.09006342 -0.034402337 -0.09654411
000370 0b a7 89 3d 57 9a e6 bd 8f e5 34 bd ae 4f 9c bd
       0.06721314 -0.11259907 -0.044164237 -0.07632385
000380 05 9f 0e 3d 5c d6 ce bd e6 c2 94 bd 5a 3a 9a b9
       0.03481962 -0.100994796 -0.072637364 -0.00029416644
000390 95 b6 47 bd 82 d1 04 3d fe a6 9d bd 9c 93 83 bd
       -0.04875811 0.032426365 -0.07697867 -0.06424639
0003a0 ac 1e 44 bd d1 bd bd bd 53 c2 b8 bd b3 ee 2f 3d
       -0.047880813 -0.0926472 -0.090214394 0.04295225
0003b0 7d f3 17 bd b6 8a 18 bd d5 87 cb 3d cc 59 44 bd
       -0.037097443 -0.03724166 0.09938017 -0.0479372
0003c0 9e 92 17 bc d9 ad ee 3d eb 6b 70 bd 79 02 58 3d
       -0.009251265 0.116542526 -0.05869667 0.052736733
0003d0 6d 3f 01 be c4 ae c3 bd 9a 30 e0 3d 2d ec 80 3d
       -0.12621851 -0.09554818 0.1094677 0.06295047
0003e0 ce 7c fa bc c7 8c d3 3c 9e ce 8b 3b 48 c9 c9 3d
       -0.03057709 0.025823964 0.004266574 0.098528445
0003f0 4a 83 e6 3d d9 3e 4d bc c9 55 1f 3d 59 03 d3 3d
       0.1125551 -0.012527191 0.03890017 0.10303373
