models/experiments/synthetic_data_finetuned_2024-12-07_00-22-08_By0/checkpoints/model_best.pth (torch, 629346 bytes, 53 tensors)

project_inp.weight f4 [64, 5]
00000000: bf10 f4bd 39cc 95be 935b 19be a116 683e
00000010: f6d3 8dbe 0d4b bebc b8f7 b3be 20d9 8cbd
00000020: 36bd cbbe a645 26be a540 9d3e 546c 04be
00000030: 22c7 803e e40b 2cbe 4731 853d 28c3 99be
00000040: 930d 843d 5173 98be 2efc 98be 1de3 77be
00000050: 3967 a63e 8a1a 133c 5e94 883e cca4 c73e
00000060: b3d1 303e 94cc 9abe 2fd3 15be e63c 883e
00000070: c4ff cf3e f7d4 c7bd b670 de3d 8066 c43d
00000080: 4e5c bf3e a3aa 1f3e 23d4 60be 73b9 d93e
00000090: 704d 17be bd2f 6c3e 2a48 453e ccfe b53e
000000a0: ad5b 893d 4f9b afbe 961c ba3e 02f2 b23d
000000b0: 3f8b 673e b929 adbc e855 4e3e 2cbf 1fbe
000000c0: a821 ecbd 93d8 c2be 3a09 8cbe 1fc0 88be
000000d0: 6466 e2bd 0011 893e 8e2e c0be ee73 903e
000000e0: 6181 5cbc 5388 babe 7a16 b4bd 2ef6 943e
000000f0: 2bc0 7ebe 5780 f23d 3ec1 87bd ff1d 7d3e
00000100: 7b2c e33e fe49 8bbe dd4b 973e d788 d5be
00000110: 632b ff3d 2683 94be 1444 8ebe 8189 4d3e
00000120: 69f8 753e faa2 bdbe 70a9 91be 6f3d 493d
00000130: 683f dfbe 4eb4 bfbe 2ae4 ae3d d247 dc3e
00000140: 1840 8bbe 8048 a93e 2682 9ebe 8817 9d3d
00000150: 31f2 c9be c9a4 5ebd 52be 313c cbb3 68be
00000160: 11da d9be ef34 dd3e bb4d 4fbe 6112 38be
00000170: 28bc 82be fb56 b03d dbd6 d5be 60f2 96be
00000180: dd1d 263d de4e 6f3e 346c bfbe 9d70 c8be
00000190: 7e57 30be 468c 7bbc 5934 9b3e 3333 94be
000001a0: 8d21 aa3e beb8 cebe 5397 91be 8d1f 3ebe
000001b0: 491b e13e 0e62 3dbd 63cf d23e ada6 413e
000001c0: a93b b8bd 1181 da3e 35cc 673e 3a4f ab3e
000001d0: 5a14 733e 34d6 6e3c 26d3 9abe 173e d93e
000001e0: db67 81bd 6b04 38be d741 5fbe a068 893e
000001f0: 457f a1be c47b 383e 81c3 5bbe 4fa8 c6be
00000200: 03f9 323e e149 7d3e 413b a4be b9b9 98be
00000210: 9605 5bbe 4a3e c23e b517 e13e 3884 afbe
00000220: f742 84be 48ea b63e 5cee 63bc 4757 c2be
00000230: f5cb d43e 8f10 acbe 5984 d8bd 3e8d babe
00000240: d153 2abe f42a a83e d480 25be 07d4 50bd
00000250: ee02 d43e 5fab 8bbe 4f74 093e 5eec dabd
00000260: 2a42 99be 6650 e63e d8b6 a23e c973 6bbe
00000270: 496c 9f3c 5472 803e 2d4a 423d a8bd bd3e
00000280: 035d 8e3e a52b ac3e a88e 453e 8434 5b3e
00000290: e74d 163e 54ea c0bd c453 8d3e ac97 25be
000002a0: 6cad 873c d391 81be c8dc 343e 2262 bcbe
000002b0: 79da a0bc b1a6 19bc c920 4dbe 2f27 7bbe
000002c0: a641 26be 0957 dc3b a0f9 dcbe e38b 933e
000002d0: edeb 363e 8920 1a3b 8314 87be 6baf 4ebd
000002e0: a642 cfbe 11c8 383d ef7d ac3e ddb7 f8bd
000002f0: cb49 9fbe 77fe a23e dd61 1cbd ad60 9e3c
00000300: a93c 133e dcdb cd3e ea7e aa3e 5ef3 093e
00000310: 3686 aebd 9386 b2be ace4 76bd 3732 dfbd
00000320: 0703 5b3e c852 96bd e069 373e 301c e33e
00000330: 95d0 a0be b8b7 bf3e 5afb 673e 1fc4 993d
00000340: c275 323d b92c 8a3e 301f 303e 1184 d1be
00000350: f316 513e d025 073d c71e 51be 38c8 cebd
00000360: cc8b 7a3e f23a 633e 6b35 bd3e 3bf3 5ebc
00000370: 96b7 273e 6164 31be dca6 903e 13aa b63e
00000380: 61aa 4ebc 9216 c43e 48c9 90bc e2fc 99be
00000390: 5515 0abc 51d3 c4be e7f3 69be 7f4f b0be
000003a0: 8a82 c33e 26fb d2be 9c53 d73e 50dd f83c
000003b0: 1047 253d d2eb 523e 7009 013e 0bf4 74be
000003c0: 5835 cfbe 0276 cf3e 5b0f ccbe d5d8 9abe
000003d0: 7a7c b53e f4a8 e1bd 9928 25be 7cde 5dbe
000003e0: 50a3 c7be 4fd6 ca3e a514 8f3e 096a 64be
000003f0: 254b a63e fed6 3d3e 3b2b c2be 097b 873e
-0.119172566 -0.29257372 -0.14976339 0.22664882 -0.27700776 -0.023229146 -0.35149932 -0.06877351
-0.39792794 -0.16237506 0.30713382 -0.12931949 0.25151926 -0.16801411 0.065035395 -0.30031705
0.064479016 -0.2977548 -0.29879898 -0.2420773 0.32500628 0.008978495 0.26675695 0.38992918
0.17267494 -0.30234206 -0.14631341 0.26608962 0.4062482 -0.09757417 0.10861342 0.09589863
0.3737511 0.15592436 -0.21955924 0.425243 -0.14775634 0.23065086 0.1926581 0.35545957
0.06706939 -0.3429818 0.36349934 0.087375656 0.22611712 -0.021138059 0.20149958 -0.1560027
-0.11529857 -0.38055858 -0.2735079 -0.26709077 -0.11054686 0.26770782 -0.37535518 0.28213447
-0.013458581 -0.36432132 -0.087933496 0.2909407 -0.24877994 0.11840885 -0.06628655 0.24718474
0.44369873 -0.2720489 0.29550067 -0.41705963 0.12459447 -0.29006308 -0.27786314 0.20071985
0.24020542 -0.37038404 -0.28449583 0.049130853 -0.43603063 -0.3744225 0.085396126 0.43023545
-0.27197337 0.33063126 -0.3095867 0.07670504 -0.3944259 -0.05435637 0.010848599 -0.22724836
-0.42549184 0.43204448 -0.20244496 -0.17975761 -0.25534177 0.0861034 -0.41765484 -0.29481792
0.040555824 0.23369929 -0.3738724 -0.39148417 -0.17220876 -0.015353268 0.30313376 -0.28945312
0.33228722 -0.40375322 -0.28435764 -0.18566723 0.4396613 -0.04623609 0.41173849 0.18911238
-0.08995754 0.42676595 0.22636493 0.33458883 0.23738232 0.014577437 -0.30239218 0.42430183
-0.06318637 -0.17970435 -0.2180246 0.26837635 -0.3154241 0.18015963 -0.21461298 -0.38800284
0.17477803 0.24735214 -0.32076457 -0.29829195 -0.2138885 0.37938148 0.439634 -0.34280562
-0.2583234 0.35725617 -0.01391181 -0.37957212 0.41561857 -0.33606383 -0.10572118 -0.36435884
-0.16633536 0.3284527 -0.16162425 -0.050983455 0.41408485 -0.27279183 0.13423274 -0.10689615
-0.29933292 0.44983214 0.31780124 -0.22993387 0.019460814 0.25087225 0.04743402 0.3705876
0.27805337 0.33627048 0.192927 0.21406752 0.14678155 -0.094196945 0.2760297 -0.1617114
0.016562186 -0.25306568 0.17662346 -0.3679362 -0.019635426 -0.009378121 -0.20032038 -0.24526666
-0.1623598 0.0067242426 -0.431592 0.28817663 0.17863436 0.0023517928 -0.26382837 -0.05046026
-0.40480536 0.045112673 0.3368983 -0.12144444 -0.31110987 0.31834766 -0.038179267 0.019333208
0.14378609 0.40206802 0.33299953 0.13471743 -0.085216925 -0.34868297 -0.060276672 -0.108982496
0.21387874 -0.07340008 0.17911482 0.44357443 -0.31409135 0.37444854 0.22654477 0.0750811
0.043569334 0.26987246 0.17199397 -0.4092107 0.2041891 0.032995045 -0.20421897 -0.100967824
0.24467391 0.22190455 0.36954817 -0.013607795 0.16378626 -0.17323448 0.28252304 0.3567663
-0.012613864 0.3829847 -0.017674103 -0.30075747 -0.0084279375 -0.38442472 -0.22846948 -0.3443565
0.3818553 -0.41207236 0.42055976 0.030378968 0.040350974 0.20597771 0.12601256 -0.2392122
-0.40470386 0.4051972 -0.39855465 -0.30243555 0.3544653 -0.110185534 -0.16128768 -0.21666902
-0.38991785 0.3961663 0.27945438 -0.22306074 0.32479206 0.18539044 -0.37923607 0.26461056

project_inp.bias f4 [64]
00000000: de0b bb3e bcfb b23e 0f25 cd3e f997 08bd
00000010: fbc8 c6bd bb94 2f3e 1e5b 4fbe bc5f ba3e
00000020: c330 a4be 3eca bf3d 670d df3e 7c4c aebd
00000030: f06c b2be 97a2 573e 1560 c93d 8f3e b23e
00000040: 4c5b 08be 5277 fd3c d891 c9bc 766d 8ebe
00000050: 9143 923e fe7a 56bd 3bfc 19be 5762 c33e
00000060: 96e4 8bbe a32e 00bd cdc7 d63c c789 833d
00000070: a711 483e c330 093e 5d95 c7be 7689 af3e
00000080: 59e2 25be e373 863d ed2b 3ebe 34d3 c3be
00000090: c916 a13e bcb5 913e 50cb 553a 30f3 b33c
000000a0: 4245 b13e a39e e7bb 0a63 863e ccfc bb3e
000000b0: e99b 503e f158 f43c 167d 1ebd 10c7 a83e
000000c0: ed58 8abe 57ad 3c3e 6ecb 9d3e 2c06 ce3e
000000d0: b535 cebe 3e8c 0a3e 34ea 593e 96fe cd3e
000000e0: ac75 80bd 606c 4a3d 4a6c 8e3e f6b4 543e
000000f0: 6e5d e8bc 00c6 853e a4ac 83bc 7c52 9e3e
0.3653249 0.34957683 0.40067336 -0.033348057 -0.09706303 0.1714658 -0.20249602 0.36401165
-0.32068452 0.093647465 0.43564913 -0.08510682 -0.34848738 0.21058117 0.09832779 0.34813353
-0.13316077 0.030940685 -0.024605677 -0.27817887 0.28567174 -0.05236339 -0.15037625 0.38160965
-0.27322835 -0.031294476 0.02621832 0.06422763 0.19537984 0.13397507 -0.38981143 0.34284562
-0.16199626 0.065650724 -0.18571444 -0.38247073 0.31462696 0.28458965 0.0008155601 0.021966547
0.34623152 -0.0070684715 0.26247436 0.36716306 0.20371975 0.029827567 -0.03869351 0.32964373
-0.2702097 0.18425499 0.30819267 0.40239084 -0.4027535 0.1353006 0.21280748 0.40233296
-0.06272444 0.04941976 0.27816993 0.20772156 -0.028364863 0.26127625 -0.016073532 0.30922306

pos_enc.pe f4 [10, 1, 64]
00000000: a59c 75bc 122b b0bc 62bb 94bc 179a 74bc
00000010: cd00 bebb f759 95bc 28c2 ccbb 08ea 83ba
00000020: 87d7 813b 8361 133c 44b5 a5bb c325 9dbc
00000030: 4b7f 1dbc c44c 23bc 95f7 51bb 66a8 b9bb
00000040: aa35 833b 3b4d 89bb 9ca2 a8bb 20d0 27bc
00000050: 0d8d f0bc e9ed 81bb a70f d3bc e379 33bc
00000060: 25bb c53b 0ef6 9c3b 640f 4ebc 751f fbbb
00000070: f3f6 43bb ab32 873c 56bb c03c 342e b1bc
00000080: 78f0 9e3c 43f9 71bb 6b5e bb3b 5910 073c
00000090: 4130 27bc 6a93 9fbc e478 e33c e976 c5bc
000000a0: c999 dbbc f853 2e3c 0374 88bb aa21 72bc
000000b0: d58e 0f3c 2ea1 d2bb 03e0 a7b9 3762 99bc
000000c0: 79f6 fc39 4995 323c fa8d 923b 6c9d a83c
000000d0: ff55 1abc 047b 403b 9160 eeba 5ac2 d6bc
000000e0: 6702 e93a e836 e93b 8655 edbc 5edd 86bb
000000f0: 50bd 4abc afa3 a2bb acbb da3b 5546 593c
00000100: 4197 52bc 6801 a8bc 0389 a13b 867a b2bc
00000110: fb1d a8bc dec2 04bb a016 b2bb 802a 47bb
00000120: 4071 b53b fa80 3b3c a541 d33b 6d3c 58bc
00000130: 9894 043c 2c8e d63b fb0e 94bc 8205 00ba
00000140: e493 04bc 46d6 aabc 9e6e 223c 02b3 9dbc
00000150: 8a64 623c ba0f 26bc af01 ddbc d140 083b
00000160: 0448 8a3b 502e 9cbc 0883 e23c ee40 3fbc
00000170: 12fa 483c 945b 27bc c615 01ba 77ef 403c
00000180: b42c 4fbc 8ec5 053b ba21 9ebb fe16 8fbc
00000190: 07cf 25bc 5cc1 803c 4265 8f3c 0cf5 07bc
000001a0: a7cc ac3c a4a9 38bc a485 713c 92da 433c
000001b0: 3a44 87bc 37a8 183b 840f 78bc b079 bc3b
000001c0: 2987 7bbc e526 473c 33bb 9abc 9c51 e8bb
000001d0: cbbe 38bb 18ac d2bb e6d3 9abc a482 753b
000001e0: bde5 6cbc 8d35 9e3c 5414 5cbc 4090 9cbc
000001f0: 4786 bf3c e044 afbc 28e2 6cbc dc28 4fbc
00000200: ab59 b4ba 4070 acbc b2c1 3fbc 9d65 393c
00000210: 05ce f23b 8ed9 af3a a888 bc3c 0319 333c
00000220: fbf2 68bc b830 acbb 3520 a03b 2b97 a7bc
00000230: ceba 21bb 9f79 733c c2a2 7abb 37c5 02bc
00000240: 19f0 b53b 588e 153c b517 c5bc 5a0b 093c
00000250: 8974 3dbc 3e84 d1bc afd7 603b 08f3 ccbc
00000260: 546a 0fbc 0bb0 893b 1140 4c3a 6ebd 683c
00000270: 5e5f db3a 6a7f 933b 2d56 2e3b 9334 67bc
00000280: 31da 5fbc c9f1 b9bc f066 7dbb f8bc 8e3c
00000290: 9a41 823b 2b04 b1bc 9894 37bc b597 913b
000002a0: 897c 26bb 79e3 9b3c 3741 28bc 97c0 2cbc
000002b0: 1302 75bc c5cd e13c 724e b8bc 58a3 71bc
000002c0: 44e4 b6bb c34d 933c f2d7 9cbc e43b 333c
000002d0: 37bb 963b 2bb2 6a3c 00fa 52bc b123 d33b
000002e0: 4d73 28bc a7fc a23b 7114 babc 16e3 be3c
000002f0: ec6c 7cbb 8e2f 173a b045 95bc fe84 55bb
00000300: 81c7 833c baae adbc b67d 163c 0e3a 68bc
00000310: 03ef afbc 2b6a 59bb 8374 793c c9fd 713b
00000320: 87b1 afbb 6c36 893b c714 82bb 8fd3 263c
00000330: 20e0 bc3c 294d e6ba 1fc3 fbbc 721a 943c
00000340: a0dd 553b b0aa b63b 2bcb 773c b7c6 833c
00000350: 6da5 5538 8825 5bbc b1f8 8b3c 101e 743b
00000360: 73e4 7ebb 384a a83c a84e 403c 0909 09bc
00000370: 839e 693c dcd6 34bb ad4f fd3c e426 5ebc
00000380: 6e1c c739 ba2f 37bc 2672 953c e2ad a73c
00000390: e7b8 453c 5ce8 6d3c 7ec8 e23c 3e21 3dbb
000003a0: 276e 0d3c e241 ab3b 98f0 b93c baed af3b
000003b0: 995d 5d3c 58a0 45bc 6831 71bc 540c 4e3b
000003c0: 1467 82bc 31ee d43b f451 b4bc b536 043c
000003d0: 888c d43c 927c 193c cfee 9fbc b75d 89bc
000003e0: 80c7 1e35 7aff 873a 9e86 eb3b 0384 b8bc
000003f0: 4491 70ba efb8 09bc 8d74 843b 0210 d5bb
-0.01499096 -0.021504913 -0.018155757 -0.014929316 -0.0057984353 -0.018231375 -0.006248731 -0.0010064254
0.0039624604 0.008995417 -0.005057009 -0.019183045 -0.009612869 -0.009967033 -0.003203844 -0.0056658266
0.0040042 -0.004190115 -0.0051463377 -0.010242492 -0.029364133 -0.0039651287 -0.0257643 -0.010954353
0.0060342723 0.004790074 -0.012576912 -0.007663662 -0.0029901832 0.016503653 0.023526829 -0.021628477
0.019401774 -0.0036922253 0.0057180426 0.008243644 -0.010204376 -0.019479472 0.027767606 -0.024104552
-0.026806729 0.010640137 -0.0041642203 -0.014778534 0.008762081 -0.0064279055 -0.00032019624 -0.01872359
0.00048248822 0.01089985 0.0044724913 0.020582877 -0.009419917 0.0029370198 -0.0018186738 -0.02621572
0.0017777205 0.007117141 -0.028971445 -0.0041157445 -0.012374237 -0.0049633603 0.0066752043 0.013261397
-0.012853445 -0.020508483 0.004929663 -0.02178694 -0.020522108 -0.0020257751 -0.005434826 -0.0030390322
0.005537182 0.011444325 0.0064470344 -0.013198 0.008092068 0.00654771 -0.01807355 -0.0004883633
-0.0080919005 -0.020854127 0.0099140685 -0.019250397 0.013817916 -0.010135585 -0.026978342 0.0020790587
0.0042200107 -0.019065052 0.027650371 -0.011673195 0.012266653 -0.010214705 -0.0004924204 0.011775843
-0.012644935 0.0020411941 -0.004825798 -0.017467018 -0.01012016 0.015717201 0.017504338 -0.00829817
0.02109368 -0.011270914 0.014741335 0.011953967 -0.016512025 0.0023293623 -0.015140418 0.005751811
-0.015352049 0.012155269 -0.018888092 -0.0070898067 -0.0028189893 -0.0064292066 -0.01889987 0.00374619
-0.014459071 0.019312644 -0.013432581 -0.019111753 0.023379458 -0.021395147 -0.014458217 -0.012644019
-0.0013759633 -0.021049619 -0.011703895 0.01131573 0.0074098133 0.0013416277 0.023014382 0.010931256
-0.014218087 -0.005254831 0.004886652 -0.020457825 -0.0024677995 0.01486054 -0.0038243984 -0.00798159
0.0055523035 0.009128176 -0.024059156 0.008364523 -0.011563429 -0.025575753 0.0034308245 -0.02501823
-0.008753378 0.004201894 0.0007791529 0.01420532 0.0016736796 0.004501273 0.0026601658 -0.014111656
-0.013662861 -0.0226983 -0.0038666092 0.017424092 0.0039751055 -0.021608433 -0.011204861 0.0044431337
-0.0025403819 0.019029366 -0.010269455 -0.010543964 -0.014954108 0.027563939 -0.022498343 -0.014748417
-0.0055814106 0.017981416 -0.01914594 0.010939572 0.0045999545 0.014324705 -0.012876987 0.0064434637
-0.010281396 0.004973966 -0.022714825 0.023301642 -0.003851707 0.0005767279 -0.018221706 -0.003258049
0.016086342 -0.02120148 0.009185245 -0.014173998 -0.021476274 -0.0033174853 0.015225532 0.003692495
-0.005361739 0.004187396 -0.003969762 0.010182275 0.02305609 -0.0017570603 -0.03073269 0.018079016
0.003263332 0.0055745468 0.015124123 0.016085966 5.0937222e-05 -0.013375647 0.017086359 0.0037249364
-0.003889349 0.020543203 0.011737503 -0.008363971 0.014258984 -0.0027593886 0.030921781 -0.013559077
0.0003797742 -0.0111808125 0.018242907 0.020468656 0.01206801 0.014520731 0.027683493 -0.0028858925
0.008632219 0.0052263597 0.022697732 0.0053689154 0.013511085 -0.012062155 -0.014721252 0.0031440454
-0.015918292 0.006498121 -0.022011735 0.008069684 0.025945917 0.009368079 -0.019523052 -0.01676832
5.91499e-07 0.001037582 0.0071876785 -0.022523886 -0.00091769197 -0.008405908 0.0040422142 -0.0065021524

transformer_encoder.layers.0.self_attn.in_proj_weight f4 [192, 64]
00000000: 6273 12bc 49da 2e3c fe43 d5bd a847 8b3d
00000010: 0e29 0bbe bc9e 03be 2fbf 8abd 6448 b43d
00000020: a467 99bd a6fd 203e 9164 78bd a2c4 cdbd
00000030: 6ae8 f5bd ba3f 733d 2bdb 5dbd 17b1 f03c
00000040: 8357 80bd ec5f 5d3d 0f63 33bd 2ee3 8cbc
00000050: 9aaf 033d 820c 92bd 9488 eabd 6553 d9bd
00000060: 7f04 08bd 3fcb 07be 9a53 dfbd 37d9 d53d
00000070: aa10 e8bd 97cf b4bd db37 903d 4d1f 06bd
00000080: 1336 a7bd 693e d4bd d41d f93d 1c5b 653d
00000090: 4e25 933d 1d40 f6bd 11ce 64bc b372 fbbd
000000a0: 8bdd e9bc 0c18 953c 833e ba3d 4552 123e
000000b0: deb0 703d f19a cabc ad02 e1bd acc7 723d
000000c0: 3523 b23d 9a6a acbc 8097 123d 955e 153d
000000d0: 9f05 0fbe dcb4 dfbd 877b 403d 6a53 513d
000000e0: 5c08 c53c bb31 723d cc45 26bd 6e9a 10be
000000f0: e347 8d3d feff 5f3d f663 03bd 9820 c7bd
00000100: c04f 44bd 107b f23d 9146 98bd b796 9b3d
00000110: da5b 00bc 7e35 c33d 134e 16be ba44 dfbd
00000120: dbce cb3d a749 d63d 6e97 a4bd 5b72 993d
00000130: 0192 d73d 1e1b 103c 9ca9 e43d c71d 083e
00000140: 268e b93d b25a b0bd be18 ec3d 9bfb 2fbc
00000150: 6b4a f23d b037 a5bd e039 b83d 392a 41bd
00000160: 93df 2e3d 4304 b23d 7a7e 023e 5768 883d
00000170: ea8a c3bd 7950 af3d 4197 cf3d cf5d fbbd
00000180: bf3f b5bc 0db0 93bd e965 f2bc 48df 053e
00000190: 023f b83d 1ba5 34bd 4c8f 93bd 459a d8bd
000001a0: 1937 d4bc 02eb 0f3e c15e a13c d7b8 d73d
000001b0: a120 803d 5228 073e b676 f23d 70e5 bb3c
000001c0: 9fbd 0d3e 5e1b d4bc 94da 033e 805a f4bd
000001d0: 7cc5 ca3d d6bb 12be 892c 0c3e 78cf 6d3d
000001e0: d10b 6e3d 455a e4bd c612 6bbd 06c4 cfbd
000001f0: 0236 0c3e d19d 863b 39e6 523d 058a ef3a
00000200: 3b04 b4bd b014 01bd 494a 71bb f3d4 183d
00000210: 44de 9c3d f273 283c 4fbd dabc 0351 fd3c
00000220: b8a5 9d3d 4842 213d 3461 bfbc a36e a23d
00000230: 98f3 a0bd 1c1d c3bc fba4 dbbd 8396 e03d
00000240: fe7d 7bbd 6437 e8bd 94e7 9abd 8378 343d
00000250: 2300 003d 15a1 943c 2fad 84bd 37e3 b0bd
00000260: 98d7 7a3c 8cdd 463d 302e 48bd d134 c6bd
00000270: 3804 5abd 06dd 89bd a8d0 d9bc 71f5 ae3c
00000280: 244d 75bd d010 a43d 6d5c 1d3b c5a8 123e
00000290: 1aed 16be 0b7f 07be cf95 02be 3114 c33b
000002a0: 17e0 aa3c 4ae3 973d 4ebe 11be defe f0bd
000002b0: 9abd ce3d b036 f4bd fe6c c33d 9f3e 6abd
000002c0: a6dd 11be 62f2 063e 4491 97bd dc9a 7dbc
000002d0: d0ea d03d 6943 323d a5ba c93d 94af 993d
000002e0: d57a 173e 2dd3 06bc 0741 51bd d9c3 da3c
000002f0: 55d4 c83d 8ebb 25bd a1ff 893c 43a4 523d
00000300: 22b6 11bd cf74 24bb 4ac0 c0bc 345a 023e
00000310: ebb6 80bd 2901 19be 1f30 9abb a8a1 a43d
00000320: eb40 63bb f228 aa3d 9823 b83d 0035 1dbe
00000330: 891b b9bd 7e40 0dbd e047 4e3d 7319 753d
00000340: b769 98bd 97a4 cdbd eead 023e 2d76 07be
00000350: cc5f 6bbd 6813 b63c ec51 a1bb 1dd2 a0bd
00000360: ce3b 2f3d df6a e4bd 576b db3d 275a b3bd
00000370: 955d 1e3e 75f5 0cbe 23c9 10bc 8f32 3f3d
00000380: 4b43 10be 38ea e03c dfcc 5d3d c3eb b3bd
00000390: 859a adbb dbcc 053c f143 e6bd 92b8 06bd
000003a0: 6099 06be a128 5dba 52a8 e1bd 7970 acbd
000003b0: a654 54bd a068 bcbd cbd7 663b dfd1 153d
000003c0: e40c 3b3d da1b 86bd 21fe 08be db24 d0bd
000003d0: 5ebd 0fbe 37ba e73d a652 143c 301f b4bc
000003e0: 8ed4 f33d 366c 043e f7c5 b1bd 60be e2bd
000003f0: b611 003e 9f61 453d 9564 58bd 4176 a2bd
-0.008938642 0.01067216 -0.10413359 0.06800777 -0.1358988 -0.12853521 -0.067747466 0.0880287
-0.07490471 0.15721759 -0.060642783 -0.1004727 -0.1200722 0.059386946 -0.054164093 0.029381318
-0.062666915 0.054046556 -0.04379564 -0.017198171 0.03214989 -0.07131292 -0.114518315 -0.10611609
-0.033207413 -0.13261126 -0.109046176 0.10441821 -0.113313034 -0.08828657 0.070419036 -0.032744695
-0.08164611 -0.10363466 0.121638924 0.05599509 0.0718485 -0.120239474 -0.013965146 -0.122777365
-0.028548023 0.018199943 0.090939544 0.14289196 0.058762424 -0.024732085 -0.109868385 0.059272453
0.086981215 -0.021046925 0.035789013 0.036467154 -0.13966988 -0.10923168 0.046992805 0.05110494
0.024051838 0.059129458 -0.040593907 -0.1412141 0.06898477 0.054687493 -0.032077752 -0.09723014
-0.047927618 0.118398786 -0.074353345 0.07597106 -0.007834399 0.09531687 -0.1467822 -0.109017804
0.09951564 0.10463267 -0.080366954 0.07492515 0.10525895 0.008795528 0.11165163 0.13292609
0.09060316 -0.08611049 0.11528157 -0.01074114 0.118306 -0.08067262 0.08995414 -0.047159407
0.042693686 0.08692219 0.1274356 0.06660526 -0.0954798 0.08560271 0.10136271 -0.12273752
-0.022125123 -0.072113134 -0.02958961 0.13073456 0.08996393 -0.04410277 -0.07205066 -0.105762996
-0.025905179 0.14054492 0.019698502 0.10533302 0.062562235 0.13198975 0.118390486 0.022936553
0.13841866 -0.025891956 0.1287635 -0.11931324 0.099009484 -0.14329466 0.13688864 0.058059186
0.058116738 -0.1115003 -0.05739095 -0.101448104 0.13692477 0.0041081687 0.05148909 0.0018275386
-0.087898694 -0.03151387 -0.003681796 0.03731246 0.07659581 0.01028155 -0.026701597 0.030922418
0.07697624 0.03936985 -0.02336178 0.079312585 -0.07858962 -0.023817591 -0.10724827 0.10966208
-0.061399452 -0.1133869 -0.07563701 0.04406024 0.03125013 0.018143216 -0.06478345 -0.08637088
0.015310191 0.048551127 -0.048872173 -0.09678043 -0.05322668 -0.0673161 -0.026588753 0.02135727
-0.05988802 0.08011019 0.002401139 0.14322193 -0.14738885 -0.13232057 -0.1275246 0.0059533347
0.020858807 0.07416399 -0.14232752 -0.11767362 0.100947574 -0.11924493 0.09542273 -0.057188626
-0.14244708 0.13178399 -0.07400754 -0.015478816 0.10201037 0.04352132 0.09850053 0.07504192
0.1479295 -0.008229059 -0.051087406 0.026704716 0.09806124 -0.04046207 0.016845526 0.051426183
-0.035574086 -0.0025094037 -0.02352919 0.12729722 -0.06284889 -0.14941849 -0.0047054435 0.08038646
-0.0034676145 0.08308591 0.08991164 -0.15352249 -0.09038455 -0.034485333 0.050361514 0.059838723
-0.074420385 -0.10041159 0.12761661 -0.13228674 -0.057464406 0.02222605 -0.004923096 -0.07852576
0.042781644 -0.111531965 0.10713833 -0.087574296 0.15465386 -0.1376551 -0.008837017 0.046679076
-0.1408817 0.027455434 0.05415046 -0.08785202 -0.005297961 0.008166517 -0.112434275 -0.032890864
-0.13144445 -0.0008436535 -0.11018433 -0.0841989 -0.05183854 -0.09199643 0.0035223837 0.0365771
0.04566659 -0.06548281 -0.13378192 -0.101632796 -0.14037082 0.113148145 0.009052908 -0.021987528
0.11905776 0.12931904 -0.08680337 -0.110714674 0.12506756 0.0481888 -0.052830297 -0.079327114

transformer_encoder.layers.0.self_attn.in_proj_bias f4 [192]
00000000: 5c5d 9fbb 1d64 e73b 3dc7 fd3b f155 f3ba
00000010: 32a9 e13b 0f2a 42bb ca3b 9c38 45d9 f03b
00000020: 1bdb acba 4b49 de3b 6d39 433c 0afb 973c
00000030: ae44 793b b447 af3b 151b 173b 369b 11bc
00000040: d38a c63b ef8a 9a3a 9684 6bbc 08a5 9dbc
00000050: 9aae aeba e4d6 71bb 0509 c8ba 9fb9 3d3b
00000060: 06d0 993b c7f2 2b3c a55f 9cbb e45a 9a3a
00000070: e1d4 ae3a ca2e a2bb 8246 723c 392c d9bb
00000080: 4800 d3bb ed9e 653b 59c4 b2bb 9bf5 68bb
00000090: 77a2 2ebc 0dfb 843c cecf 26bc cd2d 9bbb
000000a0: 0fb5 74bb caea 2bb8 f08c 9c3b 63d2 7d3b
000000b0: 531f 0bbc 37ba e43b 8d49 503a 9706 923b
000000c0: 5032 8639 eee0 1dbc 0a2e a9ba 93ae 15bc
000000d0: 41f3 94bc aeb0 ecb8 7a65 843c 7c4a 46bc
000000e0: 2072 4a3c ee90 0539 3a66 78bb 922d 2a3c
000000f0: 2c0a c339 3d4c ffbb 2d67 26bb 5709 54bb
00000100: de3a 15b7 74c7 c639 0eea f0b8 2722 e2b7
00000110: 1023 11b9 6d4d 4639 adb8 88b6 6c7e 36b9
00000120: 1c51 2839 ce98 d2b7 24d1 0d39 089d 1139
00000130: c0db 143a dd0e 20b9 75d8 95b7 26a0 1e39
00000140: 531a a539 e294 cdb9 c5b4 66b6 bc56 3d39
00000150: 358a 41b8 d90c fb37 82f8 f4b9 b0c6 9fb9
00000160: f8eb 2e39 befe 2838 1f31 36b9 e1d8 4f38
00000170: d26a 4237 068a 53b9 e73d 9537 f917 25b9
00000180: 2760 bb37 e817 5938 3924 a739 0d66 bfb8
00000190: df04 8439 e1e4 a8b8 2d88 e4b8 67b5 1a39
000001a0: 6306 adb9 da6a d137 79d7 a237 436a b4b8
000001b0: 4742 7d38 351c 4ab8 6c9c a636 a79d 1139
000001c0: 46fe 38b9 853e 53b9 166c 2439 6d39 cab8
000001d0: 844d 0c38 0475 6eb9 6aa2 44b9 0c6f b438
000001e0: 0866 25b8 3d1e 16b8 51eb 3839 140d 8ab9
000001f0: 9395 2f38 7f79 e438 2b57 c2b9 1064 1239
00000200: 816b 623c 02e4 b5bc bf9e 12bc 6c3f 663c
00000210: 33fa a5bb ca95 f6bb 0925 7a3c ec13 92bc
00000220: 22ba b1bc 7826 8cbb 7f3b 1b3c 4366 973b
00000230: 928a cb3b 425d 0cbc fe2a 50bb 6060 a3bb
00000240: a162 9fbb 9ba4 96bc 9208 85bb 4898 87bc
00000250: da9f 8c3a 066b 2c3c 717c 55bb ce59 273c
00000260: c3fe 12bc e881 993b 045c 13ba 8129 343c
00000270: c7de 603c c9d3 6bba 2b18 573a 7f03 1b3c
00000280: 7e8d f9b7 0551 88bc 21d0 40bc 3f78 cdbb
00000290: da29 91bb 0091 4fbb 0513 bf3b b87c 7fbb
000002a0: e336 3b3c dfac 08bc d131 4bbc fff0 da3b
000002b0: b77d 9dbc 5c2e aa3b aa81 8eb9 3c48 533c
000002c0: 7a06 6ebc 0dd7 ec3b 5152 b1bb 5f98 33ba
000002d0: 0e11 293c bfc6 073c 8353 bc3b 9338 5b3c
000002e0: 9e07 a43b dea3 9d3b d58a b0bb aa33 6f3a
000002f0: 2e45 053c ee59 ebbb 41a5 4fbb 2791 303c
-0.004863424 0.007061495 0.0077446983 -0.0018565041 0.0068866247 -0.002962712 7.449796e-05 0.0073501193
-0.0013187857 0.0067836395 0.011915547 0.018552322 0.003803532 0.005349124 0.0023056914 -0.008887103
0.0060590296 0.0011790673 -0.014374873 -0.019243732 -0.0013327182 -0.0036901766 -0.0015261477 0.002894975
0.004693988 0.010494894 -0.004772144 0.0011776355 0.0013338589 -0.0049494253 0.014787318 -0.006627586
-0.0064392425 0.0035037354 -0.0054555354 -0.0035546783 -0.010658852 0.016232992 -0.01018138 -0.0047356845
-0.0037339365 -4.098824e-05 0.0047775432 0.0038730137 -0.008491355 0.0069802064 0.000794553 0.004456352
0.00025595957 -0.009636147 -0.0012907397 -0.00913586 -0.018182399 -0.00011286266 0.016161669 -0.012102719
0.012356311 0.00012737859 -0.0037902729 0.010386841 0.00037200877 -0.0077910707 -0.0025391087 -0.00323542
-8.894798e-06 0.00037914107 -0.00011487688 -2.6957203e-05 -0.0001384134 0.00018911595 -4.074615e-06 -0.00017403968
0.00016051944 -2.5105106e-05 0.00013524719 0.00013886776 0.0005678497 -0.00015264326 -1.786298e-05 0.00015127714
0.00031490866 -0.00039211573 -3.4377892e-06 0.00018056756 -4.61435e-05 2.9927514e-05 -0.0004672446 -0.00030474877
0.00016681838 4.029157e-05 -0.00017375172 4.955463e-05 1.1588172e-05 -0.00020173946 1.779101e-05 -0.00015744557
2.2336912e-05 5.1759096e-05 0.0003187971 -9.126598e-05 0.0002518063 -8.053496e-05 -0.00010897252 0.00014754162
-0.0003300189 2.4964498e-05 1.9412242e-05 -8.6028616e-05 6.0381626e-05 -4.8186823e-05 4.9653954e-06 0.00013887008
-0.00017642332 -0.00020145818 0.00015680524 -9.642807e-05 3.3450793e-05 -0.0002274104 -0.0001875252 8.603753e-05
-3.943409e-05 -3.579095e-05 0.0001763527 -0.00026331155 4.1862553e-05 0.000108945176 -0.0003706751 0.00013960921
0.013819576 -0.02220345 -0.008948981 0.014053207 -0.0050652265 -0.0075251805 0.015267619 -0.017831765
-0.0216952 -0.004277047 0.009474634 0.004620345 0.006211587 -0.008567156 -0.0031763907 -0.004985854
-0.0048640524 -0.018389037 -0.0040598596 -0.016552106 0.0010728792 0.010523563 -0.0032575394 0.010214282
-0.008971873 0.0046846755 -0.00056213164 0.010996223 0.013724989 -0.0008996097 0.00082052004 0.009461283
-2.9749e-05 -0.016640196 -0.011768372 -0.006270438 -0.004430038 -0.003167212 0.0058311247 -0.003898425
0.01142666 -0.008341997 -0.012402014 0.006681561 -0.019224985 0.0051935147 -0.00027180958 0.01289564
-0.014527911 0.0072277845 -0.005411424 -0.0006851013 0.010319008 0.008287131 0.00574726 0.013380188
0.005005791 0.0048107943 -0.005387644 0.0009124825 0.0081341695 -0.0071823513 -0.0031684192 0.0107767945

transformer_encoder.layers.0.self_attn.out_proj.weight f4 [64, 64]
00000000: 3675 bd3d f1a8 453d f12d 0fbd cc44 d2bd
00000010: 8854 d4bd 2890 b13d db9e cdbd 8a66 9a3d
00000020: f9a4 aa3d d0c6 05ba 4cd3 f5bb 4aa9 2d3d
00000030: d8a9 c2bd 501a a33d 6959 48bc ed9c 23bd
00000040: 5196 b0bd 3211 e33d 102d 69bc 876a c33d
00000050: 6e30 2b3d 25e3 453b 3cb1 a13d abc0 88bd
00000060: 9202 af3d 297a 8c3c b1ea 64bd cc2d 183d
00000070: d927 6dbd b9dd c6bd 1622 a23d aabd 9b3d
00000080: d17b 9c3d da7e cfbc 339c ae3d 1b8a 833c
00000090: 0a4f 2a3d 8d9e 34bc a982 003e e9b0 1ebd
000000a0: edd2 253d 5983 ee3c 1997 473d 0284 c23d
000000b0: 6c3b acbd 3ff7 b13d 8f0a a93d 3346 e1bc
000000c0: 0045 603d 9025 d1bd 39a9 cc3d a523 223d
000000d0: 571b a63c 142a e4bc eb00 b0bd 7483 943d
000000e0: 17b6 42bc 5ad8 c43d 5a9e 38bd 6236 1d3d
000000f0: 9f79 ca3d c759 e13c d911 9b3c 1a7e d6bc
00000100: 8198 673d b036 9a3c 344f 1a3d 90b3 e7bc
00000110: 9fcb 50bc 92d2 943d 92cb dbbd 18fc 73bd
00000120: 7b53 553d 0744 863d ed9d a23d 2532 093c
00000130: 1de9 8f3d cfb7 88bd 620d bebc 2df3 9dbc
00000140: 5301 eebd 3161 df3d 20c0 cabd 4e82 c33d
00000150: f9ab 00be 1b67 0f3d b3e6 efbd 8a5b 4dbd
00000160: 94e6 b93d ecd8 90bd 88c4 1abd 9e74 9a3d
00000170: 68f4 2fbd 8b4b 9dba f755 96bc fc00 84bd
00000180: 8bfe 75bd 42fb 283d fa24 b2bb b954 533d
00000190: 4698 333d 3b26 f13d 5345 debc 8650 fcbd
000001a0: 95d1 003d 30a2 7f3d bf34 b8bb 6a37 353d
000001b0: 1567 e93d 2b07 dabd 471b 34bd 53c8 d93c
000001c0: 8af9 ed3d d195 aa3d 0af6 efbd 56d0 10bd
000001d0: de9b b13d 8654 643d 909f ca3d abe6 d7bd
000001e0: 2d43 d5bd 6807 2d3d 53e7 02bd b1ed 013d
000001f0: c896 db3c e413 df3d bce9 2dbd 0124 aabc
00000200: 562f 8c3d b066 dbbd d121 0e3c c0d6 3fbd
00000210: 9fa3 e3bd 8135 40bd b480 01bd e3fd c53d
00000220: 3a8a c9bc 08e7 bbbd 88a8 82bd aaf6 cebb
00000230: ae19 edbc 8909 c63c 2a9f 78bd 7688 54bd
00000240: e7e1 ca3c 00c0 acbc 0ee5 e23d 64d3 103d
00000250: 0c60 223d b224 b13d 0913 983d 4bea ea3d
00000260: 881e 823d 478e 123d dd1f ffbd f2fd 38bd
00000270: e544 943d 7112 b0bc b8ec b5bd 3515 84bc
00000280: b55b 183d a152 17bd 43b2 68bc 4c70 823d
00000290: 505a fc3d 0af9 8f3a 1f8a 91bd c757 debd
000002a0: d6c2 5ebd 1aeb 323b 07d6 fe3d 3a7a b4bc
000002b0: 683e f13d d66d 6a3c 1013 a7bb 749b 89bd
000002c0: fa32 053c 20a2 dfbd aace 9b3d 425b 91bd
000002d0: 0f9f e33c a6df bb3d a7f6 fd3c 8db8 7b3d
000002e0: a332 453d 4989 a13c c2e7 d4bd 871b c7bd
000002f0: 3300 b8bd 6a60 d4bd 370f 96bd acd5 a1bd
00000300: 72ae 0abe 9bd5 b2bd 44a9 b63d d006 f8bc
00000310: b54f 623d 9676 8bbd 424e 83bb fdd9 763d
00000320: 9c89 77bd c6bc 863d 3ddd 73bd 589d ef3b
00000330: b037 fb3d 0997 42bb a43c f83d 6229 d5bd
00000340: 79f7 90bd 6170 cbbd bed2 77bd c7a1 7ebc
00000350: 87cf a8bd 2c5f e53c 8614 7c3c 4ff1 253d
00000360: 7135 8e3c adfc c3bd 8607 92bd f3a2 c73b
00000370: 941e fe3c 1f1f 97bc 23b8 02be 7a32 3f3b
00000380: 43b3 8cbd e996 53bd 33c8 5b3c f440 db3d
00000390: 34a7 923d 17c5 193c dac7 45bd d421 afbd
000003a0: 763f b53c 2391 933d bab3 d73d 5e5a 9c3d
000003b0: b6f5 b9bb ef9c c43c 8608 443b 527e 123c
000003c0: 8788 b6bd 3566 913d 7cc1 543d d929 00be
000003d0: d53b c1bc 46b6 783d 3c83 b6bd 7b83 9cbc
000003e0: fb1f 58bd 6eab 9f3c 2721 e03c 099e e3bd
000003f0: 0539 aa3d 4898 de3d 67de bcbc 4b96 f13d
0.09250872 0.04825682 -0.034955923 -0.10267028 -0.103676856 0.08670074 -0.10040065 0.07539089
0.08332247 -0.0005103173 -0.007501995 0.042397775 -0.095050514 0.07964003 -0.012228348 -0.039944578
-0.086224206 0.11087264 -0.014231935 0.09541803 0.041794233 0.0030195203 0.07895133 -0.066773735
0.08545412 0.017148094 -0.05588788 0.03715305 -0.05789933 -0.09710259 0.079166576 0.07604535
0.076408036 -0.025329042 0.085258864 0.016057065 0.041579284 -0.01102413 0.12549843 -0.038742933
0.040484358 0.029115366 0.048728082 0.09497835 -0.08409771 0.086897366 0.08253967 -0.027499294
0.054753304 -0.102122426 0.09993214 0.039584775 0.020276709 -0.027852096 -0.08593925 0.07251635
-0.011884234 0.09611578 -0.04507289 0.03838194 0.09886479 0.02750863 0.018929409 -0.026183177
0.056541923 0.018824905 0.03767319 -0.028283864 -0.01274386 0.072667256 -0.10732187 -0.059566587
0.052081566 0.06555944 0.07940278 0.008373772 0.07026885 -0.06675684 -0.02319974 -0.019280994
-0.11621346 0.1090721 -0.09899926 0.09546338 -0.12565602 0.03501044 -0.11713924 -0.050136127
0.090771824 -0.070726246 -0.037785083 0.07541774 -0.042957693 -0.0012000663 -0.018351538 -0.064455
-0.060057204 0.041255243 -0.005436537 0.05159447 0.04384639 0.1177487 -0.027132666 -0.12320046
0.031449873 0.062410533 -0.005621522 0.0442423 0.113966145 -0.106458984 -0.043971326 0.02658478
0.116198614 0.083293565 -0.1171685 -0.035354935 0.086723074 0.05574467 0.098937154 -0.10542043
-0.104132034 0.04224339 -0.03195889 0.03172082 0.026805297 0.10892466 -0.042459235 -0.020769121
0.06844966 -0.107129455 0.008675055 -0.04683566 -0.111151926 -0.046926025 -0.03161688 0.09667566
-0.024602044 -0.09174925 -0.06379801 -0.0063160257 -0.02894291 0.024174469 -0.060698666 -0.05188795
0.024765922 -0.021087646 0.11078845 0.035357848 0.03964238 0.08649577 0.07425506 0.11470469
0.063534796 0.035780217 -0.12457249 -0.045164056 0.07239703 -0.021493169 -0.08883041 -0.016123394
0.037196834 -0.036944035 -0.014202657 0.06369075 0.12321913 0.0010984254 -0.07106423 -0.10856586
-0.05438503 0.0027300776 0.12443166 -0.022030938 0.11779481 0.0143084135 -0.005098708 -0.067191035
0.00812983 -0.10919595 0.076077774 -0.07097484 0.027785806 0.09173517 0.031001402 0.0614553
0.048143994 0.019718783 -0.10395767 -0.09722047 -0.08984413 -0.10369952 -0.07327121 -0.07902083
-0.13543108 -0.08732148 0.089190036 -0.030276686 0.055251796 -0.06809728 -0.004007132 0.060266484
-0.06043397 0.065789744 -0.05953716 0.007312458 0.12266481 -0.0029692075 0.12120941 -0.10408284
-0.07078452 -0.09933544 -0.060503714 -0.0155415 -0.08242708 0.027999483 0.015385753 0.040513333
0.017359467 -0.095696785 -0.07130341 0.006092423 0.03102044 -0.018447457 -0.12765555 0.0029174373
-0.06870129 -0.05165759 0.01341443 0.10705748 0.07160798 0.009385369 -0.048286296 -0.08551374
0.022124987 0.07205417 0.10532327 0.07634424 -0.005675043 0.024000613 0.0029912307 0.00894125
-0.08912759 0.070995726 0.051942334 -0.12515964 -0.0235881 0.060720704 -0.0891175 -0.019105664
-0.052764874 0.019490924 0.027359558 -0.11114127 0.08311657 0.10868889 -0.023055268 0.11796244

transformer_encoder.layers.0.self_attn.out_proj.bias f4 [64]
00000000: 4a37 3dbb e760 d83a ef67 563a a753 3c3c
00000010: bd9c 8c3b c1c7 45bb 23d5 183c 55eb 95bc
00000020: b504 81bb ad96 28bc e5bd ffbb b9bf b2b9
00000030: 3674 383c ef48 aabc 3756 77bc 6620 d53a
00000040: c1ab a83b cd3e 143b d68b 4cbc 0078 e23a
00000050: abda 3fbc 9b91 08bc fbf2 2fbc eaa7 a3bc
00000060: 096a 06bc 069e d3ba 1898 debb 2244 b83a
00000070: 0207 44bb e9bb f8bb ae8a 4a39 c311 1d3c
00000080: 7985 9cbb 2e33 073b 39be e6bb 6b85 303b
00000090: f2a3 3abc 840a 81bc dd8f 9bbb ceda 9fbb
000000a0: 7869 d73b 80b2 393c 50a2 3cbb 7c4d 643b
000000b0: 5718 97bc ed82 29bc c552 cdbb fa06 1d3b
000000c0: e034 f0bc b92d c53b e484 b1bc 0357 ffbb
000000d0: 23d1 00bc 2fdf 6cbc 5f79 59bc 5312 e4ba
000000e0: ad61 c13b c752 3a3a 24cc 85bb 1843 6dbb
000000f0: 9f8f 393c 2df4 7abb 0513 0bbc ce82 823a
-0.0028872066 0.0016508371 0.00081789395 0.011494554 0.0042911456 -0.0030178877 0.0093281595 -0.018300692
-0.0039373287 -0.01028983 -0.0078046196 -0.0003409365 0.011258176 -0.02078673 -0.015096239 0.0016260266
0.005147428 0.002262044 -0.012484511 0.0017278194 -0.011709849 -0.008335496 -0.010739083 -0.019977529
-0.008203992 -0.0016145117 -0.0067930333 0.0014058391 -0.0029911404 -0.00759076 0.00019315883 0.009586754
-0.0047766534 0.002062987 -0.0070417193 0.0026934992 -0.011391627 -0.015752085 -0.0047473744 -0.0048783785
0.006573852 0.011334062 -0.002878327 0.0034836223 -0.018444223 -0.010346157 -0.0062659704 0.0023960457
-0.029322088 0.0060174135 -0.021669813 -0.007792355 -0.007862362 -0.014457508 -0.013273566 -0.001740048
0.0059015364 0.00071076717 -0.0040831733 -0.003620332 0.011325746 -0.0038292513 -0.008488421 0.0009957196

transformer_encoder.layers.0.linear1.weight f4 [256, 64]
00000000: 875f 933d e2ce cbbd e636 df3d 474c a7bc
00000010: 8f81 07be c177 053d 3261 c8bb 5502 05bd
00000020: b887 ba3d 2c1b a43d f106 e4bc 6f8c 19bd
00000030: cbaf 05be f1b8 7d3d 903d 4d3a 916e 02be
00000040: 00ac dc3b c42f 7bbd dd2a 44bd 19b3 323d
00000050: 8f20 be3d f8ac d8bd 8cd8 2ebc c9db 82bd
00000060: 030c 36bd c8f1 13be 8242 01bd fa94 f1bc
00000070: ba53 a33c 7d18 ecbd abd1 2b3c 88ae 043c
00000080: 87cf e4bd c989 59bd 80c3 f13c 384e ad3c
00000090: 119b ad3d e171 a23d 6bcb 5abd e678 8e3d
000000a0: 5d2e afbd 57e3 0f3c b0df 5e3d a5ea fabd
000000b0: 7a2f c2bd 11ed 99bd 82d2 b6bc bc1c fd3d
000000c0: ddc7 e0bc fae2 883d f81a 263d b384 8d3d
000000d0: 4f52 32bc 8397 01bd e1a6 df3d 8519 18bc
000000e0: 11de 08be 43f3 a33d 9583 ee3d e637 763d
000000f0: c2a3 0abe a487 b7bc e64d beba 63b2 a33d
00000100: a3c5 893b b2fa e83d 6031 0fbd b2a0 443c
00000110: ec99 473c 3aff fd3d c09a d83d 29fd 86bc
00000120: 9966 7a3d 276c 8c3d 40c4 8dbd 8076 bd3d
00000130: 2712 773d 4ed3 cabc e43d abbb 0216 693d
00000140: 2ca7 d0bd 8b65 ed3c edfc ce3c 2c80 4fbd
00000150: 7e6a 943c 956b 023d 8e24 5d3d 9f7c 91bd
00000160: 5e16 013b de54 8a3d 80ac 6b3d e208 193d
00000170: 39a5 523d 3c44 6a3d 2940 c5bd ba65 e43d
00000180: b0d9 d53d 0ee6 d6bd 910c fcbc 1a5e 753d
00000190: 2fee e5bb 956d ca3c c10f 17bc cf9c 94bb
000001a0: f480 e13d 6dd6 203c 3b9b 51bd 0b8f 10bc
000001b0: 73c8 2cbd 051a eabb 7ed1 9cba 1ed6 053d
000001c0: a9b9 efbd 1c5a 483c b49e a5bd e12b b2bd
000001d0: 3cb6 00bd 7287 bdbd a30f 303d 5391 8dbd
000001e0: 929f febb 1932 e5bc cb07 b1bd 6894 47bd
000001f0: 6b39 32bd 665b bc3d bf88 80bd 25e4 a53d
00000200: 2f34 8e3d 4b57 cc3d 877c c33d 2352 2c3d
00000210: f0aa aebb 94a4 32bd dd30 a3bd aaad dfbd
00000220: c49b b13d 6352 c43d 48df b5bd f6f3 d4bd
00000230: bd4e d7bd 19e4 5cbd 0b47 993d 1edc d9bd
00000240: 6598 c13c afef bc3d fe30 c83d 6e5a c63d
00000250: 583f 70bc 8437 c7bb e29a c0bd a23b 1abd
00000260: 9a1f 42bc 969e e0bd b104 6c3d febb 69bd
00000270: c756 75bc cf5b df3d 651f 54bd 048d 8d3d
00000280: a06e a9bd d28e f93d bf56 2f3b 7bb0 09bd
00000290: a1f4 bf3d 8b92 d43c 4bce 69bd 498a 01be
000002a0: 6362 bfbd 14e1 a73d dc40 733d 4cce 5a3c
000002b0: b26f a63d 5541 fe3d 035d 4b3d dd9d ec3c
000002c0: 34b5 9b3d aafc 07be fbf0 733d d010 bbbd
000002d0: 5255 1f3d fa80 17bd 22e7 d3bc 040e c13d
000002e0: 8ad2 2d3c bf23 0b3d f239 ea3d 5526 8a3d
000002f0: 8076 32bd ea8c 01bd 04f3 85bc c85d ad3c
00000300: a238 d03d ec74 c83d 0b17 89bc a439 023e
00000310: 99fa 943a 44a2 bc3d c3c3 803c bc9f 973d
00000320: d793 e33d 7863 083e efba febd 428e eebd
00000330: b085 16bc 69a7 aa3d 1c2a c9bd 8aa0 c23d
00000340: 6b4d e4bd 5a8b 863d c763 3a3d 712b ef3b
00000350: 5c44 8a3d e1a3 583d 7398 dbbd bc63 193d
00000360: 2b95 83bd a88a b6bd 01b7 08bd 06d2 c5bd
00000370: 4a90 8a3d 7498 e7bd 3971 34bd bd3d 9ebd
00000380: ab4f 083d 0f7b cdbd f516 94bd c209 61b8
00000390: 4694 43bd 3e6c 043d f945 9fbd 4c8e 80bd
000003a0: b021 46bd ef3d c1bd 101d babd f03f 2a3d
000003b0: d105 20bd 1720 14bd b3c5 c93d 42c9 48bd
000003c0: 7cdf 0cbc 2fa2 f03d 079a 71bd 79b3 583d
000003d0: 7074 02be 364d c5bd f64a e13d 59ad 803d
000003e0: 0fd0 f0bc f411 c83c 3174 683b cb86 c83d
000003f0: 5f0c e83d fc60 58bc 7176 1f3d 03cc d53d
0.07195955 -0.09951569 0.10899143 -0.020422114 -0.13233016 0.03258491 -0.006115102 -0.032472927
0.091079175 0.08012995 -0.027835341 -0.037487444 -0.13055341 0.061943952 0.0007829303 -0.1273749
0.006734371 -0.06132485 -0.04789244 0.043627832 0.09283554 -0.10579866 -0.010671746 -0.06389577
-0.04444505 -0.14447701 -0.031557567 -0.029489983 0.019937385 -0.11528108 0.010487 0.008098252
-0.11172395 -0.053109918 0.029512167 0.021155462 0.08476842 0.07931877 -0.05341665 0.06956653
-0.08553765 0.008782229 0.054412544 -0.12251786 -0.09481712 -0.0751592 -0.022317175 0.12358996
-0.027439052 0.06683917 0.040553063 0.06910076 -0.010883882 -0.031638633 0.109205015 -0.009283428
-0.13365962 0.08005383 0.11646191 0.060111903 -0.13539031 -0.022403546 -0.0014519065 0.07993009
0.0042044683 0.11375941 -0.034959197 0.012001203 0.012182694 0.12402196 0.10576391 -0.016478138
0.061133 0.06856566 -0.06922197 0.09251118 0.060320046 -0.024758961 -0.005225884 0.056905754
-0.101881355 0.028979084 0.025267089 -0.050659344 0.018117186 0.03184088 0.05398994 -0.07103848
0.001969717 0.067544684 0.057537556 0.037361987 0.0514271 0.05719398 -0.09631378 0.11152215
0.10441911 -0.10493098 -0.03076771 0.059904195 -0.007016919 0.024710456 -0.009220065 -0.0045352946
0.11010924 0.009816748 -0.05117343 -0.008823167 -0.04218335 -0.007144215 -0.0011964289 0.0326749
-0.11705334 0.012228515 -0.08086911 -0.086997755 -0.031423792 -0.0925435 0.042983662 -0.06912484
-0.007770487 -0.02797799 -0.086440645 -0.048725516 -0.04351179 0.0919712 -0.06276082 0.08100156
0.06943547 0.09977587 0.09545236 0.04207052 -0.005330436 -0.043613985 -0.07968304 -0.10921796
0.08672288 0.095860265 -0.08880478 -0.10398094 -0.10513065 -0.05392847 0.074842535 -0.10637687
0.023632238 0.092254035 0.097749695 0.09685217 -0.01466354 -0.006079616 -0.094045416 -0.037654527
-0.011848355 -0.10967748 0.05762166 -0.05706405 -0.014974303 0.10906183 -0.051787753 0.06911662
-0.08273053 0.12185444 0.0026754586 -0.03361557 0.09372831 0.025948783 -0.057081502 -0.12650408
-0.09344938 0.08197227 0.059388027 0.013354849 0.08126773 0.12414805 0.04964925 0.028883869
0.07602921 -0.13279977 0.05955599 -0.09134066 0.038899727 -0.036988236 -0.025867049 0.094265014
0.010609278 0.033969637 0.114368334 0.067455925 -0.04357004 -0.031628527 -0.01635123 0.021162882
0.10167052 0.09787926 -0.01673462 0.127173 0.0011366188 0.09210637 0.015718346 0.07403514
0.111121826 0.13319194 -0.124379985 -0.11648227 -0.009187147 0.08332712 -0.09822485 0.09503277
-0.11147579 0.06569548 0.04550531 0.00729888 0.0675132 0.052890662 -0.10722437 0.03744863
-0.06424936 -0.08913165 -0.03337765 -0.096591994 0.06765802 -0.11308375 -0.04405329 -0.077266194
0.033279102 -0.10033237 -0.07230941 -5.3653268e-05 -0.047748826 0.03232979 -0.07777018 -0.06277141
-0.04837197 -0.09435641 -0.090875745 0.04156488 -0.039068047 -0.036163416 0.09852161 -0.04902006
-0.008598205 0.11749684 -0.058984783 0.052905533 -0.1273973 -0.096338674 0.11000626 0.062830634
-0.029396085 0.024422623 0.0035469646 0.09791335 0.113304846 -0.013206717 0.038931314 0.10439303

transformer_encoder.layers.0.linear1.bias f4 [256]
00000000: 7034 f93c 97db be3d f600 92bb 0f65 243c
00000010: f322 7b3a a50a 47bd 3a6b e7bd 6933 dcbd
00000020: 1443 a9bd 641f b1bc 3c9f 3f3d 1937 c73d
00000030: 1d4d 8ebd 62a4 95bd b553 3bbd 6e64 c2bc
00000040: 927d 2fbc da47 26bd fcbb d6bd 8f85 acbd
00000050: 0eaa 19bd 265b c23d 26ef 2d3d 4b33 a0bd
00000060: a438 233d 1f0e 453d a25f 1f3d f94a c8bc
00000070: c690 2f3d 0490 053e 3356 cbbd d0ca d8bd
00000080: f057 503d c16e f2bd 5acb 293d 4dcf 9f3d
00000090: 5227 ae3c b762 b23c 8f3b 58bd 84ac 823d
000000a0: 0c17 41bd 7efd fa3c 4c2b 163d ebdc b73d
000000b0: 5552 193d 3e21 f2bd 8684 783d 000d 89bd
000000c0: 1520 bf3c b978 b8bc 385c 3abd af69 8c3d
000000d0: 909e 22bd 900f abbd 817b 933b ddeb afbd
000000e0: 4250 9b3c 722a d83d ea1c 9fbd 3946 b23c
000000f0: f476 ac3c ccef 773b dd5d b43c a008 b3bd
00000100: b7ac acbd ba47 cdbd 5f34 75bc 9a0b 0d3e
00000110: 8d0e 6a3d 35b2 97bd 155b 81bd 1148 af3c
00000120: 2a8c d43d 7df1 01bd d220 e53c 437b e8bd
00000130: 4374 86bd ae7a 71b9 e4c3 d5bc c64c db3d
00000140: 6365 e3bd f752 3f3d 7280 d5bd 3444 33bd
00000150: 844c cabd 5781 d7bb 2214 773d 1f8e 5fbd
00000160: ef74 a8bd ac71 c03c d402 d6bd 5c37 06bd
00000170: a1ef 643c d5bb d9bd a0da b73d 4d72 373d
00000180: 617b 8e3d 78e7 713d be1f c0bd f046 ae3d
00000190: c084 69bd 2ce0 7e3d 76ae ae3d 6195 0bbe
000001a0: ee06 a53d 7700 ab3d 576f a03d f3e1 b5bd
000001b0: 818b c3bd c580 99bd d4c4 b73d 65cd 97bd
000001c0: 603d f63d 095f 05be 2552 8abb fca9 16bd
000001d0: adc7 e6bd 76de 83bd 366a 813d 6602 b6bc
000001e0: f0e7 b3bd 2e21 b7bd fc15 7f3d 1461 98bc
000001f0: 181b 6ebd 84f1 ed3d c30e fb3d 92c2 0bbc
00000200: 4452 b23d 9ecc a83d 984a 1fbd 460a b13d
00000210: 0290 aebd 914f b73d 1d48 823d 588f 89bd
00000220: 0a20 633d 0f4a dcbd d7c3 2d3d 3c34 993d
00000230: 4ed7 fe3d 23d7 a0bd e7da a13d c638 5e3d
00000240: 3da3 073d f225 fa3c 36b0 b43d 816d 64bd
00000250: fe48 1f3d ca2f 70bc b2d8 a83d c7d4 84bd
00000260: cb71 a3bd f737 f1bd a661 593d acb7 aebd
00000270: e1a0 d33d 7f86 833d aaf5 5a3d e700 d23d
00000280: 2baf adbd cce8 a6bd 098d 413d 41e5 debd
00000290: 14a0 833d 10de 413d dfa7 703d 40c0 d73d
000002a0: ff97 943d 4fb7 bdbc 639c 223d 46a7 5dbd
000002b0: 14b7 af3c 3c79 ef3d faf9 d9bd 7018 a53d
000002c0: 5ed2 cc3c eb40 4b3d 5a35 0bbd dcc1 b73c
000002d0: cb43 773d 6f76 10bd 28f8 253d 594f d03c
000002e0: 72cf bd3d 212d 163d da64 9e3d a967 c7bd
000002f0: 1cd5 673c 7ed2 babd 1246 6d3d 3c5f cfbc
00000300: 2c8b ba3d 2755 e23d e50f d4bd 3cba c3bd
00000310: 660c 393d c629 3abd 83b8 55bc fa1c 99bd
00000320: 9105 033e fcde 61bd 3c9c bd3d 19be 56bc
00000330: 768c b33d 3a23 693d 02d1 043e b84f 1abd
00000340: e1b2 0fba 5eec c4bd e63c fb3d 2919 0a3d
00000350: e228 eabc 9ed5 ee3d d863 b9bd fe2f b83d
00000360: d4ea e33d b053 66bc a907 cabc 1ae6 edbd
00000370: ba79 c43c f0ae f2bd 195e 9ebd 8c77 d73d
00000380: 1aba 7a3d a30f 3a3c 370e 7abd dc47 bebc
00000390: 4478 04bd e11b 6e3d 96c0 fd3d 0d1f 6c3d
000003a0: 2f3e 953d cf54 1a3d 0f43 d0bd 3c5d 6bbc
000003b0: 400d c0bd f3f0 babd eb84 adbd 9dab c5bc
000003c0: 82bc f4bd cc26 ca3b 05f2 4e3b 0550 89bd
000003d0: 8ec1 be3d 49a5 c53d 3f17 b7bc c805 6dbc
000003e0: 09dd ccbd dea3 b63d 6c63 d5bd 3f40 f8bc
000003f0: 2b29 853d 7b88 9b3d 6062 c0bd e3ed dcbd
0.030420512 0.09319227 -0.004455681 0.01003386 0.0009580098 -0.048594136 -0.11299749 -0.10751993
-0.08264747 -0.021621414 0.046782717 0.09727306 -0.06948302 -0.07306744 -0.045734126 -0.02372953
-0.010711091 -0.040595867 -0.10485074 -0.08423912 -0.037515692 0.094900414 0.042464398 -0.07822283
0.03984894 0.04810917 0.038909562 -0.024449812 0.042862676 0.13043219 -0.099285506 -0.105855584
0.050865114 -0.11837531 0.041453697 0.07803211 0.021258984 0.021775587 -0.052791175 0.06380561
-0.04714112 0.030638453 0.036662385 0.08977684 0.037432034 -0.11822747 0.06067326 -0.06691933
0.023330728 -0.022518503 -0.045498103 0.06856095 -0.039702 -0.08352578 0.004500807 -0.08589909
0.018959168 0.10554971 -0.07769187 0.021762 0.021052815 0.003783214 0.022017414 -0.087418795
-0.0843138 -0.100234464 -0.0149660995 0.13773957 0.057142783 -0.07407037 -0.06316201 0.021396669
0.10378297 -0.03172444 0.027969752 -0.11351635 -0.06565144 -0.00023029253 -0.026094384 0.10708003
-0.11103322 0.04670998 -0.104248896 -0.043766215 -0.098778754 -0.006576698 0.060321935 -0.054578897
-0.08225428 0.023491703 -0.10449758 -0.03276764 0.013973148 -0.10631529 0.08977246 0.04478674
0.069571264 0.059058636 -0.09381054 0.08509624 -0.057011366 0.062225506 0.085293695 -0.13631202
0.08057962 0.08349698 0.078337364 -0.08880987 -0.09548093 -0.07495264 0.08973089 -0.07412223
0.12023425 -0.13024534 -0.004221218 -0.036783203 -0.11268554 -0.064389154 0.06319086 -0.02221794
-0.08784473 -0.089418754 0.062276825 -0.018600978 -0.058131307 0.11618331 0.12258675 -0.008530276
0.08707097 0.08242153 -0.038889498 0.08644538 -0.08523561 0.08950723 0.06361411 -0.06716794
0.055450477 -0.10756313 0.042423096 0.07480666 0.1244341 -0.07853534 0.079030804 0.054253362
0.03311466 0.030535672 0.08822672 -0.055768494 0.03888797 -0.014659831 0.08244456 -0.064858966
-0.07980689 -0.117782526 0.05307164 -0.085311264 0.103334196 0.064221375 0.05345694 0.10254078
-0.08480676 -0.08149871 0.047253642 -0.108835705 0.06427017 0.047330916 0.058753844 0.10534716
0.072555535 -0.023158697 0.039699923 -0.054114603 0.021449603 0.116930455 -0.10643382 0.08061302
0.025002655 0.049622457 -0.033986427 0.022431307 0.060367387 -0.035269197 0.040519863 0.02542846
0.09268083 0.036664132 0.0773408 -0.097365685 0.01414993 -0.091221794 0.057928152 -0.025313966
0.09108576 0.11051398 -0.10354594 -0.09557006 0.04517784 -0.045449995 -0.013044479 -0.0747623
0.12795092 -0.055144295 0.09258315 -0.013106846 0.08767025 0.05691836 0.12970355 -0.037673682
-0.0005481672 -0.09615396 0.12267475 0.0337154 -0.028583948 0.11661838 -0.09052247 0.08993529
0.11128774 -0.014058039 -0.024661856 -0.11616154 0.023983825 -0.11849773 -0.077327915 0.10520849
0.061212637 0.011356267 -0.061048713 -0.023227625 -0.032341257 0.058132056 0.123902485 0.0576468
0.07287251 0.037678536 -0.101690404 -0.0143654905 -0.09377527 -0.09127989 -0.08472618 -0.024129683
-0.119500175 0.0061691757 0.003157736 -0.06704716 0.093142614 0.09650666 -0.022349952 -0.01446671
-0.100030966 0.08917974 -0.10419354 -0.030304072 0.06501993 0.07594391 -0.093937635 -0.10787561
