models/experiments/synthetic_data_pretrained_2024-12-06_03-40-21_m8Y/checkpoints/model_best.pth (torch, 634466 bytes, 53 tensors)

project_inp.weight f4 [64, 5]
00000000: 7eb0 433e ed48 ffbd 1b93 17be 648d 753c
00000010: d4b3 25be c90b a43e 9cc7 9a3e 39d3 d63e
00000020: 5e02 43be 51d4 aebe cbee 553e 6b0a f1bd
00000030: 4095 213e 0ee9 893e 845d a5be 07e8 aabe
00000040: aa5f d5be 49c2 1ebe d564 afbe ba3a 863e
00000050: e90f 9dbe 1a55 d5be 5bb9 803d 7e8d d6be
00000060: c662 9bbe 813f 92be 68b9 f1bc c56b d9bd
00000070: 1101 cfbd d51b 61bd db30 df3d f01d 833e
00000080: a992 5fbe 56ce 873e f184 6cbe 7ba6 903e
00000090: ae47 9dbd 3665 803d e23c 62be 272c 95be
000000a0: b99a 0f3c e971 733e 267b b23e d5b9 d73d
000000b0: bef3 c2be b7d1 a6bd 5b7b 513e 276d c8be
000000c0: ce33 333e 4571 06be c678 52bd d55e d7be
000000d0: b16b 60be bc21 123d 6c20 98be 0ab9 20be
000000e0: 58f9 98be b121 503e 75e0 143e 5bf9 04be
000000f0: 56f2 9e3e 7d85 bbbe 3fff 1abd 3204 a73e
00000100: 8e80 2fbe 3df5 6b3e 45c4 72be dfb8 623e
00000110: 009e e2bd ae93 2a3d 052e 9fbe a983 c83c
00000120: b7f6 2c3e 32de 903c 43db df3e d8cb c33e
00000130: ee8e dabd c2c7 1f3e f4bd 8cbe 02a0 993e
00000140: 99e8 593e 8d4f 75be acf1 fcbd 47ca a1be
00000150: f851 d63d 352e d5bd c8d6 8fbe e649 09be
00000160: 7839 8d3e 77a2 2e3e deb3 883d 2a15 d2be
00000170: 6410 22be a9c8 bc3e 295a 983d 2ffb 53be
00000180: c16a 9d3e 637f adbe a317 babd 6417 ce3d
00000190: 84ff a53b a9c9 063e e6a9 84be a60a d13e
000001a0: 5dbe 17bd 6e6a e5be 01da 9bbe 967e 4ebe
000001b0: 6c78 b03e 097e 7f3e bbab 69bd e199 db3e
000001c0: 314a c53e f9ec 84bc 627e ef3d 6384 adbe
000001d0: 3a34 08be 274c 83bd 9d55 a7bd a27f 5dbd
000001e0: 3509 7ebe 63b4 40be 7e9f e03e 2054 9b3e
000001f0: 32ae 923c 6968 86be 1a50 a43d ee19 713e
00000200: b39a 94bd 46ca dc3d f83e 273d f87b ab3e
00000210: 42c8 7abe 7587 29be 3426 babe 481e 5f3e
00000220: bd47 c1be 61b1 0e3e 7f9e 61be 8e2a ab3e
00000230: 709f 8dbe d276 c33e 88bc a1be dc0e 81be
00000240: 5b2f a63e e093 8ebe 810e afbe 3063 dfbd
00000250: e401 c7bd 66d2 d0be 1c77 46be 0273 dcbe
00000260: 2db1 733d 8d5c 413e d7c0 87be 8ade 953e
00000270: c111 883e 7972 b9bd 9001 c6be 7194 4dbe
00000280: 59a1 a3be 3cd9 ce3e c32c 0c3e 784b c33e
00000290: f53c 673e 30ee 0abe 5503 a33e 6028 a6bd
000002a0: 9c04 af3e 37d7 d7be 93c2 de3c 25d9 393e
000002b0: c6b0 babe 670f 6fbe 1ae8 a73e 7a59 df3e
000002c0: 174a 54be 5da8 103e e055 4abd 6445 453e
000002d0: eb5e 56be b28f 05be d84b b8be 0ca9 e63e
000002e0: 2632 8fbd 05ad d0be 2947 e3bd 5e93 e83d
000002f0: 2d30 31be 89e8 44be 50ca b3be e015 853e
00000300: 7c60 933d 935a 19be f08c cabe 27f2 a4be
00000310: 07b9 fe3d c88d afbe 2c00 4dbe ae59 bdbe
00000320: b9f1 b0be 43ea c43e 2ad3 1f3e 1843 df3b
00000330: 3b39 b33e 5046 723e 4101 c3bd 71bf 143e
00000340: 2908 53be b98b 44be ac22 aebe 0b63 23be
00000350: e0da 7abe 3ea0 c3be 3df6 ab3c 4c93 583e
00000360: e337 40be c46a 883e 86fc ad3e 874d 713e
00000370: 35e6 9c3e 2d11 acbe d5a1 0fbd 1436 d43e
00000380: 19b6 b73e 82b8 c73e 869a 77be c6d3 823e
00000390: 1bc5 d9be fed4 463d 6986 22be 5b61 d63e
000003a0: 2b24 acbe ebc4 cc3e 37e2 d5be 92df debe
000003b0: c97b b5bd 270d dd3e 78d2 513e 84af 12be
000003c0: 7485 9fbe 4b39 b73d 1e7e 96be e9cf a93d
000003d0: b3ec 09be 2a74 9c3e 0930 123d da51 c13e
000003e0: fcb7 bf3e a8ee 5dbd b8db b13e a6bd 183e
000003f0: 73d3 8cbe eb7b 8ebe c10e 99be e078 183e
0.19110295 -0.12465081 -0.1480221 0.014987323 -0.1618188 0.3204024 0.30230415 0.41958025
-0.19043872 -0.3414636 0.20891874 -0.11769565 0.1577959 0.2693562 -0.3229791 -0.33380148
-0.41674548 -0.15503801 -0.34256616 0.2621668 -0.306762 -0.4166649 0.06285354 -0.41904825
-0.30348796 -0.28564075 -0.029507354 -0.106162585 -0.10107625 -0.054958183 0.1089799 0.25608778
-0.2183329 0.2652461 -0.23097588 0.28252015 -0.076796874 0.062693045 -0.22093537 -0.29135248
0.008764916 0.23773922 0.3485958 0.105334915 -0.38076586 -0.08145469 0.20457213 -0.39145777
0.1750023 -0.13129146 -0.05138471 -0.4206454 -0.21916081 0.035676703 -0.29712236 -0.15695587
-0.29877734 0.20325352 0.14538749 -0.12985747 0.31044263 -0.3662528 -0.037841078 0.32620388
-0.17138883 0.2304277 -0.23707683 0.22140835 -0.11065292 0.041644745 -0.31089798 0.024476843
0.16890989 0.017684076 0.4372197 0.38241458 -0.10671793 0.15603545 -0.27488673 0.3000489
0.21280135 -0.23956127 -0.12350783 -0.31599638 0.10464853 -0.10409204 -0.28093553 -0.13407096
0.27582908 0.17054163 0.06674932 -0.41031772 -0.15826565 0.36871842 0.07439072 -0.20701288
0.3074551 -0.3388625 -0.090865396 0.10063055 0.00506586 0.13162865 -0.25910872 0.40828437
-0.03704678 -0.44807762 -0.3043976 -0.20165476 0.34466875 0.24950422 -0.05704854 0.42890838
0.38533166 -0.016226279 0.116940275 -0.33890066 -0.13301173 -0.06411009 -0.08170626 -0.0540768
-0.248082 -0.18818812 0.43871683 0.3033762 0.017905328 -0.26251534 0.08023091 0.23545048
-0.07256069 0.10780768 0.040831536 0.33493018 -0.24490455 -0.16555579 -0.36357272 0.21788895
-0.37750044 0.13934852 -0.22033118 0.33430904 -0.27660704 0.3817659 -0.3158915 -0.2520665
0.32458004 -0.27847195 -0.34190753 -0.109075904 -0.097171575 -0.4078552 -0.19381374 -0.43056494
0.05949514 0.18882962 -0.26514313 0.29271346 0.26576045 -0.09055037 -0.38673067 -0.20076157
-0.31959036 0.40400112 0.1368895 0.38143516 0.22581847 -0.13567424 0.3183848 -0.0811317
0.34183204 -0.42156383 0.02719239 0.1814924 -0.36462992 -0.2334572 0.32794267 0.43622953
-0.20731388 0.14126725 -0.049398303 0.19264752 -0.20934646 -0.13043097 -0.35995364 0.45050848
-0.06991987 -0.40757003 -0.11097557 0.11356233 -0.17303534 -0.1922933 -0.3511529 0.25993252
0.07196137 -0.14975958 -0.39560652 -0.32215998 0.12437635 -0.34287858 -0.20019597 -0.36982483
-0.3455942 0.38459978 0.15607896 0.006813418 0.350046 0.23659635 -0.095217235 0.14526154
-0.20608582 -0.19193925 -0.34010828 -0.1595575 -0.24497557 -0.38208193 0.020991439 0.2114994
-0.18771319 0.26643956 0.33981723 0.2356473 0.30644384 -0.33606854 -0.035066444 0.41447508
0.35881117 0.39007956 -0.2418004 0.25552195 -0.42533192 0.04854297 -0.15871586 0.4187115
-0.33621344 0.39993986 -0.4177415 -0.43529946 -0.08861501 0.43174097 0.20490444 -0.14324766
-0.31156504 0.08946475 -0.29393095 0.08291609 -0.134692 0.30557376 0.03569034 0.3775776
0.37445056 -0.05418268 0.34737945 0.14916095 -0.27505073 -0.27828917 -0.2989407 0.1488986

project_inp.bias f4 [64]
00000000: 52e5 9e3e fe91 bc3e 53a9 efbd 4973 853a
00000010: 10ec 94be ef40 afbe a8c7 d93e 8bc8 853e
00000020: 8d45 e43c d4f5 aabe 1f4f c6bd 80e3 a7be
00000030: 8565 aabe 5149 25bd 6160 1abe 8439 71be
00000040: b32d 7cbe 0547 de3e 8977 ca3c 3918 d83e
00000050: 015f d23e 1850 a0be 8c5e d93e 67f0 47be
00000060: 0508 75be 5978 cf3e 32bd d43d 3c26 5c3e
00000070: 1e94 813e f852 12bc 14b2 8cbe 690b c5bd
00000080: eed5 c0be 330f c6be c523 cf3e 8395 d03c
00000090: 0631 fc3c 7c25 c73e 8666 8cbe 6755 b1be
000000a0: 6e1d d33e e811 87be 005d b5be a82a debe
000000b0: b51a ccbe 753c cabe de2a 0bbe 4de9 273e
000000c0: e3f7 19be 726b c8be e321 133e 1c37 adbe
000000d0: 654c c93e 36d1 66be 8d7d 22be 2cdb 12be
000000e0: 3273 c2bc 48c4 93be e739 b03e 4c9b 9d3e
000000f0: 3af8 a03e 2f3b da3e e7d7 6c3e 01ef bfbe
0.31034333 0.36830133 -0.11702218 0.0010181452 -0.2908635 -0.34229228 0.42535138 0.26129565
0.027865196 -0.33390677 -0.0968306 -0.32790756 -0.33280578 -0.040353123 -0.15075828 -0.23557097
-0.24626808 0.4341356 0.024715202 0.4220598 0.41088107 -0.31311107 0.42454946 -0.195253
-0.2392884 0.40521505 0.10387649 0.2149896 0.25308317 -0.008930914 -0.27479613 -0.09621317
-0.37663215 -0.3868347 0.40456977 0.025461918 0.030785095 0.38895786 -0.2742197 -0.3463547
0.4123339 -0.2638085 -0.35422516 -0.4339192 -0.39864126 -0.3949925 -0.13590571 0.16397591
-0.15035968 -0.39144474 0.14368396 -0.33831108 0.39316097 -0.22540745 -0.15868206 -0.1434142
-0.02373657 -0.28860688 0.34419176 0.30782545 0.31439382 0.42623278 0.23129235 -0.37487033

pos_enc.pe f4 [30, 1, 64]
00000000: 92b3 3d3c db85 563c b034 033c 1336 d7bb
00000010: e781 c1bb a87f 82bc b87e 353b aa35 87bb
00000020: 6b2f 803c eb16 9d39 1fd3 7339 65cc 083c
00000030: 4256 893c acf4 923b 170f e73b 490a bd3b
00000040: eb8f 753c ea4b 743c 0cf3 82bb eea2 2abc
00000050: adcb 4fbc 192e 923c 0060 2cbc 2b3b 6dbc
00000060: f871 27bc 1da8 fabb 7459 803c 074f 5d3b
00000070: d9b6 5f3c 7d5b 7fbc a60f 98bc e243 e7bb
00000080: c8c2 d1ba e1c0 31bc efab 0b3c 3314 a5ba
00000090: 96f1 ff3b 4c7f 613c 47cd 14bc 3d11 f1bb
000000a0: 5133 9ebc f5b7 1dbb d8e3 513c bee7 683c
000000b0: 2dc2 0f3c 8808 8dbc 1a69 203c 57b1 d73b
000000c0: c4bb fabb edec a3bc c8fb 45bc 3fdd e23b
000000d0: eab2 20bc 6348 6cbc 0967 143c 0086 513c
000000e0: 2903 6cba 863f 683b e94b 7ebc 66aa 01bc
000000f0: 09af 02bb c1cb d3bb 7cfd 97bc 8734 9e3c
00000100: 7daf 923c 14b4 e83b 5ec9 ae3a c9d7 79bc
00000110: 61cd c93b 9bc1 e13b b517 37bc 1f33 03bb
00000120: e3b8 53bc be61 7dbc 3f4f 44ba 68f1 853c
00000130: fdf8 773c 5fce 9a3c 5553 08bc 532a 143c
00000140: 57d2 51bc 5892 09bc b715 93ba a66b 7abb
00000150: 56ca 803c bc85 8b3c 50c4 19bc d943 2dbc
00000160: 7871 293c 1b03 fbbb 7db6 8d3b 78e3 fcbb
00000170: a1f7 9cba b550 1f3c 5e28 053a feea 17bc
00000180: 89b5 053c 103b e93b 3d31 34bb 6630 fa3b
00000190: e91f a5bc fffc 143c df20 393a 3951 0bbb
000001a0: d614 adbc 8f07 d0bb 8d94 57bc bd99 57bc
000001b0: 64fd 07bc fd05 d5bb fdfc 9f3c e447 c4bb
000001c0: 1a87 0abc c111 01bc 0ff0 8f3b 3a32 35bb
000001d0: f69a 653c 9e09 77ba eb21 08bc 5d17 d63b
000001e0: 4674 213c 3b6d db3b 6af5 37bc d441 83bc
000001f0: 5682 373b 734f 6cbc 7d94 25bc 3fc0 30bc
00000200: 184d 903c 8ca8 933c 1d6b 5abc 1849 67ba
00000210: fb30 48bb 89d1 073c c09a 97bc 9ceb afbb
00000220: 6a23 283c 13af dbbb 36b6 473c 8d69 6d3c
00000230: ff50 06bc 79dc 233c 6ae6 39bc abc7 a4bb
00000240: 0fd0 6bbc 86c6 a2bb 72d2 49bb f633 de3b
00000250: fd41 8c3b cb02 a53b 893a 8c3b 5415 36bb
00000260: b229 b33b f0be 43ba d80d 683c f376 0cbc
00000270: 2748 043b 9bf3 7ebb 79c0 43bc bef1 6fbc
00000280: 5c6e dd3b cdb1 7c3c 7de1 16bc a151 5a3c
00000290: a99e a03c e777 9dbc 4bb7 c03b c50d 68bc
000002a0: 801e 09bb 129c 383c 6f66 2d3c 47fb ccba
000002b0: 88dc 13bc c966 38bc d290 cc3b 0705 853c
000002c0: 6357 b1ba 3ce2 6ebc 8803 a53c d14c 943c
000002d0: 553d 893a 6c30 9dbc eb32 7a3a d733 393c
000002e0: a04c 96bc 1028 503c d903 25bc 6236 0cbb
000002f0: d747 293c ca92 1cbc 0218 4a3c cc75 903c
00000300: 0040 0f3c ba2e de3b 75ed 9c3c 4714 e43b
00000310: 9b78 56bb f757 d63b df9e 2bba 6fc8 04bc
00000320: 1099 5139 a983 49ba 6c71 4b3c bf03 6cbc
00000330: 8613 83bc 2300 8c3c 3ef6 273c 8948 333c
00000340: d217 a0bc 764a 453c 7024 2ebc 49b0 f4ba
00000350: b2df 01bb b119 f33b 96e2 31bc 353b 8e3b
00000360: 3486 a43b 95ed 253c a044 f638 b283 a13c
00000370: 4d9d f03b 22f8 47bc a504 a33b 8c3b 28bb
00000380: 96a2 ac3b 0dee 883c 4cc6 64bb 73c0 843c
00000390: 9f3c 703c 6fe5 d13b c91e 2f3a 6a19 7abb
000003a0: dcb8 19bc b598 97bc b645 983c 0f29 f2bb
000003b0: f035 133c 2a0d 7fbc 35c5 3fbc f4f7 85bc
000003c0: 71ac 57bc 0d59 5ebc 919b 76bc f7ae ba3b
000003d0: 9e31 783c 3da5 c939 94a6 073a 2be8 08bb
000003e0: 4937 5c3c de0e 9e3c 7a57 553c acf1 a13c
000003f0: ec9c 76b7 bfef c939 dc04 18bc cf1c 10bc
0.011578457 0.013093437 0.008008167 -0.0065677254 -0.005905378 -0.015930012 0.0027693938 -0.0041262703
0.01564761 0.0002996245 0.00023252935 0.008349513 0.016764764 0.0044847336 0.0070513594 0.0057690484
0.014987926 0.014910677 -0.0039962586 -0.010414822 -0.012682837 0.017844247 -0.010520935 -0.014479439
-0.010220043 -0.007649435 0.015667655 0.0033769028 0.013654434 -0.015585777 -0.01856215 -0.007057653
-0.0016003484 -0.010849209 0.008524879 -0.0012594521 0.0078107817 0.01376326 -0.009082145 -0.0073567913
-0.019311579 -0.0024065946 0.01281067 0.014215408 0.008774322 -0.017215982 0.009790683 0.00658242
-0.007651778 -0.020010436 -0.012083955 0.0069233472 -0.009808281 -0.014421555 0.009057769 0.012788296
-0.00090031564 0.0035438254 -0.015521028 -0.007914161 -0.0019940755 -0.0064634983 -0.018553488 0.019312156
0.017905945 0.007101545 0.0013335159 -0.015249201 0.0061585163 0.0068895346 -0.011175086 -0.0020019484
-0.012922498 -0.015465198 -0.0007488615 0.016350463 0.015135047 0.018897234 -0.008320649 0.009043294
-0.012806497 -0.0083967075 -0.0011221681 -0.0038211136 0.015721481 0.017031543 -0.009385183 -0.010575258
0.010341994 -0.0076602823 0.004324733 -0.007717546 -0.0011975655 0.009723832 0.00050795625 -0.009272335
0.008160957 0.0071176365 -0.0027495169 0.007635164 -0.020156818 0.009093522 0.0007062088 -0.002125813
-0.0211281 -0.0063485573 -0.013157976 -0.013159213 -0.008300159 -0.006500958 0.019529814 -0.0059900153
-0.008455062 -0.007877768 0.004392631 -0.0027648346 0.014013996 -0.00094237353 -0.008308868 0.006533547
0.009854382 0.006696371 -0.011227945 -0.0160226 0.002800127 -0.014423239 -0.010106203 -0.010788023
0.017614886 0.018024705 -0.013331202 -0.00088228425 -0.0030546773 0.008289703 -0.018506408 -0.005368663
0.01026235 -0.00670422 0.012189439 0.014490497 -0.008198022 0.010001295 -0.011346439 -0.005028685
-0.014392867 -0.0049675135 -0.0030795601 0.0067810966 0.0042803274 0.0050357333 0.004279439 -0.0027783709
0.005467617 -0.00074671116 0.014163457 -0.008573282 0.0020184608 -0.0038902524 -0.0119477445 -0.014645038
0.0067575406 0.01542325 -0.009209034 0.013325126 0.019606905 -0.019222213 0.005881225 -0.014163439
-0.002092272 0.011267679 0.010583504 -0.0015638851 -0.009024747 -0.011254975 0.00624285 0.016237749
-0.0013530072 -0.014580306 0.020143285 0.018103035 0.0010470549 -0.019188128 0.00095443305 0.0113038635
-0.018347085 0.012704864 -0.010071718 -0.002139472 0.010332069 -0.009556482 0.0123348255 0.017634295
0.008743286 0.0067804726 0.019156197 0.006960425 -0.0032725695 0.006541248 -0.0006546806 -0.008104428
0.00019988813 -0.00076871604 0.012417179 -0.01440519 -0.01600052 0.017089909 0.01025158 0.010942587
-0.019542608 0.012041679 -0.010628805 -0.001866826 -0.001981717 0.007418834 -0.010857245 0.004340554
0.005020881 0.010127445 0.000117429765 0.019716118 0.0073429705 -0.012205156 0.004974919 -0.0025670258
0.005268405 0.016715074 -0.0034908233 0.016205048 0.014662891 0.0064055244 0.00066803076 -0.003816212
-0.009382453 -0.018505434 0.018587928 -0.0073901485 0.008985028 -0.015567103 -0.011704733 -0.016353585
-0.013163672 -0.013571036 -0.015051738 0.005697127 0.015148548 0.0003846082 0.00051746634 -0.0020890336
0.013440915 0.019294199 0.013021344 0.019768558 -1.4699279e-05 0.00038516332 -0.009278502 -0.008795931

transformer_encoder.layers.0.self_attn.in_proj_weight f4 [192, 64]
00000000: dcbc 9d3d 4166 06be 76f2 bf3c fff2 36bb
00000010: 26e7 0cbd aba5 da3c 3843 c3bb 7032 0dbe
00000020: 1c12 d0bd a57d 32bd 988c 64bd 62b7 0ebe
00000030: 3f36 fa3c e687 ebbd bee9 cdbd 19b8 763c
00000040: 63f8 d9bd 29de adbc d509 b13d 3a65 4fbd
00000050: 23e1 00be c31e d0bd 0812 59bc d167 413d
00000060: 0c56 3d3d 63ca 023e 87ef afbd 0c40 0dbe
00000070: 0971 a9bc 9ad7 fc3c 7569 51bd 24c2 143e
00000080: 4a0b a13c 7cae 28bd 4924 8ebc ebae 04bc
00000090: 34e5 0c3d 6589 69bd a2c0 04be 7cf2 b03c
000000a0: 5684 903d 90e7 86bd 9692 d1bd 6bb8 a0bd
000000b0: b681 29bc a173 18be f323 04be 095f f2bd
000000c0: eeaf 7cbd da6e 6d3d f49f 103d b564 f03b
000000d0: bc8d b7bc 728b 9fbd 8ac5 ecbd 0727 e5bd
000000e0: c0bf ff3d 55dd 043e fdc1 443d 7b0b b4bd
000000f0: 0005 a23d 8aba a9bd cd62 b7bd 2788 0d3e
00000100: b8f7 37bb 3420 d5bd d2a9 f0bc c6cf 853d
00000110: f972 a03d 1366 0c3e c320 eebc d8f5 40bd
00000120: 72a2 23bd ad4f bebd 76b6 0f3e 61a2 023e
00000130: b723 b0bc fe28 43bd 201d 543d 553c 8a3d
00000140: 0847 c7bd 578d 153e 73d6 5e3d 8b5c 0ebe
00000150: 8057 773d e4e4 073e 0db5 d03d e070 023e
00000160: ac4b c93c 5c67 0a3e ee35 eaba 7aa3 4bbc
00000170: 55b6 10be f241 15be 8515 833c 5965 103e
00000180: 9e9f c93d a856 45bd 7834 33bd c107 123e
00000190: 69ce 633d 0338 05be f52a 46bd 2cc5 e43d
000001a0: 336b 433d be0a 673d 8fed 283c 0f8f be3d
000001b0: e618 e6bd 7416 923c 431a e43d 9d49 be3d
000001c0: 2de3 94bd efde febd a532 6bbd 0cdf 81bd
000001d0: d767 1bbd 23e9 08bb 48e5 d03d a834 c23d
000001e0: e6d1 0e3e ca51 12be 3e59 a23d 0210 c7bd
000001f0: 3332 57bd d75c 83bd c996 06bd 5067 b2bd
00000200: c89b 14be 60fa f23a f8d6 60bd 1567 0a3e
00000210: e513 ef3d 8279 153e 4aac 95bd c115 2f3c
00000220: 1180 ff3d 32d3 083d c61c 23bd d02d d13d
00000230: 27c3 873d f59c be3d 5278 da3d 39ec 17bd
00000240: 50a9 96bd ebbd 3bbd 9f3f 203d 8eb3 013e
00000250: 8a00 ea3d 7ebf 883c d6cf 213c d547 c43d
00000260: 67fb a7bd 5961 29bc cb40 1ebc a4da 90bd
00000270: 1507 19be 67da 04be a690 02be 6b9d 8a3d
00000280: ae47 95bb 6b96 d63c 9a1b fd3d ccf4 c3bd
00000290: d40a e4bd ebfb e13d a080 0dba f57c 97bc
000002a0: f515 babd 88fd ef3b e339 c03d 78a6 083e
000002b0: 3e94 8c3b 2004 cf3d 6b3a f7bd 1230 e6bc
000002c0: d126 15be 0a4c f73d e42b d7bc 8e08 423d
000002d0: 9905 003c 80d7 4d3c 5e9f 9dbd 1563 1cbe
000002e0: 450c 2b3d b859 383d 6e7b 11bd f668 ebbd
000002f0: ab29 b3bd 07c7 aebd 54fe 98bd 03ca 86bc
00000300: 9d7e c13d dfdf 05be 00ba 2a3d facd cfbd
00000310: 08ee 05be 8504 a2bd 835b b2bc a3dd d5bd
00000320: 7677 0abe c5dc e5bd 169c 8ebd a1a6 d03c
00000330: 0678 7fbc 5828 7eb9 9147 f93d cecb c5bc
00000340: 1dde 52bd e4cf 2d3d 42ea 623d 8512 c3bc
00000350: 3486 81bd 99fd 07be a374 093e 0773 0bbe
00000360: 879e 863d b903 9a3d 14cf c0bd 0029 f4bd
00000370: 042f dbbd ec5c 99bc 8aad bdbd 83e5 c03d
00000380: d719 99bc aa13 593d c11b 003e 328c 30bd
00000390: f3f5 6abd 6169 e23a 52c2 edbd 91fd 91bc
000003a0: 283c acbd 6d47 24bd d69f 80bb 7742 0abb
000003b0: 3635 d9bd 9e24 113e a810 f23c efb5 b03b
000003c0: 930b b9bc ae67 ea3d 52f9 a23d 8d72 a43d
000003d0: 5783 8e3d a0fc 71bb 87d9 ddbd 8223 de3d
000003e0: b6d3 09bc 5e62 b13d 60c0 f13d ff7c 00be
000003f0: 4c36 57bc 4c3e 85bd af1b b5bd 8d9e 8f3d
0.07702038 -0.13124944 0.023431044 -0.0027915833 -0.034400128 0.026690325 -0.005958941 -0.13788772
-0.10159704 -0.043576855 -0.055798143 -0.13937142 0.030543445 -0.1150053 -0.100543484 0.015058541
-0.10643079 -0.021224098 0.086444534 -0.050633647 -0.12585883 -0.10162117 -0.013248928 0.047218148
0.04622464 0.12772517 -0.08590608 -0.13793963 -0.020683782 0.030864526 -0.051125962 0.14527184
0.019658703 -0.041182026 -0.017351286 -0.008098344 0.034398273 -0.057015795 -0.12964109 0.0216
0.07056491 -0.06587136 -0.10233037 -0.07847675 -0.010345867 -0.14887859 -0.12904339 -0.11834533
-0.061691217 0.057967044 0.035308793 0.007336224 -0.022406451 -0.07790269 -0.11561115 -0.111890845
0.12487745 0.12975056 0.048036564 -0.08791252 0.0791111 -0.08287533 -0.08954392 0.13821469
-0.0028071236 -0.10406533 -0.029377852 0.0653377 0.07834429 0.13710813 -0.029068356 -0.047109455
-0.03994984 -0.09292541 0.14034447 0.12757255 -0.021501405 -0.047646515 0.05178559 0.06749789
-0.09730345 0.14604698 0.054403733 -0.1390249 0.06038618 0.13270909 0.10190783 0.12738371
0.024572216 0.13515991 -0.0017868856 -0.012429113 -0.14132054 -0.14575937 0.016001472 0.14101161
0.09844898 -0.048178345 -0.04375121 0.1426077 0.05561677 -0.13009648 -0.04838081 0.1117042
0.047709655 0.05640673 0.010310545 0.0930463 -0.11235218 0.017832972 0.111378215 0.09291384
-0.07269893 -0.12444865 -0.057421345 -0.06341371 -0.037940826 -0.0020890913 0.10199982 0.094827
0.13947257 -0.14289013 0.07927178 -0.0971985 -0.052538108 -0.06414192 -0.032858644 -0.087111115
-0.14512551 0.0018537752 -0.05489251 0.13515885 0.116737165 0.14597133 -0.07308252 0.010686339
0.124755986 0.033404537 -0.039822362 0.10213816 0.06629019 0.09307281 0.106674805 -0.037090514
-0.073565125 -0.045835417 0.039123174 0.12666151 0.11425884 0.016692873 0.009876212 0.095840134
-0.08202248 -0.010338151 -0.009659003 -0.070729524 -0.14944108 -0.12973939 -0.12750491 0.06768306
-0.004555664 0.026194772 0.1235878 -0.09568176 -0.11134878 0.11034378 -0.000539789 -0.018492201
-0.09086219 0.0073239245 0.09386041 0.13344753 0.004290133 0.10108209 -0.12071689 -0.028099094
-0.14565589 0.1207505 -0.026266046 0.04737144 0.007813835 0.012563586 -0.076964125 -0.15272172
0.041759748 0.045007437 -0.035518102 -0.11494629 -0.08748182 -0.08534055 -0.07470384 -0.016453749
0.09447978 -0.13073681 0.04168129 -0.10146709 -0.13079083 -0.07911018 -0.021772152 -0.104426645
-0.13522133 -0.11223749 -0.06963365 0.02547008 -0.015592581 -0.00024238357 0.12171853 -0.024145033
-0.051481355 0.042434588 0.055399187 -0.023812542 -0.06324425 -0.13280334 0.134234 -0.13618098
0.065732054 0.07520241 -0.09414497 -0.11921883 -0.10702327 -0.018721066 -0.092616156 0.09418776
-0.01868908 0.05299727 0.12510587 -0.04310245 -0.05736346 0.0017273837 -0.11609329 -0.017821105
-0.084099114 -0.04010718 -0.003925304 -0.0021096745 -0.10605852 0.14174125 0.029548958 0.005392782
-0.022588527 0.114455566 0.0795771 0.08029661 0.06958645 -0.0036924258 -0.10832506 0.10846616
-0.008412292 0.0866134 0.11804271 -0.12547682 -0.013135504 -0.06506023 -0.08843171 0.07012663

transformer_encoder.layers.0.self_attn.in_proj_bias f4 [192]
00000000: 5471 52b9 bb12 23ba a681 cf3a 652d 863b
00000010: a520 4f3a aa50 88ba e09d b13a 8f25 223a
00000020: a63f a6ba a7cc a3ba 2113 fe39 3fd5 893a
00000030: 684c 5bb9 0910 ddba e11e ef39 9739 3fb9
00000040: 559b 5d3a 68cf 33bb e7a6 90ba 68e1 023b
00000050: 3fbd 83ba c655 893a c3fb 52b9 6163 4cba
00000060: ed66 33ba 591b 9a3a c2b0 0dba 4928 113a
00000070: a337 273b 9e22 e43a cdf3 403a e4a6 273a
00000080: 8882 b7ba 1f76 943a b3f5 263a 99f2 333a
00000090: 3acf 94ba 6351 2bba 7589 4cb8 36ae 133b
000000a0: 9c2b eaba 13a4 9b3b 46ad 0fbb 9b39 713a
000000b0: 7881 4c3a 9569 22bb 584f e8ba 613a 293a
000000c0: 50dc 8ab8 4e52 393b e105 c03a 9c5c 003b
000000d0: 2f35 a1ba 94a6 ffba befa 1eba 1772 05ba
000000e0: f40a b03a 3fc7 9839 c19f 863a 5000 67ba
000000f0: 4734 ee39 266a 59ba feb0 14ba a4a1 a2b9
00000100: e62e 0f37 8e48 03b7 f3ed 7737 83bd da37
00000110: f0b0 f636 998d 87b7 1557 76b7 009e 9eb7
00000120: 6c7f fab6 2af3 f6b6 0048 9b37 076e 45b7
00000130: 153f 6d36 72cd 9c37 9540 bdb7 3e8f 0bb8
00000140: cb7c a7b7 5618 e9b7 bb98 d238 54ae bab8
00000150: cb94 55b8 dd44 d738 7202 0f38 4fa6 6138
00000160: b95e c6b7 cc15 34b7 6f8b 8037 6134 aab8
00000170: 1b78 a8b8 09f0 14b8 bbf5 22b8 9f19 6237
00000180: 2f37 0e38 6493 f135 1ec9 c936 6a4e 5538
00000190: eec4 6437 7023 b936 56d2 8a37 d592 7fb7
000001a0: 4cf4 96b7 a415 ca37 7fce 46b7 3e05 25b7
000001b0: 0f87 4ab7 5ef2 3db6 8ab2 45b6 48a9 a036
000001c0: acb2 dd37 dcd0 37b7 3bea a3b7 46c1 93b7
000001d0: cd3e 0db7 ccdc 3338 6782 3038 f936 c8b6
000001e0: 9bd7 9e38 9e2c 0137 60dd 0b38 aafa 61b8
000001f0: 6061 0fb8 a20f 4337 a3b5 12b8 8048 b534
00000200: 90f4 b03a 2789 bf39 d99b 5d3a 7559 b0ba
00000210: c80a f8b9 671b 3838 6ac4 2cbb c7c6 feba
00000220: bc77 37ba f7a9 c73a 9006 1bba f2f0 883a
00000230: 0ace a23a b750 fcba 3bc7 7fba 08a2 423a
00000240: df07 bdb8 ddb7 dcba d38b 59ba ee9d f43a
00000250: a920 1b3a 89d7 8739 e046 613a 25e3 353b
00000260: 62da 4239 41d8 ab3a 6a76 373b 4fe0 0fba
00000270: 4686 143b df53 573b a8c5 733a 0606 dd3a
00000280: a25b ff3a c446 463a 0b43 cbba 4121 8cb9
00000290: 91ea ff3a 93c5 383b e176 cbba 4dd3 dd38
000002a0: f264 803a 9b01 f938 a363 953b dd0b 333a
000002b0: 99b9 90b8 8268 7eba 7bb8 3eba d13d 69ba
000002c0: e64f 0fbb c885 063b d42b a0b9 d4c9 883a
000002d0: 9386 443b 9dbf e439 14a1 09ba 3717 1e3b
000002e0: 5d4a 7aba 169e b33a 2887 4639 3084 0bbb
000002f0: 8038 a6ba d15e d539 2e49 8839 4812 dcba
-0.00020069379 -0.00062207476 0.0015831485 0.004094767 0.0007901288 -0.0010400016 0.0013551079 0.0006185406
-0.0012683764 -0.0012496904 0.00048460907 0.0010515823 -0.00020913931 -0.0016865741 0.0004560864 -0.00018236633
0.0008453627 -0.0027436856 -0.0011036069 0.0019970778 -0.0010050907 0.0010477833 -0.00020120949 -0.0007796791
-0.0006843645 0.0011757418 -0.0005405062 0.0005537314 0.002551534 0.0017405336 0.0007360548 0.0006395413
-0.0014000693 0.0011326707 0.00063690095 0.0006864458 -0.0011353262 -0.000653526 -4.8765407e-05 0.0022534258
-0.001786578 0.004749784 -0.0021923347 0.00092020043 0.0007801275 -0.002478217 -0.0017723842 0.00064555375
-6.621389e-05 0.0028277817 0.001465019 0.001958645 -0.0012299175 -0.00195046 -0.0006064585 -0.0005090548
0.0013430999 0.0002914015 0.0010270999 -0.0008811997 0.00045433847 -0.00082937104 -0.0005672126 -0.0003101948
8.534384e-06 -7.825101e-06 1.4777749e-05 2.6075873e-05 7.3519695e-06 -1.615919e-05 -1.4683018e-05 -1.8908642e-05
-7.4654145e-06 -7.3596793e-06 1.8510967e-05 -1.1767733e-05 3.535247e-06 1.8692317e-05 -2.2560629e-05 -3.3273587e-05
-1.9966063e-05 -2.7787097e-05 0.000100420286 -8.901642e-05 -5.092173e-05 0.00010264826 3.4096134e-05 5.3799067e-05
-2.3647548e-05 -1.0733911e-05 1.5323718e-05 -8.115988e-05 -8.033236e-05 -3.55095e-05 -3.8852664e-05 1.3476615e-05
3.3906832e-05 1.7998796e-06 6.01368e-06 5.0856186e-05 1.363571e-05 5.517555e-06 1.6548827e-05 -1.5233371e-05
-1.7995153e-05 2.4090354e-05 -1.1849798e-05 -9.835987e-06 -1.2071584e-05 -2.830427e-06 -2.945921e-06 4.7880785e-06
2.6428454e-05 -1.0956279e-05 -1.9540186e-05 -1.7613766e-05 -8.418877e-06 4.288256e-05 4.2083117e-05 -5.966864e-06
7.574187e-05 7.699387e-06 3.3346354e-05 -5.387763e-05 -3.4184544e-05 1.16265455e-05 -3.4978275e-05 3.3766628e-07
0.001350062 0.00036532545 0.0008453704 -0.0013454395 -0.0004731028 4.389454e-05 -0.002636219 -0.0019437902
-0.0006998738 0.0015233149 -0.00059137587 0.0010447784 0.0012421024 -0.0019250129 -0.00097571657 0.0007424657
-9.0136884e-05 -0.0016839463 -0.00082987285 0.0018662789 0.00059176475 0.00025909793 0.000859363 0.0027753797
0.00018582636 0.0013110713 0.0027994164 -0.00054884417 0.002266304 0.0032856388 0.00092991674 0.0016862757
0.0019482265 0.00075636455 -0.0015507651 -0.00026727657 0.0019524862 0.0028193935 -0.00155231 0.00010577459
0.0009795709 0.00011873544 0.0045589968 0.0006830076 -6.901025e-05 -0.0009704904 -0.00072754145 -0.0008897456
-0.0021867692 0.0020526517 -0.00030550233 0.0010436126 0.002998744 0.00043630312 -0.0005250138 0.0024122724
-0.0009547824 0.001370373 0.00018933101 -0.0021288507 -0.0012681633 0.0004069717 0.00025994465 -0.0016790116

transformer_encoder.layers.0.self_attn.out_proj.weight f4 [64, 64]
00000000: 0a6f f93d aecb e43d e133 c6bd 5121 cabd
00000010: e1e7 ca3c 21bf a4bd 7341 8abc 457b fb3c
00000020: a804 d03b 3119 66bd d655 58bd 0555 a03d
00000030: 6245 923d 5930 473d 7553 dd3c c5e5 9b3d
00000040: c8d8 983d 4495 66bd fa48 57bd e883 f33d
00000050: 3ce7 2abc a85f f83d d386 b53c e4ff 043d
00000060: 69dd 14bd 6caa a8bd aa5e 8ebc e4c7 a23c
00000070: 3b4a bc3d aca9 cb3d 34a6 273d 802c 28bd
00000080: b97d db3d a42c efbd 93a4 7cbd 8026 723d
00000090: a003 923d 54ec b2bd f660 aebd 1b5d 2cbd
000000a0: 929f f03d c0b1 d9bc dec0 3e3c 4057 163d
000000b0: 8e7e 9e3d 0e2c adbd 4ea6 c63c a35d 28bd
000000c0: baa4 94bd 60ba 0fbd 154c a53d 935a ee3d
000000d0: ce40 e53d 2c9d ef3a feb4 bdbc 138c 233d
000000e0: cea0 e93d 7ebf 813c 9c48 4b3d 6a53 54bd
000000f0: f009 b03d 0c14 14bd 0cf7 9e3d 4757 00be
00000100: 89a0 df3d 0898 e03d c623 b8bd bda0 54bd
00000110: 598c 04bc e0ae ef3d 8c8c 36bd 5507 983c
00000120: 3e0b ed3d a1df 8dbd 146a d2bd 9c84 803d
00000130: fb4d 7b3d 96f9 94bd 3c28 463d 1d1d f0bd
00000140: d500 d5bd 3230 5cbd 6fc2 f03d f183 773d
00000150: e70b b53d 4b1e a2bd 6178 1b3d e092 ab3d
00000160: 62c6 bcbd 39a9 873c 586b e33c 8b03 a53d
00000170: b60f afbb 78e1 f6bd dc38 923d d0bf 873d
00000180: fd3c ed3d 072d 38bd a206 94bd cd84 b23d
00000190: 2b07 ba3d 3bec 883d 892c 85bd 2fd9 8b3d
000001a0: 0e43 eb3d 8561 18bd a960 c1bd 8a9b 84bd
000001b0: dc04 49bc 0aaf d8b7 97a5 1d3d ca3e b13b
000001c0: 391e 863d 0e32 4abd 28dd c83d 31a1 83bd
000001d0: 7964 613d 26a1 8d3d 286f 853d 19ff ba3d
000001e0: 1917 6d3c 5b92 333c 72d4 a63d 9c95 2d3d
000001f0: bfd5 a8bb 74de 3e3d ce29 d8bb 92cf 6cbd
00000200: 5ce8 e93d 362e 9abd c287 debd 33cb 25bc
00000210: 7468 cd3d 4947 f5bc ed48 c03d a7d5 d5bd
00000220: 2b4c acbd 57fa d93d 4801 80bd 4f67 db3d
00000230: 02d6 d23d 71d1 8abc 0838 32bc 4d19 83bc
00000240: 4e96 093d 02d1 f53c 476a d0bc 5547 febd
00000250: a9fc 4e3d d093 78bd d660 ccbd f235 933d
00000260: a9eb 7b3d d873 623d 13e0 69bc 547e aabc
00000270: 3057 423c 47d9 15bd 0e29 ae3b 9023 f4bd
00000280: ab87 af3d b4a4 a4bd dd42 bbbd 7040 fd3d
00000290: 26c6 a7bd 1243 ecbd 4bdc 523d 733a 0fbd
000002a0: 87a1 79bd b347 7f3d c6a9 c4bd 981a f23c
000002b0: c1db b4bc f8d5 e93d c629 c5bb 6a1f 72bd
000002c0: ec76 aebd 5611 aebc b3be 5d3d eee2 84bd
000002d0: 3955 a0bd 0ea4 e63d 534d b4bd 4389 9e3d
000002e0: 841f 193d ff13 9c3d c07f e83d b197 b5bd
000002f0: 0743 a13d d186 8cbc 31de 7c3d ccaf 1f3d
00000300: b6dd 27bd a948 bcbd 9da8 66bd bd19 583d
00000310: b55c dbbc 7f70 fb3d db19 9fbc 6733 d93c
00000320: 1aa0 d43d b07d a5bc ef42 bb3d c8e2 d13d
00000330: 6d6f 263d b9a7 843d a47d b3bd 9bf7 54bc
00000340: c9c4 d23b 5a3e fdbd b818 ebbc 16c5 553d
00000350: 8240 d5bd 9ef4 94bd 4985 e53d ae54 f7bd
00000360: 5693 26bd f5a5 cb3d f318 d1bc 68d2 1fbd
00000370: 2560 9dbd 00ae 73bc 3cf8 5abd 6b6e 9f3d
00000380: cdad 69bd 8630 e2bd 6eba 45bc 2fb0 ce3d
00000390: b592 8cbc 8d7e cd3d 79a3 bbbd 71bc 81bd
000003a0: ef04 e63d 7b95 c53d 2004 e2bd 0c90 8a3d
000003b0: 1f9d eabd eff3 c0bd c3e6 c43d 1741 d3bd
000003c0: 576c 4bbd 8be5 0238 2c9b a2bc d434 64bd
000003d0: 0ac0 d53d 3f9c a33c dd0f cabd 978e 81bd
000003e0: 059c e63d 4b84 f2bd 9562 213c e944 af3d
000003f0: d2c5 483a 0bc8 f1bd 1534 08bd d22b 8abc
0.12179382 0.11171661 -0.09677864 -0.09869636 0.024768772 -0.080442674 -0.016876912 0.030698428
0.0063482113 -0.05617637 -0.052816235 0.07828716 0.0714214 0.048630092 0.027017334 0.076121844
0.07463223 -0.056294695 -0.05255983 0.118903935 -0.010431107 0.1212762 0.022159016 0.0324706
-0.036343966 -0.082356304 -0.017379124 0.019870706 0.09193846 0.09944472 0.040929988 -0.041058064
0.10717339 -0.116784364 -0.061680388 0.059118748 0.07129598 -0.08736482 -0.085145876 -0.04208098
0.117491856 -0.026574016 0.011642663 0.0367043 0.07738982 -0.084556684 0.024249222 -0.041104924
-0.072579816 -0.03508985 0.08071152 0.116383694 0.11194001 0.0018281094 -0.023157593 0.039928507
0.11407624 0.01583838 0.049629793 -0.051837362 0.085956454 -0.03615193 0.07761964 -0.12533294
0.109192915 0.10966498 -0.08991198 -0.051911104 -0.008090102 0.11703277 -0.04456763 0.018558184
0.1157441 -0.069274195 -0.10274139 0.06275293 0.061353665 -0.07274167 0.048378214 -0.11724303
-0.10400549 -0.0537569 0.11755835 0.060428564 0.08840161 -0.07915934 0.0379566 0.083776236
-0.09217526 0.016560184 0.027761146 0.080573164 -0.005342449 -0.120547235 0.07139751 0.06628382
0.11583898 -0.044964816 -0.072278276 0.08716736 0.090833984 0.066856824 -0.06502635 0.06828534
0.11487399 -0.037202377 -0.094422646 -0.06474979 -0.012269225 -2.5830715e-05 0.038487997 0.0054090964
0.06548733 -0.049364142 0.09807807 -0.06427229 0.05502746 0.06915502 0.06515342 0.09130687
0.014470839 0.010960187 0.081459895 0.042379007 -0.0051524336 0.046598867 -0.0065967804 -0.057815142
0.11421272 -0.07528345 -0.108657375 -0.010119247 0.100296885 -0.029941218 0.093889095 -0.104411416
-0.084129654 0.10643452 -0.062502444 0.10713064 0.10294725 -0.016945573 -0.010877617 -0.016003275
0.033590607 0.03000689 -0.025441302 -0.12415949 0.050533924 -0.06068784 -0.099794075 0.071880236
0.06150404 0.05528626 -0.014274615 -0.020812191 0.011861607 -0.036584165 0.0053149527 -0.119208455
0.085707985 -0.08039227 -0.091436125 0.12365806 -0.08192091 -0.1153623 0.05147962 -0.03496785
-0.06094506 0.062324237 -0.09602694 0.029553697 -0.022077443 0.114177644 -0.0060169427 -0.05911199
-0.08518776 -0.0212485 0.054136943 -0.06488596 -0.07828755 0.1126176 -0.08803811 0.07741024
0.03738357 0.076210015 0.113524914 -0.088668235 0.078741126 -0.01715413 0.061735336 0.038986012
-0.040982924 -0.09193546 -0.056313146 0.05275892 -0.026777605 0.12277316 -0.019421509 0.026513768
0.103820994 -0.020201534 0.09143626 0.10248333 0.040633608 0.06477303 -0.087641984 -0.012998487
0.00643215 -0.12365408 -0.02869831 0.05218991 -0.104126945 -0.072732195 0.11207063 -0.12076698
-0.040667854 0.09943763 -0.025524592 -0.03901902 -0.07684354 -0.014873028 -0.05345939 0.077847324
-0.057050515 -0.11044411 -0.012068374 0.10092198 -0.0171598 0.10033903 -0.09162039 -0.063347705
0.1123141 0.09647652 -0.11035943 0.06765756 -0.1145575 -0.09421527 0.09614327 -0.10315149
-0.049663868 3.1208194e-05 -0.019849382 -0.055714443 0.10437019 0.019971965 -0.09866307 -0.06326025
0.11260227 -0.11841639 0.009850164 0.085580654 0.0007658872 -0.11805733 -0.033252794 -0.016866598

transformer_encoder.layers.0.self_attn.out_proj.bias f4 [64]
00000000: 544f cb3a 236f 17b9 8492 2cba 024c 51b9
00000010: 1ae4 13bb fbd2 acba f7fc 213b 2cfb 0dbb
00000020: c610 6b3a b326 bbba 8a10 0e3b 2563 223a
00000030: aea3 17bb a70b 2a3a c45b 183a 1870 8c39
00000040: 1368 bfb9 3502 4fba c4ec 1e3b dd76 4b39
00000050: a5a4 ed38 f9c5 33ba 93aa 0c3b e561 9db9
00000060: 68a5 52ba 583b 3a3b bb41 e63a 6423 e439
00000070: 6d5b 8439 0e74 123b 009f 0135 bcfb 3ebb
00000080: f280 5d3b 4fbb be39 5ea1 e73a 7190 85ba
00000090: 5e94 c03a 145c fe3a 4600 3cbb fe86 dfba
000000a0: 14c6 d338 346b 31b9 ee1d 353b 3969 1abb
000000b0: 4fea 41b9 6dd7 cdb9 e4bb 2b3a acad ae3a
000000c0: e7c0 b83a 869d 52ba 1608 5e3a e543 6a3a
000000d0: 3e78 8fba 998a e8b9 d4c8 ccba fd10 693a
000000e0: 2326 d83a d938 9cba f027 c53a f3be 06bb
000000f0: 5933 1aba 5a96 803b ec30 a73a 8969 83bb
0.0015511313 -0.00014441884 -0.0006583112 -0.00019960108 -0.002256638 -0.0013185436 0.002471743 -0.0021664603
0.0008967038 -0.0014278501 0.0021677339 0.0006194583 -0.0023138332 0.00064867217 0.0005812014 0.00026786397
-0.000365079 -0.0007896752 0.002425001 0.00019403869 0.00011331708 -0.00068578083 0.0021463975 -0.0003001831
-0.0008035512 0.002841672 0.0017567197 0.00043513917 0.0002524512 0.0022347006 4.828762e-07 -0.0029141745
0.0033798781 0.0003637918 0.0017671993 -0.0010190142 0.0014692654 0.0019406104 -0.0028686686 -0.0017053781
0.00010098159 -0.00016919972 0.0027636248 -0.0023561253 -0.00018493201 -0.00039261152 0.000655113 0.0013326905
0.0014095575 -0.0008034337 0.0008469833 0.00089365087 -0.0010945869 -0.00044353752 -0.0015623816 0.0008890776
0.0016490858 -0.0011918797 0.001504181 -0.0020560592 -0.0005882285 0.0039241733 0.0012755669 -0.0040103835

transformer_encoder.layers.0.linear1.weight f4 [256, 64]
00000000: ba5b 4a3d eae9 efbd ea57 c93d ae81 243c
00000010: c444 4bbd 4e34 db3c f7ca 753d 553a dd3d
00000020: 51df 5e3d 2f49 97bd edb5 a3bb 0f5b 013d
00000030: 0a7d 5dbd ac0b 77bc 0967 cf3d adb5 f8bd
00000040: 6778 db3c 3e70 983c 2e92 8fbd bcb2 41bd
00000050: f1e7 f53d 77ce 283d 86ef 8abd 389b bd3d
00000060: 0a65 433b 542f d13d 3e2b ce3c 8113 f4bd
00000070: 34b0 e5bc 8f60 7d3d 8e05 4bbd e6da 1dbd
00000080: af12 f5bd a0fa df3d c052 ddbd f68b b53d
00000090: 8693 f3bd aff9 9f3d 6b4e 89bd b57c f2bc
000000a0: 1b73 f63d 8252 a9bd 3207 b03c e453 acbd
000000b0: a85d c2bd c010 a0bd e062 3f3c 232e cabd
000000c0: fb71 51bd 39a6 f93d 469d 59bd b0db 0dbd
000000d0: 9a47 f43b 31b8 c4bd 1fdc 6b3d beea d43d
000000e0: 42c8 8abd d45b ce3d 73c9 73bd 34ac e53d
000000f0: 4e33 ef3d 4ca3 ba3d 76bb 97bd 4b75 e4bd
00000100: afe7 35bd 3076 c4bd 06ac 6cbc 89e9 c1bd
00000110: dd35 1dbd ae65 b0bd 4afa 97bd 7948 d8bc
00000120: fc92 f63d a90e 853d b86d f2bb aa32 98bd
00000130: 544f bcbc a3b3 d2bd 91e0 b5bd 64b7 6a3d
00000140: 5b97 b23c 3ac4 8a3d b565 cd3d c637 843d
00000150: be8a 29bc 1071 40bd 472c b5bd 7e16 9bbd
00000160: 74dc 90bd 24b1 93bd 73b0 01bd f3c9 b9bd
00000170: ddd9 bdbd 05a5 7e3d c457 54bd 4008 c5bd
00000180: 931b 463c 6e34 edbd 32ab e43d a7d3 2d3c
00000190: 1225 143c c691 a8bd 876d c43d 0a99 713b
000001a0: 1b9c 8d3c 596c eabd 76c6 efbd 016b 813d
000001b0: 0767 adbc f796 c5bb 7689 d13d bf92 e9bd
000001c0: 00ed cbbd d51d 58bc e388 febd fc03 7b3c
000001d0: e97c 8fbd 6e99 023d 3353 b33c 355e abbd
000001e0: 3705 b2bd 782c 96bd 4467 eebd 2f71 bf3b
000001f0: bcb6 a0bc 2a1b 033e a47a cb3c 7664 ef3d
00000200: 2b2a 0ebd dfb1 16bd 9e13 f23c 5f19 d0bd
00000210: 5900 e33d 628a cf3b 4760 dfbd 3bc2 68bd
00000220: 2a87 8dbd 93a9 2b3d 9773 cc3d f956 bdbd
00000230: 7a6e bc3d 12bf a7bd 3c54 a7bc 24fe 953d
00000240: 8d66 e6bd ae95 683d 68ed e73d 492b 883d
00000250: 3628 ebbd 03ac dc3d 12b3 65bd 6233 743c
00000260: 3cee d13d adad 5cbd 3a74 8bbd 159e 29bd
00000270: 0a11 d43d 5df1 edbd e320 e43d daab b7bd
00000280: 6cef af3d 0dec 15bd a3f3 f43d 6480 a7bc
00000290: b688 5a3d ef0f 2cbb 9941 b9bd 4a45 71bc
000002a0: e862 0c3c 3630 c63d a7eb 0a3b bc63 82bd
000002b0: d75b e93d 900b 20bc 5c24 c2bd eb24 0bbc
000002c0: 184f d0bb f84b 96bd df59 7f3d 2c0a 183d
000002d0: d659 373d ac81 f93c 2543 d83d 47c2 d7bd
000002e0: 5f17 5dbd 1906 78bd 2d2d 6dbd fe3b e0bd
000002f0: 8ab4 3e3c 693e 81bd dda1 64bd f76f efbd
00000300: 2858 b5bd e63c 82bd 081a df3d 73ff a63d
00000310: 3553 0b3d 2b2e eebd 4cc0 8fbd b77c 73bd
00000320: 7a83 04bc 45e3 ebbd b3c7 9e3d d9ac 8e3d
00000330: 0869 d93c 10b5 b0bd fc41 003d e0ad ebbb
00000340: 9efd dd3c 2762 963d efee 89bd 1095 b43d
00000350: b158 6e3d 4b42 9f3d 4a6c 80bd 150d 90bd
00000360: e33d 94bd cc81 9bbd ef7b 45bd 3674 9cbc
00000370: 3609 adbd 673e 663d 5d77 ac3c 2637 913d
00000380: 43fd 833b dda0 e8bd a886 a6bd 5038 32bd
00000390: 1e3b e13d 2c5b 4d3d 1d8a 5a3d 363c 95bd
000003a0: 1d15 b23d 0b19 643c a22f 833d 9148 cb3d
000003b0: 0e0d bebc 2aae ba3d ea2b cfbd 6cc8 573c
000003c0: c67e a9bc 50c5 1d3c 4234 053d 1421 70bd
000003d0: 8c6c a5bd 2c4b edbd cf9c ecbb cccb 2e3d
000003e0: 668c 4b3d fab7 593d 8a8c 1c3d 41c1 a03d
000003f0: 47a5 183d e453 c03c 299d a13c 41eb babd
0.049403884 -0.117145374 0.098312214 0.010040684 -0.049626127 0.02675834 0.060008015 0.108021416
0.05441219 -0.073870055 -0.0049960525 0.03158098 -0.054074325 -0.015078466 0.10127074 -0.12144027
0.02679081 0.018608209 -0.070103034 -0.047289595 0.1200713 0.041212525 -0.06783967 0.09258121
0.0029814863 0.10214105 0.025167104 -0.119177826 -0.028038122 0.061859664 -0.049565844 -0.038538836
-0.11966454 0.10936475 -0.10806799 0.08864586 -0.11893372 0.07811295 -0.0670441 -0.02960048
0.120336734 -0.0826769 0.021487806 -0.08414438 -0.0949052 -0.07815695 0.0116812885 -0.09872081
-0.05113409 0.121899076 -0.053128503 -0.03463334 0.0074548246 -0.09605444 0.05758297 0.10396336
-0.067764774 0.100761086 -0.05951829 0.11214486 0.116797075 0.09113178 -0.07408802 -0.11155184
-0.044410404 -0.09592855 -0.01444531 -0.094683714 -0.038381446 -0.08613144 -0.07420786 -0.026401745
0.12039754 0.06496937 -0.0073983334 -0.074315384 -0.022987045 -0.10288169 -0.08880723 0.0573038
0.021800688 0.067757085 0.10029165 0.064559504 -0.01034802 -0.046982825 -0.08846336 -0.075726494
-0.07073298 -0.07211521 -0.031662416 -0.09071722 -0.0927007 0.062169094 -0.051841512 -0.09620714
0.012091535 -0.11582266 0.111654654 0.010609544 0.009042041 -0.08230929 0.09591203 0.00368649
0.017286351 -0.11446447 -0.11707775 0.063192375 -0.021167291 -0.0060299593 0.10231297 -0.11404943
-0.099573135 -0.013190706 -0.12428453 0.015320774 -0.070062466 0.031884603 0.021890258 -0.08367578
-0.08692401 -0.073327005 -0.1164079 0.00584235 -0.019618385 0.12803331 0.024838753 0.11689083
-0.034708183 -0.036790725 0.02955037 -0.10161089 0.11084051 0.006333635 -0.10907035 -0.056825858
-0.06910546 0.041909765 0.099829845 -0.09245104 0.09200759 -0.08190741 -0.020425908 0.07323864
-0.11250029 0.05678337 0.113245785 0.06648881 -0.11482279 0.10774996 -0.056078978 0.014904829
0.10250518 -0.053876568 -0.06809278 -0.041410524 0.103548124 -0.11618302 0.11139085 -0.08968325
0.08590588 -0.03660207 0.119605325 -0.020446964 0.053353034 -0.0026254614 -0.09045715 -0.014725992
0.008568503 0.09677164 0.0021197589 -0.06366679 0.1139447 -0.009768382 -0.09479591 -0.008492689
-0.006357085 -0.07338709 0.062341567 0.037119076 0.04476341 0.03045734 0.10559682 -0.10535102
-0.053977367 -0.06055269 -0.05790441 -0.109489426 0.011639724 -0.06310732 -0.055818427 -0.116912775
-0.08854705 -0.06359272 0.10893637 0.08154192 0.0340149 -0.116298996 -0.070190996 -0.05944511
-0.008087987 -0.115179576 0.07752933 0.06966562 0.02653934 -0.08628285 0.031312928 -0.0071923584
0.027098473 0.0734294 -0.06735026 0.08817494 0.05819005 0.07776316 -0.062706545 -0.07033745
-0.072383665 -0.07593116 -0.048213895 -0.019098382 -0.084490225 0.056211855 0.02105301 0.07090597
0.004027994 -0.11358807 -0.081311524 -0.043510735 0.10997604 0.050135776 0.05335437 -0.07286875
0.08695433 0.013921986 0.064055696 0.0992595 -0.023199584 0.091152504 -0.10115798 0.013170343
-0.020690333 0.0096295625 0.03252054 -0.058625296 -0.08077344 -0.115866035 -0.0072208415 0.042674825
0.04969444 0.05315397 0.038219966 0.0784936 0.037266996 0.023477502 0.01972826 -0.09126902

transformer_encoder.layers.0.linear1.bias f4 [256]
00000000: 6b2b bf3c 0541 e7bd 012d fa3c 42a6 8c3d
00000010: 0d46 a43d 05be 643c c9b6 b63c 70fd 59bd
00000020: 1b65 6dbd 9c47 963c d380 a1bd f131 ac3d
00000030: 32f6 74bd df7f a33d 30c3 84bc 0f06 263d
00000040: 55cb a93b 5b4a cd3d 64f7 59bd da78 e4bc
00000050: d770 febd 88e1 833d 6305 ccbd d0f4 f33c
00000060: 7755 23bc 2823 00bd 212c c83d eb5c 863d
00000070: 0ab7 3abc 22cb bfbd 51ec dbbd bd94 1cbc
00000080: b8e1 dabd 2660 82bb 0481 8cbd 849a c9bd
00000090: 3b6f 96bd e77c f83d 4e37 003e f4cd f03c
000000a0: 48a1 0abd fbe3 d7bb 1230 be3c 9427 9a3c
000000b0: 9e52 b43d a2a8 cfbd 8622 3c3d 4203 a8bd
000000c0: a2aa f03d a6eb 0c3d d8f2 92bc 05cf 333d
000000d0: e8f1 af3d 2858 9bbc a713 09bd bd4c 1cbd
000000e0: 9b56 fb3d e6d4 11bd a3d9 a9bd 4be7 b73c
000000f0: c5cb b9bd 6834 8a3d 1935 833d 22c0 893d
00000100: 067b e33d c430 f1bc 1f1a 14bd d373 49bd
00000110: abf3 283d ff53 003d 2b10 023c 3ebd 85bd
00000120: 7c00 8e3d 5215 50bd 3574 8f3b 2cb2 853b
00000130: 137b 223d 73cb ea3d 0ec0 f43d cd01 7fbd
00000140: 9556 d13d 999c 813b e1e1 a0bd 0843 ea3b
00000150: a762 a5bb c41a e13d aa02 b0bd 7fae fbbb
00000160: 0633 f33a ce5f aabd 33cc a93d 54cf 8e3d
00000170: 7815 6dbd 4ca4 003d 4796 b6bd 4da9 823d
00000180: 5cd4 dd3d 4bc2 6d3d 0662 683d 64ff d3bd
00000190: 7867 cb3c 11fa 8d3d 9e35 cb3d b8dc 5fbd
000001a0: eef5 bb3d d3d6 39bd 6a50 a23d 3226 b6bd
000001b0: da0e ccbd 23f5 a13b aab4 e0bd e18e afbd
000001c0: e870 6abc dbd4 adbd baee 59bd 3a9f ed3d
000001d0: 6cf7 21bc a998 ab3d f4f5 66bd 1eb5 35bb
000001e0: 5cde ebbd c97f b53d f7ee 24bc 6547 dd3d
000001f0: 8536 e5bd 7465 b03b 02cc bbbd 169f 833d
00000200: 5587 3bbd ae25 0fbd 6e83 fbbd aa2f d33d
00000210: d725 4cbd 6576 dc3d b26b cf3d 5212 ee3c
00000220: f886 683d 4b64 3e3c 3f6c 3f3d 5df3 e4bd
00000230: 8f6b f2bc d584 d43d d122 793c 45ba d0bd
00000240: 6674 513d b44f 5f3d 4807 9ebb 9198 cf3c
00000250: 0255 ac3d afbc 16bd 1fbc 9b3d c1c1 b13d
00000260: 8c97 b63d 4aa0 b33c 3691 873d 09f5 c63d
00000270: c535 763d f33c 59bd 474f e43d 1f69 43bd
00000280: bcef 8cbd 4199 fa3c 740f debd ae10 19bc
00000290: 2a96 15bc f010 90bd c70f d63d 79a4 d3bd
000002a0: 9768 c93d faa9 643d 0b1e 093d b077 8fbd
000002b0: c263 a1bc 8d15 ccbb ced4 393d 91b7 ad3c
000002c0: 47a0 75bd ca85 243d 2353 783d a1ed 6fbd
000002d0: d165 95bd 78eb a0bc 85ca b53a 8668 e0bd
000002e0: 9093 46bd a372 5d3d a67e a33d 4f3d a23d
000002f0: cb3c c43b ffd5 b3bd ed6d f5bd a5e4 023e
00000300: 28d5 93bd fad1 4f3c a052 7e3c 6a38 f6bb
00000310: 028e b8bb f040 d13d 08b0 72bc 7fbf c23c
00000320: f134 bc3d 1197 b4bc 4324 9ebd 3ea7 e1bd
00000330: 99ee 6bbd fd0d 18bd 8701 b2bd 0b02 08bd
00000340: 6850 d83d 9e3e 303d c74a a2bd 40b2 4c3d
00000350: e5bb c63c 9541 c63d 8703 0abd ab7c 9bbd
00000360: d99f 873d bdb6 a33c f561 e03c 852e e0bd
00000370: 5620 ae3d 4873 dd3d f770 0e3d 0eee 3bbd
00000380: 89c7 ef3d fe7e cebd c8b6 f23d a9c1 ff3d
00000390: 68f2 c03b 9600 0bbd ec0a d73c 1702 393d
000003a0: 7ed9 a7bd e8a0 58bd 66d1 993a 03e7 9f3d
000003b0: 40eb d2bd 67ab b3bd 681d 6dbc ff98 e3bd
000003c0: 3fb9 8e3d 5c97 bdbd d3b4 183d b0ec b0bd
000003d0: 055a 6fbd 26a1 d1bc d68d dfbd 29d9 bdbd
000003e0: ad60 81bc 3f06 0dbd 6b31 bd3d f635 8abd
000003f0: ee81 053d 4c48 b73c 6d6b bdbd 975c 7fbd
0.023336133 -0.11291698 0.030539038 0.06867649 0.080211736 0.01396132 0.022303956 -0.053220212
-0.05795775 0.018344693 -0.078858994 0.08407963 -0.059805103 0.07983374 -0.016206354 0.04053312
0.00518171 0.10023948 -0.053214446 -0.027889658 -0.12423866 0.06439501 -0.09961965 0.029779822
-0.009969107 -0.031283528 0.09774042 0.065606914 -0.011396179 -0.093649164 -0.10738433 -0.009556946
-0.10687584 -0.003978747 -0.06860545 -0.09843925 -0.07345434 0.12133198 0.12521097 0.029395081
-0.033845216 -0.0065884567 0.023216281 0.0188177 0.088048205 -0.10139586 0.04593136 -0.082037464
0.117512956 0.03440442 -0.017938063 0.0438986 0.08591062 -0.018962935 -0.033466008 -0.03815912
0.12272378 -0.035603426 -0.08293464 0.022449156 -0.09072069 0.06748277 0.06406612 0.067260996
0.11107449 -0.029442199 -0.036157724 -0.049182724 0.041248005 0.031330105 0.007938425 -0.06530236
0.06933686 -0.050801583 0.0043778666 0.0040800776 0.039668154 0.11464586 0.11950694 -0.062257577
0.10221592 0.0039554355 -0.07855583 0.007149104 -0.0050471607 0.10991433 -0.08594258 -0.0076807137
0.0018554635 -0.083190545 0.08290901 0.069731385 -0.057881802 0.031406686 -0.08915382 0.06379948
0.1083152 0.05804662 0.056734107 -0.10351446 0.024829611 0.06932462 0.09922336 -0.054653853
0.09177767 -0.045370888 0.07925494 -0.08894004 -0.0996377 0.0049425527 -0.10971959 -0.08572174
-0.0143091455 -0.084878646 -0.053206183 0.11602636 -0.00988565 0.08378727 -0.056386903 -0.0027726362
-0.11517021 0.08862264 -0.010066739 0.10804633 -0.111920394 0.005383188 -0.09169771 0.064268276
-0.04578336 -0.034948044 -0.122809276 0.103118256 -0.049840774 0.107647695 0.10127963 0.02906147
0.05676934 0.011620591 0.04673409 -0.1117923 -0.029592304 0.10376898 0.015206055 -0.10191778
0.051136397 0.05451937 -0.0048226453 0.025341304 0.084146515 -0.036801036 0.076042406 0.08679534
0.08915624 0.021927018 0.06619494 0.097147055 0.060109872 -0.05303664 0.111479335 -0.047707673
-0.06881663 0.030590655 -0.10842791 -0.009342356 -0.00913004 -0.070344806 0.10452228 -0.10334105
0.09834402 0.055826165 0.033475917 -0.070052505 -0.019700889 -0.006228155 0.045368962 0.021205695
-0.059967306 0.040166654 0.06062616 -0.05857623 -0.072948106 -0.01964353 0.001386956 -0.10957436
-0.04848057 0.054064404 0.07983141 0.0792185 0.0059886924 -0.08781051 -0.11983857 0.12782533
-0.07218391 0.01268434 0.015522629 -0.0075140493 -0.005632163 0.10217464 -0.014812477 0.023772953
0.09189785 -0.02204469 -0.0772176 -0.11018227 -0.05760059 -0.037122715 -0.086916976 -0.033205073
0.10562211 0.043028466 -0.07924419 0.04997468 0.024259517 0.096804775 -0.03369477 -0.07592138
0.066222854 0.019984597 0.02739046 -0.10946373 0.08502261 0.10813004 0.0347757 -0.045881324
0.1170798 -0.100828156 0.11851269 0.124881096 0.005888272 -0.033936106 0.026250325 0.04516801
-0.0819578 -0.052887827 0.0011735379 0.07807734 -0.102987766 -0.08772927 -0.014472343 -0.11113166
0.06968927 -0.09257385 0.037281822 -0.086388946 -0.05843546 -0.025589537 -0.10915725 -0.09269936
-0.015793169 -0.034429785 0.09237941 -0.067485735 0.032594614 0.022373341 -0.092490055 -0.06234416
