models/experiments/synthetic_data_pretrained_2024-12-06_03-36-21_ZAm/checkpoints/model_best.pth (torch, 634466 bytes, 53 tensors)

project_inp.weight f4 [64, 5]
00000000: ccab a3bc 97df 463e cea4 8bbe bfdf e63d
00000010: cc2c c7be ac61 31be f51f c0be 5a86 3fbc
00000020: 30bc a63e 2446 ad3d 05b0 eb3b 93b3 d4be
00000030: 2e59 e23e 4b14 53be f560 debe 314b 99bd
00000040: 103b de3d 27e5 293e 7fb9 dc3a ad61 85be
00000050: 7bc1 813e 9bff b63e 64f8 a3be 7aab 6c3e
00000060: b834 dd3e 492a d5be f2b1 bb3d 729e b63d
00000070: ea31 d9bc b397 39be 0370 50be d32f a83e
00000080: e3ec 123b 74f7 a03e 3de0 dfbe b948 b1be
00000090: 7235 19be cb45 72be 37e5 373e 2dd1 a7be
000000a0: adda 9d3e a606 913d 2859 dc3e cb19 b7be
000000b0: 4882 d8be bb5e 853d a407 b7bd 3748 e0be
000000c0: 6826 abbe d724 81be 10ad 65be db64 7b3d
000000d0: 42ae 9fbe ff80 9dbe 7acd 063d a04f b3be
000000e0: b77f c13d 145d 04bd b75e 97be 2f10 4c3e
000000f0: 8929 1bbe ddac 1f3e d34a 6c3e 3ea8 02bd
00000100: 05c4 1b3e 25e5 4cbd 94db ae3e 7759 893e
00000110: 9a08 a43c ddad d33e 0478 3fbe 552a 5c3e
00000120: 7d0a 513e 8faf 6b3e 1846 423e 2d70 243e
00000130: 3825 383b 8d5c 153e a19d 903e 9648 b33e
00000140: bd1c 423e ce2d 533d 82c0 62be 6178 66be
00000150: bce7 93be 1bda 81be 7986 0cbe cf55 bd3d
00000160: b56c 19be 915f abbc 383a c93e c725 28be
00000170: 4237 313e 4257 a73d 9c27 053e 45b8 78be
00000180: 5573 38be 13a8 bfbe 4e1d babe df26 86be
00000190: 94da dcbe 6d06 cd3e 3fff 5b3e e6f4 863e
000001a0: 932d 0d3e e704 c93e 70e0 cf3e 6a08 37bd
000001b0: 2e8b 83be e6a8 a13e ab63 803e 19f5 e33e
000001c0: 1997 2e3e 3d04 a13e 6655 013e ab96 0d3d
000001d0: 5b5b 5f3e 5e6d 84be aa48 c1bc c258 8e3e
000001e0: 2c40 d93e 1134 76be cfec 633e 69d5 46be
000001f0: e803 4abd 8f69 a1be 965e 7a3e edd4 a63e
00000200: ad88 f43d d66b e43d 4e1e 363e 92d5 8abe
00000210: 5200 c53e 0159 603c c876 8ebd 0563 bebe
00000220: b2af c93b 78b3 ad3e 25f1 c53e 994d 833c
00000230: 8366 a53e 5222 9fbe 7c48 b93e 8e78 dcbe
00000240: 4219 7f3e eeee 28be 4884 943e 026c d3be
00000250: 6bbe eebd 527f 94be 6f3e e2be 80d8 e23e
00000260: 60b9 d1be 40cb e13d 7580 123e bba8 abbe
00000270: fbe7 da3e 260f 50bd eec5 e23e d4e4 9cbe
00000280: 3d61 5e3e ce95 63bd de4b 3cbe 5f81 993e
00000290: 6308 8cbe c169 a33e d2b5 a63e b33e 153e
000002a0: ad01 c23e 8a0a a4bb 4a47 9fbe 4d59 a2be
000002b0: fdce a53c 1233 4cbe 8193 babe 7173 8dbe
000002c0: 9226 25be d8fd d53e aef7 dcbe c264 d03e
000002d0: 4797 15be 4e97 83be 33a5 cc3e c836 9fbb
000002e0: 4929 a6be e640 2d3e 36ca 3b3e 0422 193e
000002f0: 5b7a 67bd 1afa 8cbe d9f8 b63e 1ba6 bcbe
00000300: 7b10 adbe 81f2 493d b498 d0be f4d2 81bd
00000310: c358 d63e 3778 923e 2f37 b83e 063b c13e
00000320: a444 cf3e 0756 d4bc 7719 8c3e 168c b7be
00000330: 6818 bebd c7fa 303e a635 c4bd 2216 e8bd
00000340: 52e0 97be dbbe 64be 2f9e cc3e 2afb 38bd
00000350: 13a3 a33e 3aab df3e 654f c23e 3731 8fbe
00000360: fc26 d23d a3af 38be a538 ef3d f7ae 4a3d
00000370: 6554 743e 4185 de3d c7e4 843e 460b 603e
00000380: a3c0 d4be 05f9 6e3e 6e4a 3abe a23a c53e
00000390: c424 c23e 741d a03e 465a 23be 19c9 5b3d
000003a0: e755 1bbe e6c9 333e 3534 3cbe b86b c23d
000003b0: b66d a83e f4e2 afbe eefa a7be 5e9f 21be
000003c0: 0ac1 303e cddc fb3d 369b c63e 9064 c0be
000003d0: 37d5 d7be 2002 babe 7476 d03e 9490 7e3e
000003e0: 423f 6bbe 6228 41be 4125 9c3e b310 be3e
000003f0: bc31 383d 0adb 3a3d 0142 bdbe ec1f a5be
-0.01997938 0.1942123 -0.27274173 0.11273145 -0.38901365 -0.17322415 -0.3752438 -0.011689747
0.3256545 0.08460644 0.007192614 -0.41543254 0.44208664 -0.2061321 -0.43433347 -0.07485045
0.10851109 0.16591321 0.001683995 -0.26051083 0.25342926 0.35741886 -0.32025445 0.23112288
0.43204284 -0.41633824 0.091648 0.0891694 -0.026513059 -0.18124275 -0.20355229 0.32848987
0.0022419028 0.31438792 -0.43725768 -0.34625795 -0.14961794 -0.23659436 0.17958532 -0.32776776
0.308309 0.07081346 0.4303677 -0.35761866 -0.42286897 0.06512209 -0.08937004 -0.43805096
-0.3342774 -0.2522342 -0.224293 0.06137548 -0.31187636 -0.3076248 0.0329108 -0.35021687
0.09448188 -0.03231533 -0.2956445 0.19928049 -0.15152563 0.15593286 0.23075418 -0.03189873
0.15211494 -0.050023217 0.341519 0.2682607 0.020023633 0.41343585 -0.18698126 0.21500523
0.20414157 0.23016189 0.18972051 0.16058417 0.0028098356 0.14586087 0.2824526 0.35016316
0.18956275 0.051557355 -0.22143748 -0.22506858 -0.28887737 -0.25361714 -0.13723172 0.09244882
-0.14982875 -0.020919593 0.3930223 -0.16420661 0.17306235 0.0817094 0.13003391 -0.24289043
-0.18012746 -0.37432918 -0.36350483 -0.2620153 -0.43135512 0.40043965 0.21484087 0.26358718
0.13786916 0.39261553 0.4060092 -0.04468576 -0.25692123 0.31574172 0.2507604 0.44522932
0.17049827 0.31448546 0.12630233 0.034567516 0.21812193 -0.2586469 -0.02359422 0.27802092
0.42431772 -0.240433 0.22258304 -0.19417347 -0.04932013 -0.31525847 0.24450144 0.32584324
0.11940131 0.111533806 0.17784998 -0.27116066 0.38476807 0.013693095 -0.069562495 -0.3718492
0.0061549777 0.33925986 0.3866054 0.016028212 0.32304773 -0.31080872 0.36188114 -0.43060726
0.24911979 -0.16497394 0.29007173 -0.4129334 -0.11657413 -0.29003388 -0.44188258 0.443058
-0.40961742 0.11025095 0.14306815 -0.3352717 0.42755112 -0.050795697 0.44291633 -0.30643332
0.21716781 -0.055562787 -0.18388316 0.29981515 -0.2735015 0.3191662 0.32560593 0.14574699
0.37891904 -0.005006139 -0.31109077 -0.31708756 0.020240301 -0.19941357 -0.36440662 -0.27627137
-0.16127995 0.4179523 -0.43157715 0.40701872 -0.14608489 -0.25701374 0.39969787 -0.0048588254
-0.32453373 0.16919288 0.18338856 0.14954382 -0.05651317 -0.27534562 0.3573673 -0.36845478
-0.33801636 0.049303535 -0.40741503 -0.06339064 0.41864595 0.28607342 0.35979602 0.37740344
0.40482056 -0.025919927 0.27363178 -0.35849065 -0.09281999 0.17283164 -0.09580545 -0.113323465
-0.2966333 -0.2233843 0.39964435 -0.045161404 0.31960353 0.43685323 0.37951198 -0.27967235
0.10261342 -0.1803575 0.11680726 0.049483266 0.23860319 0.1086526 0.25955793 0.218793
-0.4155322 0.23337181 -0.18192455 0.38521296 0.37918675 0.3127247 -0.15952405 0.05365858
-0.15169488 0.17557487 -0.1837929 0.09493202 0.32896203 -0.3435284 -0.32808632 -0.1578345
0.17261139 0.12297974 0.38790292 -0.37576723 -0.42154858 -0.36329746 0.40715373 0.2485984
-0.2297335 -0.18863061 0.30497172 0.37122115 0.044969305 0.04561905 -0.3696442 -0.32250917

project_inp.bias f4 [64]
00000000: 8941 0c3e d294 343e 22f5 4b3e 7d7c 83be
00000010: d285 c03e ed2f 8d3c d1f3 9cbd 5d2b 083d
00000020: e1b1 14bd 126a de3e 2e15 49bd 5880 9ebe
00000030: 46ae 9dbe 1b4f d53e db8a 83be 3bb9 293e
00000040: 2c74 99bd 7cc6 b6be 7346 4dbc f31f 56bc
00000050: 0c4f ac3d 92b5 c33e f491 c7be c8f2 1d3e
00000060: 5236 b43e d015 ba3b a756 c93e 4c5c 103e
00000070: 3ce6 b63e 535d c0be 4f0d eabd 10a0 9b3e
00000080: e539 403e be98 6f3e 10bf cbbe 8596 debe
00000090: ec12 fbbc 3f52 c4bc f0a3 9b3e 13a5 6d3c
000000a0: d87e 803e 1f0d bf3d fcd9 a13e b6ed ebbd
000000b0: 0a60 b03e a6c9 b23d 4d06 9b3e dc6c 90be
000000c0: ea4f 76bd 7234 7abe 8d2d bc3e 23ea 433e
000000d0: 2f9b 7c3e e538 bf3e 5033 923c 8a15 d73e
000000e0: f926 d3be ab3e c0be b2a0 723d 92f7 2f3e
000000f0: d796 73be 7ee9 843e 4b30 753e d3fa f23d
0.13696875 0.17634895 0.1991773 -0.25680915 0.37602097 0.017234767 -0.07663692 0.03324448
-0.03630245 0.434403 -0.049092464 -0.30957294 -0.30797023 0.41661915 -0.25691876 0.16574566
-0.07492861 -0.35698307 -0.012529003 -0.013069141 0.084135145 0.38224465 -0.3897854 0.15424645
0.35197693 0.00567887 0.39323923 0.14097708 0.3572253 -0.375712 -0.1142832 0.30395555
0.18772085 0.2339811 -0.39794207 -0.43474212 -0.030648671 -0.023965 0.30398512 0.014504689
0.25096774 0.093286745 0.3161162 -0.11519949 0.34448272 0.08729868 0.30278245 -0.28208053
-0.060134806 -0.24434069 0.36753502 0.19132285 0.24668573 0.37348095 0.017846733 0.4200862
-0.4124067 -0.37547812 0.059235282 0.17184284 -0.2378801 0.2595939 0.23944204 0.11864247

pos_enc.pe f4 [30, 1, 64]
00000000: 12fb c53b b7ab 05bb 1489 f939 4fde 4e3c
00000010: b531 0c3b 7b61 c23a b43e e4ba 9a3f ee3b
00000020: d052 88bc cf06 55bc a402 c6ba 6e8d b93c
00000030: 778c 873b 86e4 1fbb 613d 9c3c deed 19bc
00000040: e596 41bc f095 793c 7e37 653c de12 793a
00000050: abab 43bb 6bb8 d13b 5560 91bc aff5 6cba
00000060: 2199 af3b 11f3 99bb 123b 053c d650 aebc
00000070: 8ae7 ab3b 85e1 75bc 79c4 acbb 8a4f a5bc
00000080: 6fb0 cd3a 5986 ca3b 67a5 ccba 2a5a faba
00000090: 88eb ecbb 1804 383c 0a3f 293c c895 d4bb
000000a0: dde2 d4bb b9ed b13a b18b 633c f4bc 4e3c
000000b0: a70c 633a f9d2 14bc 64bc 533c 3d82 72ba
000000c0: e94f b4bc f07f 0f3c e858 003c d102 4a3c
000000d0: fd6b 9e3c 306a 81bc cccb 15bc cfce d2bb
000000e0: 9249 f63b 178e 5ebc 25ff 66bc c466 42bc
000000f0: 4126 7bbb 9aec 25bc 7cc1 7eb9 2e6c 8bba
00000100: bf04 bb3b a9bb 323b c1bf 673c 5090 15bc
00000110: 42cb 6dbc 8ed3 f2bb 749b 9db9 4865 3ebc
00000120: e197 10bc 72b0 9b3b 27db 123c 3170 3fbc
00000130: 54b9 973b 1a76 83bb 313f 7c3c 12f0 cb3b
00000140: 2544 45bb 74e7 f2bb e3d0 42bc ddee e9bb
00000150: 4e56 313b a1ae 713c 1af8 bdbb b117 9f3c
00000160: 4971 ffbb 08f7 aa3c 61da b7bb 4545 4dbc
00000170: f9e9 8f3c 1459 9c3c ae01 76bb 21bf 413c
00000180: 9b96 89bc 8306 e63b 98ca 79bc 9b05 d03b
00000190: c7f1 693c 1a7f e6bb 1c0f 8c3c 03b8 b6bb
000001a0: a9de a2bb 5db9 48bc e51c 833b 3186 95bc
000001b0: 7db2 ab3c f387 593b ae95 a43b 0654 c13b
000001c0: 7e9e 843c c8dc 00bc 352c 103c c55a cabb
000001d0: 64fd 70bc 1871 2c3c 1319 90bc fa3a f1bb
000001e0: 5d35 e83b 1490 983b 8487 573c 2df3 fbbb
000001f0: adb6 7a3c 8b81 263c 87ea 573c 19e1 7fbc
00000200: 23e0 88bc 10fe 2cbc 3381 a3bb 436e 423a
00000210: 80fa c0bb a4c6 aabc 09ff 803b a026 263b
00000220: 070f 813c 9df5 81bc 0e44 7d3c 99f0 0abc
00000230: 3fcc 81bc 15b8 88ba eb6b 03bc 7ef4 bcba
00000240: f6ba 3a3c e099 8f3c 40dc 963b 2610 92bc
00000250: f017 25bc 2a66 48bb 8000 fdba 3293 0fbc
00000260: faff b9bb e0b6 1837 0504 68bb c064 773c
00000270: 87b4 80bb 28d4 acbb ceca 7cbb e087 28bc
00000280: 99bd 2e3b 36eb 5f3b f0cb 65bc 666a 67bc
00000290: 6786 c9bb 878a 7d3b e62c 88bc 9de7 ac3c
000002a0: 3943 8dbc 3c8d 87bc bdd5 903a d9c8 913c
000002b0: 8cf3 a3bc a54b a6bc bbd3 9cbb 4115 bfbb
000002c0: 2cda 873b b606 e3bb 35ba aa3b 74fc 43bc
000002d0: 27a2 543b 6d6c 3fbc deef 743c 87b4 743c
000002e0: 0ff7 473c c8e2 9dbc fa6b 92bc b8f4 893a
000002f0: f9e5 833c 32e0 803c ad57 82bc 97f9 48bc
00000300: 864d ec3a 6989 a2bc f0f9 973b d5dd a7bc
00000310: da76 14bc e020 db3b d537 323b 7aa1 7dbc
00000320: 1127 893c d193 a33c d8bc cbbb 8f6a 5a3c
00000330: 12f3 813c f1d7 50bc c32b 153c 5beb 4e3b
00000340: 8e3a da3b 2fe6 18bc 8792 203c 6333 1ebb
00000350: 56fb 883c 846b 873c 19ca 653b b260 32bc
00000360: 07db c33b 7404 2cbc cb7c 0f3c 4e1d 65bc
00000370: 64b6 87ba 9a09 733c 99bf 16bb b259 0d3c
00000380: 6462 8b3c 5615 9e3c 61ac 943b 26a7 7f3c
00000390: eb7e 55bb 7417 e7ba fe5a 223c be9d 963c
000003a0: 0314 57bc 3fae 06bb 0afd 3e3c a9d7 573c
000003b0: de91 91bc 5898 8e3c 5ce2 aeb8 a8a5 fb3b
000003c0: 8c9a c0bb eb11 8abc e4a2 acbb f13c 88bb
000003d0: 3881 f13b c29a d4bb f612 933b df24 81bb
000003e0: a140 133c aaf0 a43b 493a 853c 747b 6fbc
000003f0: 6a75 913a 2ae1 e939 81b4 903c d218 5d39
0.006041893 -0.002039654 0.00047595112 0.012626245 0.0021391932 0.0014830077 -0.0017413707 0.0072707655
-0.01664105 -0.013002112 -0.0015106988 0.022650447 0.0041366178 -0.0024397685 0.019072236 -0.009395091
-0.011815761 0.015233502 0.013990281 0.00095014076 -0.002985696 0.006400158 -0.01774613 -0.0009039295
0.0053588306 -0.004698165 0.008131759 -0.02127878 0.0052461075 -0.015007381 -0.005272445 -0.020179529
0.001569284 0.0061805663 -0.0015613259 -0.0019100357 -0.007230226 0.011231445 0.010329971 -0.006487582
-0.006496771 0.0013574875 0.0138882855 0.012618292 0.0008661248 -0.009083503 0.012923334 -0.00092509744
-0.02201076 0.00875853 0.007833697 0.012329773 0.019338602 -0.015797704 -0.009142827 -0.006433345
0.0075160945 -0.013583682 -0.014098917 -0.011865322 -0.0038322362 -0.010127211 -0.00024295406 -0.0010637098
0.005707353 0.0027272499 0.014144839 -0.009128645 -0.0145137925 -0.007410473 -0.00030061195 -0.011620827
-0.008825273 0.0047512585 0.008963383 -0.011684463 0.004630247 -0.0040118815 0.015395925 0.006223687
-0.0030100432 -0.0074128453 -0.011890623 -0.0071390704 0.0027059498 0.014751107 -0.0057973983 0.019420477
-0.007795487 0.020869747 -0.0056107496 -0.012528722 0.017567622 0.019085445 -0.0037537622 0.011825354
-0.016795447 0.007019819 -0.015246056 0.0063483245 0.014278836 -0.0070341947 0.017097048 -0.005576135
-0.004970391 -0.012251225 0.004001247 -0.018252464 0.020959133 0.0033192604 0.005022726 0.005899909
0.016188856 -0.007865138 0.008799602 -0.0061753714 -0.0147088505 0.0105250105 -0.017590081 -0.007361767
0.0070864395 0.0046558473 0.013154868 -0.007688901 0.015302342 0.010162721 0.013178474 -0.015617632
-0.01670844 -0.01055862 -0.004989767 0.0007416943 -0.005889237 -0.020846672 0.0039366526 0.0025352612
0.015754236 -0.015864188 0.01545812 -0.0084802145 -0.015844462 -0.0010430837 -0.008021335 -0.0014416126
0.011397114 0.017529428 0.0046038926 -0.017829966 -0.010076508 -0.0030578473 -0.0019302517 -0.008763121
-0.0056762667 9.102485e-06 -0.0035402786 0.015099704 -0.0039277705 -0.0052743144 -0.003857303 -0.010286301
0.0026663302 0.0034167296 -0.014025673 -0.014124488 -0.006150055 0.0038687305 -0.016622972 0.021106536
-0.017243968 -0.016546838 0.0011050027 0.017795967 -0.020013593 -0.020299742 -0.0047859824 -0.005831391
0.004145881 -0.0069282902 0.005210186 -0.011962045 0.0032445283 -0.011683566 0.014949767 0.014935619
0.012204899 -0.019273177 -0.017873753 0.0010525202 0.01610087 0.015731905 -0.015910948 -0.012266538
0.0018028475 -0.019840913 0.004637949 -0.02049152 -0.00906154 0.0066872686 0.0027193923 -0.015480394
0.016742261 0.019967945 -0.0062175803 0.01333107 0.015862975 -0.012746797 0.009104672 0.0031573388
0.0066598123 -0.009332224 0.00980056 -0.0024139516 0.016721409 0.01653076 0.0035063087 -0.010887312
0.005977038 -0.010499109 0.00875778 -0.013984038 -0.0010354039 0.014833832 -0.0023002385 0.008627342
0.01701469 0.019297283 0.0045371507 0.015603816 -0.003257687 -0.0017630891 0.00990939 0.018385764
-0.01312733 -0.0020550636 0.011657009 0.013173976 -0.01776975 0.017406628 -8.339129e-05 0.00767966
-0.0058777984 -0.016854247 -0.0052684415 -0.0041576554 0.0073701404 -0.006488175 0.0044883443 -0.003941163
0.008987577 0.005033572 0.016263144 -0.014616836 0.0011097614 0.00044608983 0.017664196 0.00021085449

transformer_encoder.layers.0.self_attn.in_proj_weight f4 [192, 64]
00000000: d875 d23c 54f0 9d3c f72e 17be 271e c83d
00000010: bffb 7ebd 6ed3 e93d 706d 113e f09e f93d
00000020: 70b4 58bd f0a1 153e e540 b2bd a41a 6f3d
00000030: 10ce c03d 4fa7 93bd cc6c 113e c7f2 c33d
00000040: b052 a8bd 722b e3bc de82 a93d b285 b3bc
00000050: be3a 8dbd fa9a 443d 53ca ac3d 653f 223d
00000060: caf2 14be d717 293c 41fb d93c 22cd efbd
00000070: f188 ebbd 9ec6 443d bf6a d8bd fdeb b23a
00000080: d525 18be 4dba 9a3d a816 01bd 5cff 9dbd
00000090: 0d29 f2bc 7f6b d4bd 19d1 0e3e 5bf2 3ebd
000000a0: cdc9 043e ab0e 29bd 6060 90bd 5d7d d33d
000000b0: d8cd ed3d 48d5 823d 1397 453d 0e9f 1c3d
000000c0: 7b73 92bd c212 083c 04e3 9a3d ab8d 193c
000000d0: 904f 053e 447e 9d3d d2e4 d13d 5950 593c
000000e0: ddf1 06be 0473 b83d 28e9 e4bc ef4f 883d
000000f0: 7051 a03d ecd3 edbd de7b 36bc 1d58 34bc
00000100: 2201 a63d 3097 19be 3a46 d0bd fe4d 403d
00000110: bdc2 1abe e94f cb3c 8c23 06bd ec72 893d
00000120: 6224 8dbd a45e 233d 8463 b4bc 4874 cbbd
00000130: dd7e 8a3d 7b03 e4bd 74fe 943c 8f47 5c3d
00000140: 0a83 bbbd 5b81 73bd 4e61 0c3e 519a 6bbd
00000150: 4326 163e b6ba 53bc 6f2d 92bd 63a1 1ebd
00000160: 6b02 3c3c bfed d8bd b082 1d3c 3e02 9d3d
00000170: 1bf8 20bc f0a7 10be 8c0b f83c 57ce bebd
00000180: 94f2 fd3d 3341 f13d cefc 49bd fd66 d4bd
00000190: d403 afbc e20b 02be 5c69 90bd 4158 323d
000001a0: 4126 8b3d e69c 5e3c c7b9 07be 1830 cc3d
000001b0: 4c5f 353d 86fb 5bbc 3434 16be d66c fc3d
000001c0: 55cf a0bd 2d87 0dbe b4c8 05be f9a2 b3bd
000001d0: 2493 b5bd 79ca 193d d004 cebd 8361 06be
000001e0: 3e62 223d d4a1 9c3d d6b9 bd3d 54a4 9cbd
000001f0: 60e1 febd 143d b6bd 74a6 973d c8aa 11be
00000200: 6b68 3fbd 4836 87bd 95b7 7abd 5270 123d
00000210: 7542 d63d 2bb9 fbbd a863 b83d 258b 503d
00000220: 7646 f73d 3a83 c4bd c9df 36bc c4ec 73bc
00000230: 571f a23d 9ad8 153e 5b66 133d 347f d93c
00000240: f0a1 de3c 4223 163e 6f0b 813d 1b3d 5ebb
00000250: 9c3f ecbd 5917 e73d 4411 da3b a679 b0bd
00000260: 8e1a 11be 12cd 82bd e6a3 8a3d 3206 d0bd
00000270: a1d5 1b3e c008 0d3d 763b 95bd 29c5 79bc
00000280: 01f6 a1bd 75ee 0dbe 3069 b33b 6b15 b5bd
00000290: 93d4 86bc 1c8a 493b 2d33 8ebd 837f 603d
000002a0: c33b e83a f39c b33c f9b1 adbc fd09 df3d
000002b0: d672 513d b75e 533c 6a1d 98bd 7a3d 89bc
000002c0: f8b9 17bc 2cd2 90bd 9cfe 10be 7e93 083e
000002d0: d17b 803c b85d 8e3d 5514 033e 7d5e 113b
000002e0: c42a 0b3e e26e 9e3d 0cf2 b33d 2b2f dcbd
000002f0: dffa 2b3d ac27 d1bd ff94 733d a989 86bd
00000300: 5c97 e73d 389c 863d 7c68 d6bd e7c7 9dbd
00000310: 53bd 43bd 0ff0 08be 2cf1 86bd f718 80bd
00000320: 982e 683d d7d9 e93d f6c5 c43d 025b c3bd
00000330: b6ec e33d 1176 a93d e969 c83d 831f 1b3b
00000340: 0b4e 0bbc 3035 a9bd 18ca 88bd cadf 30bd
00000350: 12ba d5bd 3bfd 1abe ae28 c3bd da14 70bd
00000360: 9c92 8ebd 2789 b93d c95d 0abe 9233 05be
00000370: 74f9 41bd 45c8 623d c3b3 18bd db03 b33d
00000380: 0862 a63d 992d fd3d 5b7c f9bd 0ebd b4bd
00000390: 74ca af3d b76e aabd 0c64 b73c 2163 053e
000003a0: 57db f93c 0861 e03d 61e1 00be c31e b8bd
000003b0: 20c2 9abd f749 93ba c458 debd 65d7 e6bd
000003c0: 3f61 14bc 36c0 dd3d 6961 8bbb d112 ea3c
000003d0: a1fc be3d cb35 7dbd b32c ecbd 6b26 e93d
000003e0: 7023 8c3d 5512 23bd 9e45 0f3e b23c 2bbc
000003f0: ca2f b6bb cbfd 913d 18f6 0ebe 1bd0 153e
0.025690958 0.019279636 -0.1476401 0.09771376 -0.062251803 0.1141728 0.14201903 0.12188518
-0.052906454 0.14612556 -0.08703784 0.058375016 0.09414303 -0.07209646 0.14201659 0.095677905
-0.082188964 -0.027730677 0.08276914 -0.021914337 -0.0689597 0.04799936 0.08437028 0.03961124
-0.14545742 0.010320625 0.026609065 -0.11709048 -0.11500729 0.04804098 -0.10567235 0.0013650652
-0.14858182 0.07555065 -0.031515747 -0.077147216 -0.02956059 -0.10372066 0.13946952 -0.046617847
0.12967606 -0.041273754 -0.07049632 0.103266455 0.11611527 0.063883364 0.04823978 0.038237624
-0.071509324 0.008305253 0.07562831 0.009372155 0.13018632 0.07690099 0.10248722 0.013263785
-0.13178201 0.090063125 -0.027943209 0.06655871 0.07828033 -0.116126865 -0.011137931 -0.011007336
0.08105685 -0.1499908 -0.10169645 0.04694938 -0.1511335 0.024818378 -0.032748744 0.06711373
-0.06891705 0.03988518 -0.022020109 -0.09934288 0.067624785 -0.11133476 0.018187739 0.05377918
-0.09155853 -0.059449535 0.13708994 -0.057520214 0.14663033 -0.012922933 -0.07137572 -0.03872813
0.011475186 -0.105922215 0.009613678 0.07666443 -0.009824778 -0.14126563 0.030278943 -0.093167
0.12399784 0.11780014 -0.04931336 -0.10371206 -0.02136413 -0.12699845 -0.07051346 0.043541197
0.06794406 0.013587212 -0.13254462 0.09970111 0.044280335 -0.013426667 -0.14668351 0.12325446
-0.078520454 -0.13821097 -0.13064843 -0.08771319 -0.088659555 0.03754661 -0.10059512 -0.13123135
0.039644472 0.07648054 0.09263961 -0.076485306 -0.124453306 -0.088983685 0.07404795 -0.14225304
-0.04673044 -0.0660215 -0.061210234 0.03575165 0.104618944 -0.12291177 0.09003383 0.05091395
0.12073986 -0.09595342 -0.011161753 -0.014887992 0.07916134 0.14633408 0.035986286 0.026549913
0.027176827 0.14661887 0.06301009 -0.0033910933 -0.1153557 0.1128375 0.0066548903 -0.086169526
-0.14170286 -0.0638677 0.067695424 -0.10157432 0.15218212 0.034432173 -0.07286732 -0.015244761
-0.0790825 -0.13860495 0.005475186 -0.08841976 -0.016458785 0.0030752486 -0.06943355 0.054809105
0.0017718006 0.021925425 -0.021203028 0.10890577 0.051134907 0.012901 -0.07427485 -0.016752947
-0.009260647 -0.07071337 -0.14159626 0.13337514 0.01568404 0.06951469 0.12800725 0.0022181564
0.13590533 0.07735993 0.08786401 -0.10751184 0.041987296 -0.10212645 0.059468266 -0.06569225
0.113081664 0.06572765 -0.104691476 -0.07704144 -0.047787976 -0.13372825 -0.06588969 -0.06254762
0.05668506 0.11418503 0.096080706 -0.09538843 0.111291334 0.082744725 0.09785826 0.0023669905
-0.008502494 -0.08262098 -0.06679171 -0.043182172 -0.10435881 -0.15135662 -0.095292434 -0.058613636
-0.06961557 0.09059363 -0.13512339 -0.13007954 -0.047357038 0.055366773 -0.03728081 0.0874097
0.08124167 0.12362213 -0.12181922 -0.08825122 0.08583537 -0.083218984 0.022386573 0.13026096
0.030500097 0.10956007 -0.12585975 -0.08990242 -0.07556558 -0.0011237253 -0.108567744 -0.11271552
-0.009056388 0.10827677 -0.0042535556 0.028573425 0.09325529 -0.06181888 -0.11531963 0.11384281
0.06842697 -0.039812405 0.139914 -0.010451483 -0.005559896 0.07128485 -0.13961065 0.14630167

transformer_encoder.layers.0.self_attn.in_proj_bias f4 [192]
00000000: bcc7 61ba a3b2 803a 4e62 863a 7f59 eb3a
00000010: 6a56 bab9 9928 7dba d66d 8d3a 3f35 7aba
00000020: dff2 47ba 62a8 c73a c1a7 af3a 7985 5bba
00000030: c6c8 aeba 6af9 89b9 7581 2639 59e9 9e3a
00000040: 3d29 da3a 404b f4ba 5c83 cf38 986b 85b9
00000050: 4998 233b 6b6f 38ba 5d55 dfb9 d83d 10bb
00000060: 11d5 743a 42fd 043a 7a54 993a bc06 f539
00000070: 3b48 deb9 dbc4 69ba 3833 c139 591a 64ba
00000080: c058 c43a 94f8 b038 efa9 0d3b 30d7 2bbb
00000090: e1b6 9fb9 6ecb 5dba 9ee0 1c3b ccc6 8bb8
000000a0: b10e fd3a 9bb8 b7ba 7fc9 67bb bf79 3139
000000b0: b790 1d3b cf72 c9ba 2fb3 a8b7 2074 09bb
000000c0: 4d64 e1ba 19d9 7a3b bbd0 ffba 9be2 ebba
000000d0: 3499 3439 86d5 9cba f78e 333b 7683 40b8
000000e0: ba82 573a f501 f73a 34e1 0a3b 18d2 f5b9
000000f0: 52e0 9f3a 92ee ee3a 6e8c 303a 3e7f 17bb
00000100: 5333 c636 7dd5 4d37 b0d8 70b7 adcb 4638
00000110: b5ec bb37 febb 6bb8 8680 3bb7 1314 5bb6
00000120: 6971 3d38 8899 9938 9a36 0eb6 dca7 0a38
00000130: 3088 7138 3b0b a8b8 2794 f3b8 0519 0638
00000140: c6d1 67b8 0ac4 8cb8 9b49 4538 34e1 34b8
00000150: fd06 4d37 4144 b238 f0fb 8038 b76f b3b7
00000160: 3d2d c237 8fc8 7bb8 7033 1838 aa7b 4e38
00000170: bb51 9237 2193 88b8 169d 96b7 3685 e2b7
00000180: c596 cb37 84df 84b7 25b6 2037 ae43 4537
00000190: 5e81 3ab6 54f4 54b8 b0f8 a837 eff0 bfb5
000001a0: 9149 bbb7 4c6d 8e37 3c10 1cb8 eb89 18b5
000001b0: 722d 64b8 2582 5a38 f8a2 34b6 bb4d 3bb8
000001c0: 1c7e ddb7 4cf4 a7b8 5738 bbb7 2a4f d838
000001d0: 9f98 bfb7 3569 82b8 43bb 2638 6f39 99b8
000001e0: 4970 a537 6fa1 c037 c301 4a38 a45e 9db8
000001f0: 2c2a 68b5 3bc9 e737 0c29 5cb8 af35 9336
00000200: 389a 30ba 8f17 ed3a 37b7 693b 43aa 433a
00000210: 1779 9cb9 b7e3 76ba 6068 0fbb 2daa 09bb
00000220: 12bf 0e3a b6b9 8dba 1a2f ae3a d37f 3e3b
00000230: 6468 b8b9 6aec f1ba 1e73 25ba 7dd5 87ba
00000240: cb06 3c39 ca1e 54b9 5e20 5cbb 35da 2fba
00000250: 79b8 d3b8 2936 423b 7716 43bb 0558 9ab8
00000260: 3d22 333b 0ded 563a 56fd 27b9 71dc bab9
00000270: 27cf b339 2402 45b9 9ba2 883a 5876 9a39
00000280: fc4a b23a 3eda 5fb9 50a3 f1b7 9d0e b7ba
00000290: a63e 533a c065 d53a 8a84 39ba 55db a2b9
000002a0: fae5 0339 ce91 1b3b b287 1a39 0a64 243b
000002b0: 32f3 053b 30b3 6eb8 5962 02b9 d177 d63a
000002c0: f3b6 beba 31fe 013a f1d7 a0b7 d3b0 b73a
000002d0: f1c9 213a cc7e fdb9 c94f 493a ec60 903a
000002e0: 03fa 59ba 2c76 71b9 33f4 cb3a 2fde 77ba
000002f0: 2706 fbb8 a08b 24bb 393d de3a 8fde 14bb
-0.00086128316 0.0009818863 0.0010252686 0.0017955749 -0.00035541068 -0.00096572336 0.001079018 -0.00095446775
-0.0007627438 0.0015232677 0.0013401435 -0.0008374076 -0.0013334982 -0.00026316504 0.0001587922 0.0012123986
0.001664437 -0.0018638149 9.894997e-05 -0.000254479 0.0024962595 -0.00070356455 -0.00042597475 -0.0022009518
0.00093396107 0.0005073139 0.001169815 0.0004673506 -0.00042396956 -0.00089175784 0.0003684999 -0.0008701436
0.0014980063 8.438635e-05 0.002161618 -0.002622079 -0.000304631 -0.00084607943 0.0023937593 -6.665065e-05
0.0019306747 -0.0014016809 -0.0035367904 0.0001692539 0.0024042556 -0.0015369299 -2.01106e-05 -0.0020973757
-0.001719603 0.0038276373 -0.0019517163 -0.0017996611 0.0001722321 -0.001196549 0.0027398446 -4.58988e-05
0.0008221079 0.0018845188 0.002119136 -0.00046886574 0.001219759 0.0018229058 0.0006734793 -0.0023116614
5.9068348e-06 1.2268659e-05 -1.4355566e-05 4.7396567e-05 2.2402362e-05 -5.6203447e-05 -1.1175993e-05 -3.2645228e-06
4.5166733e-05 7.324206e-05 -2.1191431e-06 3.3058095e-05 5.7585712e-05 -8.012956e-05 -0.000116147385 3.197139e-05
-5.527006e-05 -6.712235e-05 4.703701e-05 -4.312508e-05 1.2220579e-05 8.500415e-05 6.150443e-05 -2.1390484e-05
2.3147668e-05 -6.0029848e-05 3.628753e-05 4.92294e-05 1.7442615e-05 -6.51239e-05 -1.7954542e-05 -2.700333e-05
2.4269693e-05 -1.5839709e-05 9.579152e-06 1.1757873e-05 -2.7791461e-06 -5.0772287e-05 2.0142965e-05 -1.430073e-06
-2.2326394e-05 1.6978614e-05 -3.7208418e-05 -5.682511e-07 -5.440176e-05 5.2096457e-05 -2.691695e-06 -4.4656666e-05
-2.6403977e-05 -8.0086844e-05 -2.2318372e-05 0.00010314428 -2.2840044e-05 -6.2184794e-05 3.9751885e-05 -7.306306e-05
1.972182e-05 2.2963357e-05 4.8162194e-05 -7.5039716e-05 -8.6488103e-07 2.7631051e-05 -5.2490315e-05 4.387191e-06
-0.00067368476 0.0018088686 0.0035662183 0.00074640306 -0.00029844858 -0.00094180874 -0.002188228 -0.0021005974
0.0005445342 -0.0010812792 0.0013289184 0.0029067888 -0.00035172992 -0.0018457298 -0.0006311404 -0.0010363307
0.00017931608 -0.00020229365 -0.0033588628 -0.00067082356 -0.00010095625 0.0029634333 -0.0029768029 -7.359687e-05
0.002733364 0.00081987755 -0.00016020736 -0.00035640926 0.0003429588 -0.00018788181 0.0010424437 0.00029461342
0.0013602669 -0.00021348239 -2.8805487e-05 -0.0013966147 0.00080583466 0.0016280934 -0.000707694 -0.00031062463
0.00012578806 0.002373803 0.00014737135 0.0025084042 0.0020439145 -5.6910503e-05 -0.00012434403 0.0016362612
-0.0014550373 0.0004958837 -1.9174042e-05 0.001401449 0.0006171754 -0.0004835039 0.00076794304 0.0011015213
-0.0008315148 -0.00023027573 0.0015560448 -0.000945541 -0.000119697586 -0.0025107637 0.0016955502 -0.0022715663

transformer_encoder.layers.0.self_attn.out_proj.weight f4 [64, 64]
00000000: c193 323d baae cd3d 862e 00bd 7909 c83d
00000010: c943 01be 84d4 85bd ab58 833d 3332 da3d
00000020: f3be 19bc 76eb cd3d 7112 173d fff1 92bd
00000030: 5c8c 13b9 2afe c2bd b6f7 e33d 8f82 11bd
00000040: f8cc 693d 6dcc bdbd 3a05 213d 587d f63b
00000050: 8ebe df3d 627f 17bc 1cd8 9d3d 8b99 4cbc
00000060: 0b42 f13d 005b 9abd 20ab f63c 6908 43bd
00000070: 3768 643d 371a f7bc 8527 a73c 8d81 bdbc
00000080: 4eed ed3d 775c 033c 93ab 75bc 3c0e 3ebd
00000090: 513e 06bd 7109 0f3d 4463 d0bd c8e0 9ebd
000000a0: 457f 5bbd 0122 b1bd eee3 74bc 0352 cf3d
000000b0: fe20 9e3d 944f 86bd b7b1 1bbc 0abe 9f3c
000000c0: 48e5 ecbd 386c 22bd 7118 313c 97c0 e2bd
000000d0: 146e d7bd 8011 9fbd e979 c83d 48cd b33d
000000e0: a94e bfbd 4066 5e3c ad58 c5bd 0609 8d3d
000000f0: 37fb 68bd e66d 6c3d 14cc a73b e2a6 cd3d
00000100: 9e83 b7bc 5d28 a0bd 4e3e c53d 3030 ab3d
00000110: 8381 e3bc 5d9f 07bd de9a 0cbb a995 35bd
00000120: d079 a0bd 9e45 873c 6354 e43d 2a0e eb3d
00000130: 10e6 f53c 5a4a e4bd 77ba 86bd 9b35 1b3d
00000140: 5cc6 b7bd 7e85 b53c f14e e5bd 45f6 6dbc
00000150: 1c3a c5ba 6743 b33d e40f a23c a72a 8cbd
00000160: 0511 5a3d ae23 b93d 5f38 fdbd 42cb 683d
00000170: 405a 4b3d 2754 a53d 546d a5bc 843c d13d
00000180: e5e0 32bd fa95 163d 2520 bbbd c2ca 503d
00000190: f8a0 fd3c bc10 d6bc 41d4 f83d 9bef 32bd
000001a0: 3a3e 993c 660a e63d 7b8d c0bd 22c0 573d
000001b0: 23e8 f83d 0f80 213d 7e21 bdbd 1c9d f83d
000001c0: fcb2 f6bc a2b1 6a3d fde2 173c 2c16 ab3d
000001d0: 0c7b 103b 78d1 b3bd a05d 053c 1a92 c53d
000001e0: 4720 a9bd 5118 abbd 29da 9d3c 52d1 bf3d
000001f0: 8271 e23b 8a3b 91bd 4bbb ce3d 2688 f1bd
00000200: 39ff c33d 2882 c63d 13f4 5a3d 0a3d f6bd
00000210: 4702 d6bd b616 073d 8765 f0bd 2840 74bd
00000220: c8dc 61bd 8ccd ed3d 216b 113d a267 913c
00000230: 96f8 a6bd 615e 333c fa03 3fbc 1a93 bd3d
00000240: ebb8 4dbd b238 b53d 7bb8 c7bd e140 e93c
00000250: dda1 fdbc 3ee2 2dbd 14a3 8bbc 93f5 d2bd
00000260: b07f 443d bebe 8bbd 7bdd 8b3c 848c 02bd
00000270: 6643 403d 9d17 913c 61c3 9cbd 6f0a dd3d
00000280: e4b6 32bd 9818 abbd 3173 803d bf7b c0bd
00000290: b723 d638 94b9 74ba 46f5 213d a236 f3bd
000002a0: 07fb 693c 5018 a43c 1654 e53d 783e 07bd
000002b0: 799d d63d 7c0f 89bd 4183 93bd 7464 e53d
000002c0: 474f 0c3d a0a6 943d 8d77 f2bd 4f11 4bbd
000002d0: c0e3 d9bd c2ef c3bd b16a d63d 7785 fbbd
000002e0: e753 e63c 3e8d e1bd d5a2 b4bc 2ab5 f4bd
000002f0: 4e26 153d 106d c03c b9e9 923d a0bf f73d
00000300: ef9f 793d ef89 373d aa11 97bd 56fd fc3d
00000310: 7d19 8ebd 17c8 a8bd cec8 393b 391d c2bd
00000320: f093 f0bd d1d8 c1bc 756c a33c 926f ecbc
00000330: 85c7 ab3d 9705 f5bd a6fb 133d 6e82 833d
00000340: 8e59 233c 8081 8cbd 6291 2fbd 4f12 36bc
00000350: c323 dd3c 9f8e 7c3c e4ee 2b3d 33ba ed3d
00000360: a6c2 97bd cdf9 ddbd 063d f2bc eead 593c
00000370: 4960 9cbb 824d 2a3b 1c6b aabd de0f f7bd
00000380: 2b4e cd3d ea35 54bd 1dd6 e13c 9d9f aabd
00000390: 4592 1e3d 01bb bfbc 3721 f7bd eb9c c0bb
000003a0: 3ec7 f5bd 87a8 9f3d ed32 e93d 6568 c83b
000003b0: af6f 573d 6a61 623d e927 d3bd 2499 1bbc
000003c0: 9401 9dbd 2cf6 8a3d 28d3 67bc 2606 8abc
000003d0: c67f 98bd cb4b f33d d880 d13d 92fe cbbd
000003e0: 4250 b23d c2f6 233d bb1f b2bd c075 eb3d
000003f0: 6ff8 543d e9cb 12bd ffdf bf3b de10 5bbd
0.04359794 0.10043092 -0.03129437 0.09767432 -0.12623514 -0.06534675 0.064133964 0.10654106
-0.009383905 0.10054676 0.03688282 -0.07175063 -0.000140713 -0.09521134 0.111312315 -0.0355249
0.05708024 -0.09267507 0.039311625 0.0075222664 0.10925017 -0.009246679 0.07707235 -0.012487779
0.11780175 -0.07536888 0.030110896 -0.047615442 0.05576345 -0.030163867 0.020404587 -0.023133064
0.11617528 0.008017651 -0.01499452 -0.046400294 -0.032774273 0.034921113 -0.101751834 -0.07757717
-0.05358817 -0.08649064 -0.014946921 0.10123064 0.077211365 -0.06558147 -0.00950282 0.019499797
-0.115671694 -0.039653987 0.01080905 -0.1107189 -0.105190426 -0.0776701 0.097888775 0.08779389
-0.09341175 0.013574183 -0.09636054 0.06886487 -0.056880202 0.057721995 0.0051207636 0.10041596
-0.022401627 -0.07820199 0.09631024 0.083588004 -0.027771717 -0.033110965 -0.0021454613 -0.04433218
-0.07835734 0.016512688 0.11148908 0.11477311 0.030016929 -0.11146994 -0.06578534 0.03789292
-0.08973381 0.02215838 -0.111966975 -0.014524047 -0.0015047225 0.0875309 0.019782968 -0.06844073
0.053238887 0.090400085 -0.123642676 0.056834467 0.049646616 0.080726914 -0.020193733 0.102166206
-0.043671507 0.036764123 -0.091369905 0.050974615 0.030960545 -0.026131026 0.12149859 -0.043685537
0.01870643 0.11232452 -0.09401985 0.052673467 0.121536516 0.039428767 -0.09234904 0.12139341
-0.030114643 0.05729831 0.009270427 0.08353838 0.0022045998 -0.08780187 0.008139998 0.09647007
-0.082581095 -0.08354247 0.019269066 0.093660966 0.006910504 -0.07091434 0.10094317 -0.117935464
0.09570164 0.09692794 0.053455424 -0.12023361 -0.10449653 0.032980643 -0.11738115 -0.059631497
-0.055142194 0.116114706 0.035502557 0.017749611 -0.08152883 0.010947795 -0.011658663 0.09256573
-0.05022518 0.088487044 -0.09751984 0.02847332 -0.030960971 -0.04245209 -0.017045535 -0.10300746
0.047973335 -0.068234906 0.017073384 -0.031872287 0.046939276 0.017711455 -0.07654453 0.10793006
-0.04363145 -0.083543 0.06271971 -0.09398603 0.000102109676 -0.00093355146 0.03954055 -0.11875655
0.014281041 0.020031124 0.11197679 -0.03301856 0.10479254 -0.066924065 -0.07202769 0.112008005
0.034255292 0.07258344 -0.11839209 -0.049577054 -0.10639143 -0.095672145 0.104695685 -0.12281316
0.02811618 -0.11013268 -0.0220503 -0.11948617 0.036413483 0.023489505 0.07173485 0.120970964
0.06094354 0.044809278 -0.07376416 0.123530075 -0.06938455 -0.08241289 0.0028348449 -0.0947823
-0.11746967 -0.023662956 0.019949177 -0.028861795 0.08387665 -0.11963957 0.036128663 0.06421362
0.009970082 -0.06860638 -0.042863257 -0.011112764 0.026994592 0.015414863 0.04197587 0.1160778
-0.07410173 -0.10838661 -0.029570114 0.013286097 -0.0047722203 0.002598614 -0.08321211 -0.12063573
0.10024675 -0.05180923 0.027567917 -0.08331225 0.038713712 -0.0234046 -0.12066882 -0.005878081
-0.12000893 0.07795816 0.113866664 0.0061159604 0.052596744 0.055268683 -0.10310347 -0.009496961
-0.07666317 0.06785235 -0.014149465 -0.016848635 -0.07446246 0.11879691 0.10229653 -0.09960665
0.08706714 0.04003025 -0.08697458 0.114970684 0.051994737 -0.035838995 0.00585556 -0.053482883

transformer_encoder.layers.0.self_attn.out_proj.bias f4 [64]
00000000: 2c1f 383a 7eae 633b 9dc1 933a 8e3c acba
00000010: 3556 2bba 7e41 08ba 286e d7ba 92f8 afba
00000020: 2c2b 833b b1c6 a73a 9ce2 c6b9 04cf 8c3a
00000030: c8ef 4f39 b4f7 bdb9 741a 1ebb fbff 943a
00000040: e4d7 243b 1537 103b f4c4 f539 20e3 9239
00000050: ae0e 323a 0b1f 323b 59c2 c33a 6ccb 023b
00000060: fc1d 313a da3d 653a f2f2 3b3a c0e2 6bbb
00000070: 769e 0abb c0ea ff37 e366 2fba 4d5d e2b8
00000080: a97f 59ba 182c f13a 70ed c538 5f2a 513a
00000090: 4d35 30bb ffda c037 159b 7d3a 06c2 6a3b
000000a0: 94e6 cbba 35ee 98ba 041a 3abb c2d3 d33a
000000b0: 911e dbba 1da6 f83a 8b04 e3ba 79e2 1239
000000c0: 7fa3 a1ba a014 beba 6a86 00bb c70c f6b9
000000d0: 4f55 7a39 7e13 16ba 034b b139 7607 d4ba
000000e0: bb66 4eb8 7853 e739 9acd d5ba 69d6 09bb
000000f0: 24f2 ab3a 939b f93a 7087 84ba c47b 353b
0.0007023688 0.0034741457 0.0011272911 -0.0013140605 -0.0006535978 -0.00051977474 -0.0016436027 -0.001342552
0.004002949 0.0012800304 -0.0003793434 0.0010742848 0.00019830384 -0.00036233442 -0.0024124654 0.0011367792
0.0025153095 0.0022005488 0.00046876783 0.0002801651 0.00067923486 0.0027179148 0.001493524 0.0019957675
0.0006756482 0.00087448733 0.00071696856 -0.0035993308 -0.002115158 3.0507683e-05 -0.00066910515 -0.000107938984
-0.0008296916 0.0018399982 9.437918e-05 0.0007979031 -0.0026887238 2.2990162e-05 0.0009674293 0.0035821213
-0.0015556389 -0.0011667671 -0.0028396854 0.0016161131 -0.0016717484 0.0018970404 -0.001732008 0.00014008013
-0.0012332051 -0.0014501996 -0.0019611367 -0.00046930296 0.00023873638 -0.00057249505 0.0003381596 -0.001617654
-4.9209902e-05 0.00044121942 -0.0016311884 -0.002103234 0.0013118428 0.0019043557 -0.0010111164 0.0027692178

transformer_encoder.layers.0.linear1.weight f4 [256, 64]
00000000: a426 053d a5e1 e73d 83a8 abbd d50e ab3c
00000010: 7b51 023c 81d2 d4bd 0557 cc3d 4ebe bb3d
00000020: 3e55 a8bd 6b71 be3d 1e96 ea3d d700 803d
00000030: 0199 42bd 21da 8cbc a009 5a3d 7f8f e3bd
00000040: 97a4 1fbd b98c 033d 730c e0bd b018 d6bc
00000050: de53 a33d 4aba d1bd 218f f03d ff93 9d3d
00000060: 18e9 a23c fb22 f9bd f8a0 77bb 6162 d63d
00000070: ae0a 5dbd f098 5c3b 1c81 d2bc cdfa d63d
00000080: dfdb 36bc efae 53bd 46fd c03c b6bd dcbd
00000090: 4dd9 ad3d 362e e1bc a289 033d 4d8f 1f3d
000000a0: 5975 9cbc 7aa4 1f3d 3d72 fcbd ea94 f43d
000000b0: c5d4 d3bd 26e7 5b3c 082b 623d b66d bb3d
000000c0: 9914 743d 91d8 8e3d e074 f13d fe9c 783d
000000d0: e386 843d ce35 dcbd 388c 4fbd eea5 f63d
000000e0: 6d85 91bd 3a22 f13d e05f 953b 20a2 9a3d
000000f0: ac76 bd3c 70bc 97bd 87c7 913d 338b 233d
00000100: fd21 c23d 6cc1 e5bd 986c 4a3d 8023 bdbc
00000110: 3555 483d ba23 38bd 33da a2bb 5b77 8dbd
00000120: b671 cfbd 7341 21bd 71d1 dbbd be1a 88bc
00000130: 16b3 793d 703f a03d a296 9a3d 1b99 8abd
00000140: 34a9 d2bd 80a4 493d aa4a b0bd 5b4d 863c
00000150: 03de 563d 5055 ec3d 8174 3bbd eadf 82bd
00000160: 5bc2 7f3d 86a5 853d 599b 6ebd 471e b83d
00000170: cdc6 a93d b622 d8bd 9062 193d 43bb edbc
00000180: d0b3 693d 6f63 edbd ae48 713d 9507 9dbd
00000190: bf04 853c b5a3 f93b 9f27 b4bd 07cd 27bd
000001a0: 17ba e9bc ada0 0dbc 9260 a0bd e8ec afbc
000001b0: 05af a5bb bdbd 813d 5000 0fbd ca58 ca3d
000001c0: 05e7 d43d 98ee 97bd c5cf e03c ed3a 00bd
000001d0: 6226 81bd 0ddc d9bd f6ae b4bc 0923 eabd
000001e0: bbdd e2bc 84ee ab3d aedd eebd e410 923c
000001f0: 10f9 613d cb9b 8c3d 2054 c3bd 1fdc 8cbc
00000200: 917c 8fbd 06a6 51bc 32e2 6abd 15c0 a9bc
00000210: 4449 25bc 4ad2 d13d 56c9 f8bd 594e b63d
00000220: 7a5f bc3d f7ea f03c 6769 c93d e886 333d
00000230: ef25 0b3d 767e 6cbd c74b 9cbd 9c9a 903c
00000240: 1e19 f43c 2f3e 69bd 4494 b8bd 83ac a1bd
00000250: 3f47 f03d c482 f73d 8299 ac3d 1b67 253d
00000260: 1d2b c13d 53b4 a4bd c3da cdbc 4931 153d
00000270: 10d4 90bc d424 fabc 1a04 7dbc 2d4e 383d
00000280: ae75 c53d a096 4dbd 78e1 78bd d811 0fbd
00000290: cbc6 a1bb 4ce5 c43d 5fa2 9f3d 7966 adbd
000002a0: 72d8 8d3d dc55 a1bd 34a9 27bd 9b93 dfbd
000002b0: ba6c f13b 1360 c33d fcd6 91bd 5750 fe3c
000002c0: e5d1 a83d 263c 45bc 022b f63d 981b 083c
000002d0: 031f f43b e257 a4bd fde3 d83d f32b 2fbd
000002e0: 51e8 b5bb 6092 953d 272d fc3d 80eb 9b3b
000002f0: 5403 a2bd 3a08 b83d 236e 91bc 95ea 953d
00000300: 6072 88bb 718d 2c3d 58fe a03d cc33 08bd
00000310: 99f8 17bd 531b eb3d 5086 8f3d 1f6c febb
00000320: 6d39 4c3c d27d b03c 6349 f1bb 68a3 633d
00000330: 4d46 9ebd 416e 2dbd f23b c7bd d6ed 98bd
00000340: 0656 96bd b931 603d 1e16 ad3b b893 9d3c
00000350: df98 eebd d302 ca3d 62b9 d13c 4434 f33c
00000360: 6a09 2bbd f56a 2ebd 3428 213d 7ecf b03d
00000370: 7c6a 9cbd d00c f23d 8ce8 ecb9 9a21 bb3d
00000380: ef45 9e3d 4c5a ca3b b9e8 49bc 491d d5bd
00000390: 1134 5dbd 7ea1 553d 283c 783d 1e50 593d
000003a0: 93cb e73d 0874 b23c 2b47 a13d 82ff 833c
000003b0: 9972 523d 287e 1e3d 4211 72bc e932 00bd
000003c0: 8b87 713d bc5d d63d 4dc0 ed3d 347f e53d
000003d0: 1e5b ccbd 0227 8b3d 521f c2bd 14af b53d
000003e0: e1ca b53d 14b2 b0bd ac38 58bc c060 6abd
000003f0: 1de5 c1bc d886 83bd 172c 603d db48 b2bc
0.032507554 0.11322335 -0.083817504 0.020881096 0.007953997 -0.10391713 0.09977535 0.09167157
-0.08219384 0.092989765 0.11454414 0.0625016 -0.047509197 -0.017193856 0.053231835 -0.11111354
-0.038975324 0.032116625 -0.109398745 -0.026134819 0.07974981 -0.1024061 0.1174605 0.07694244
0.019886538 -0.12164875 -0.0037785154 0.10467983 -0.053965263 0.0033660494 -0.02569633 0.10497055
-0.01116082 -0.0516805 0.02355827 -0.10778372 0.084887125 -0.027487855 0.03211368 0.03895502
-0.019098924 0.038975216 -0.12326477 0.119424656 -0.10343317 0.013421809 0.05521682 0.09151785
0.059589956 0.069749005 0.1178987 0.060696594 0.0647104 -0.1075245 -0.050670832 0.12043367
-0.07105527 0.11774106 0.0045585483 0.07550454 0.023127876 -0.074089885 0.07118135 0.039927673
0.09479139 -0.11218533 0.04941997 -0.023088217 0.048909385 -0.044955947 -0.004969859 -0.06907531
-0.101291105 -0.039369058 -0.10733307 -0.016614314 0.060961805 0.078246 0.07548262 -0.06767484
-0.10286179 0.049229145 -0.08607991 0.016394308 0.05245782 0.115397096 -0.045765404 -0.063903645
0.06244121 0.06525712 -0.05825362 0.0899015 0.08289871 -0.105534956 0.037447512 -0.029019957
0.05705625 -0.11591231 0.058907203 -0.07667462 0.016237615 0.0076183924 -0.087966196 -0.040967014
-0.028531117 -0.008644265 -0.07830919 -0.02147527 -0.0050562643 0.06335018 -0.034912407 0.098802164
0.10395626 -0.07418555 0.027442822 -0.031306196 -0.06306149 -0.106376745 -0.022056084 -0.11432464
-0.02769362 0.083951026 -0.11663376 0.01783032 0.055169165 0.06865653 -0.0953753 -0.017194806
-0.07006181 -0.012795931 -0.057344623 -0.020721475 -0.010088269 0.102451876 -0.12147777 0.089016624
0.09197898 0.029408915 0.09834557 0.04382983 0.033971723 -0.05773779 -0.07631641 0.017651848
0.029797133 -0.05694407 -0.090126544 -0.07894232 0.11732339 0.120854884 0.08427717 0.040381532
0.09432051 -0.080422066 -0.025128728 0.036423955 -0.017679244 -0.03053514 -0.015442872 0.04499643
0.09641586 -0.050192475 -0.0607619 -0.034929127 -0.004937028 0.096140474 0.07794642 -0.08466811
0.06926049 -0.078777045 -0.04093285 -0.109168254 0.0073676975 0.09539809 -0.07121083 0.031044168
0.08243159 -0.012038266 0.12019922 0.00830736 0.007449986 -0.08024575 0.1059036 -0.042766523
-0.005551376 0.073033094 0.123132996 0.0047582984 -0.07910791 0.08985944 -0.017752713 0.073201336
-0.004164025 0.042127077 0.07861012 -0.033252522 -0.037102316 0.11479821 0.0700804 -0.007764354
0.012464863 0.02154437 -0.0073634847 0.05557576 -0.077282526 -0.042341474 -0.097282305 -0.074672386
-0.073406264 0.05473492 0.0052821776 0.019235477 -0.116502516 0.0986382 0.025601093 0.029688008
-0.041757025 -0.04258247 0.03934498 0.08633326 -0.07637498 0.1181885 -0.0004518669 0.09137268
0.077281825 0.006175315 -0.012323552 -0.10405976 -0.054004733 0.052155964 0.060604244 0.05305492
0.113181256 0.021783844 0.07874902 0.016113047 0.05137882 0.03869453 -0.014774622 -0.03129855
0.058967154 0.10467097 0.11608944 0.11205903 -0.09978317 0.067945495 -0.0947863 0.08871284
0.08876587 -0.08627716 -0.013197105 -0.057221174 -0.02366882 -0.06422204 0.054729547 -0.021763256

transformer_encoder.layers.0.linear1.bias f4 [256]
00000000: eabd b33d 444d 93bc f415 e5bb 8b59 c3bd
00000010: 11ee ca3d 5f2d a03d 4031 5dbd 1c40 43bc
00000020: e6f8 3abc 9779 263d a5e4 fe3d df4b e23d
00000030: a093 b0bc eba3 b7bd cee4 8a3c 3126 19bd
00000040: e4e9 a93d 8f01 e43d 01c4 a0bd dd01 a1bd
00000050: 38e9 d8bd 31af ebbd 10ec de3d 78f5 95bd
00000060: 62f2 afbc b66b 253c 8529 cbbd cd12 1e3d
00000070: 952c f33d 3396 aabd 1226 953d 9e7e febc
00000080: da01 f03d 0328 3dbd 54e7 92bd 70e0 f23d
00000090: 3622 53bd e564 543d 070f 00bd b73a 0d3d
000000a0: bf50 df3c 17ee 8dbc ea9d 033e 32b7 d83d
000000b0: 564b c13d 2d73 54bd 7ca9 cd3d 11a0 85bc
000000c0: 176d 8cbd 1a63 3b3c a5f8 e9ba a421 43bd
000000d0: 7209 873c cb76 fdbd 1751 91bd 96f1 23bd
000000e0: d558 da3b a33b fb3d 4da3 09bd 9973 6c3c
000000f0: 83f5 e3bd 71d8 ccbd 2f67 1b3d 863d 63bd
00000100: c095 a93d 86ee 1fbd 6934 a4bc a18c 953d
00000110: 6a3b bb3d 2caa 943d b2dd 3a3d b0ae 9f3c
00000120: 19db fe3d 29c4 a2bd 16e9 c53d 05f8 303d
00000130: de73 bb3d d848 55bd fc18 183d 88f8 e03d
00000140: a4ad e3bd 773e eabd 6c12 833c ba58 023e
00000150: e4ce fdbd eb17 66bd 7a92 23bd 3889 333d
00000160: 604b b3bd e4aa e23c 1521 07bd 296b 9fbd
00000170: 44d3 f5bd f467 c8bd 93b3 2b3d 38a3 e23d
00000180: 42b9 97bd a3b0 17bc 77b2 efbd c436 eabd
00000190: 67ad 853d 5848 b3bd 64aa 813d 7c00 d03d
000001a0: 5637 8b3b b8a6 88bc 90e1 8f3d eaf5 363d
000001b0: 9870 ba3d a5d8 593d 0f5e fb3d 8b58 8dbd
000001c0: 1b46 97bc 1d40 93bd cecb 6b3d ed3b a2bb
000001d0: b490 57bd c0db 943c 0f71 2fbd 249b c53d
000001e0: ad81 55bd b5fd b33d e2e8 003e d15a fc3d
000001f0: 03a7 2cbd 41bd 21bd 205f 9ebc 37d4 8f3b
00000200: a5d1 c4bd 615a d53d c86f 0e3c 2955 ec3d
00000210: b6c4 1fbd 64ec 503d ea64 03be b4cb 873d
00000220: 2363 b93b 1d74 94bd 00c9 e4bd b86e d63d
00000230: 8bfd ecbd 7b4d 78bc 5d35 1c3d 8c95 d03c
00000240: 850a e7bd 5677 d2bd d59b dbbc 447d d8bd
00000250: 3c00 bbbd af46 cfbd 1b35 af3d 6cf5 a83d
00000260: 2a8a 3bbd eec1 09bd ebe1 fe3c 45fd 023d
00000270: c1f3 323d eda4 bb3d f58f c23d d638 80bd
00000280: 1db8 743d 8b09 223d b4b6 cfbd f362 8e3d
00000290: c5f1 c5bd f20b 1bbd d953 fa3d 5ebc 17bd
000002a0: ba47 f33c 513e d7bd e755 813d c7b7 f3bd
000002b0: 38eb 643d 9caf d5bd 7704 b83d c373 a33d
000002c0: 8026 4dbd 2ae7 da3d db4a 10bc e114 d83d
000002d0: 694c 44bd 83ce 17bd 0b0c c1bd 6b83 ae3c
000002e0: e557 e2bc 9ed0 66bd 5555 e93d 5620 87bd
000002f0: 8ad2 4abd 7de1 dabc bbed 94bd 0d3b d7bd
00000300: 0a26 ea3d 272f ed3d fd45 943d 2c82 29bd
00000310: 2858 8c3d 68ac a53d 0c5a a4bd 5ecc 89bd
00000320: e0d9 183d ebca c63c 6b31 d9bc 1100 f7bd
00000330: b246 13bc 65c5 7a3d 8887 a6bd 944c 7d3d
00000340: 2d50 933c b2e9 e53d fccf f6bd a5c2 1dbd
00000350: 2238 46bd 3fb6 6bbd 640c fb3d 8f2c 413d
00000360: 8a3f 083d 94e1 bfbc 905b 60bd 1ef4 a13c
00000370: 5826 703d d9c9 053d f0a4 913d 792a 78bb
00000380: 4eff 933d b866 01be 70b4 1fbd 565f ee3d
00000390: ea9a a8bd 7fd8 753d 97a1 57bd b5d9 6cbd
000003a0: 9402 423c 0871 a63d 5a81 2c3d 5044 86bd
000003b0: 09f9 96bd 43c8 6abd 4b28 95bc 1cd9 003e
000003c0: 790b 4a3d 35f2 8cbd 11eb 94bd 6071 c23c
000003d0: 267c 2bbd 4b7e a63d ffe5 013e 666f 00bd
000003e0: 9463 febd 7dba 603d eb7d afbd 0183 de3d
000003f0: 3c1c 863d be87 ac3d b55c 603d 8cea ed3d
0.087764576 -0.017981179 -0.0069911424 -0.09538563 0.09908689 0.07821154 -0.054002047 -0.01191714
-0.011411881 0.0406433 0.12445954 0.110496275 -0.021554768 -0.08966812 0.016954806 -0.037389938
0.08296564 0.1113311 -0.07849885 -0.078616835 -0.10591358 -0.115080245 0.10884869 -0.0732221
-0.021477882 0.010096481 -0.099200286 0.03859215 0.11873738 -0.083294295 0.07282652 -0.031066235
0.11719103 -0.046180736 -0.071730286 0.11859214 -0.051546298 0.051854033 -0.03126433 0.034479823
0.027260182 -0.017325444 0.12853208 0.10581817 0.09438197 -0.051867653 0.10042092 -0.016311677
-0.06856745 0.011437202 -0.0017850591 -0.047639504 0.016483996 -0.123761736 -0.07095545 -0.040025316
0.0066634216 0.12267234 -0.033603 0.0144318575 -0.11130812 -0.100022204 0.0379402 -0.055478595
0.08280516 -0.039045833 -0.020044522 0.073022135 0.09142192 0.0725902 0.04562158 0.019492477
0.12444133 -0.07947571 0.09663598 0.04320528 0.09152959 -0.052071422 0.037133202 0.109849036
-0.11117104 -0.114376955 0.015999995 0.12729159 -0.12392977 -0.056175154 -0.039934613 0.043832034
-0.08754611 0.027669378 -0.032990534 -0.07784111 -0.12003186 -0.097854525 0.041919302 0.11066288
-0.07408382 -0.009258422 -0.11703961 -0.11436227 0.065272145 -0.08754033 0.063313276 0.101563424
0.00424854 -0.01668106 0.070254445 0.044668116 0.09103507 0.053185124 0.122738 -0.06901654
-0.018466046 -0.07189963 0.05756741 -0.0049509914 -0.052628234 0.018171191 -0.04283243 0.09648731
-0.05212562 0.08788625 0.12588838 0.12322009 -0.042151462 -0.039487127 -0.019332469 0.0043893117
-0.09610299 0.10417629 0.008693643 0.115396805 -0.039005958 0.05100669 -0.12831464 0.0663065
0.00565757 -0.07248709 -0.1117115 0.10470337 -0.11571797 -0.0151551915 0.03813683 0.025461935
-0.11281303 -0.10276668 -0.026807705 -0.105707675 -0.09130904 -0.10120904 0.08555051 0.082499355
-0.04578606 -0.03363221 0.031113585 0.031979818 0.043689493 0.091623165 0.09500114 -0.062608406
0.059745897 0.039559882 -0.1014227 0.06952467 -0.096652545 -0.03785319 0.12223024 -0.037044875
0.029697288 -0.10509933 0.06315213 -0.11900287 0.055888385 -0.104338855 0.089852266 0.07981064
-0.050085545 0.10688622 -0.008806909 0.10550857 -0.047924433 -0.03706218 -0.09426125 0.0213029
-0.027629802 -0.056351297 0.11393229 -0.065979645 -0.049517192 -0.02671885 -0.07271906 -0.1050931
0.114330366 0.11581259 0.07239912 -0.041383907 0.06852752 0.080895245 -0.080249876 -0.06728433
0.037317157 0.02426668 -0.026512822 -0.120605595 -0.008989023 0.061223406 -0.08131319 0.06184061
0.017982567 0.112262145 -0.120513886 -0.038515706 -0.048393376 -0.05754685 0.12258223 0.047161635
0.03326372 -0.023422994 -0.05477482 0.019769724 0.058630317 0.0326632 0.071115375 -0.0037867113
0.0722643 -0.1263684 -0.038990438 0.11639278 -0.082326725 0.06002092 -0.05264434 -0.05782481
0.011841435 0.08127028 0.042115547 -0.06555998 -0.073717184 -0.05731989 -0.01820769 0.1258282
0.049327347 -0.06882135 -0.07271398 0.023735702 -0.041866444 0.08129557 0.12685393 -0.031356238
-0.12421337 0.05486535 -0.08568939 0.10864831 0.06548354 0.08424328 0.054775912 0.11617002
