models/experiments/synthetic_data_pretrained_2024-12-06_03-34-08_TwH/checkpoints/model_best.pth (torch, 634466 bytes, 53 tensors)

project_inp.weight f4 [64, 5]
00000000: 2c14 273e 8049 57bd c074 283e 98ec 993e
00000010: 3406 8bbd 10a6 a13d 45a7 5cbe bcae 0e3e
00000020: 80a7 26bb d81f f53d 26dd 9bbe 6060 5dbe
00000030: 80dc b13d 4780 64be 60ed 743e 901e c5be
00000040: 00c7 a3ba 5cc6 313e 6425 c23e 7057 d13d
00000050: fc76 ad3e 04c0 c6bd b85e e5bd b82d cd3e
00000060: 60fa a33d b2b0 c43e 2a8e cf3e f6de 8a3e
00000070: ece1 003e 1ace cdbe 3860 b63d bfe6 98be
00000080: 5856 9a3d 43a0 e1be 3b5f 8ebe c06a 63bc
00000090: 08e9 32be e75c cbbe 92c2 0abe 94db ba3e
000000a0: bd0e 5abe 30ec a1be e01f 38bd 06b7 e1be
000000b0: 9e1e ca3e 2885 babd 00b0 bc3d c430 94bd
000000c0: 2068 cf3c 10fa c53d 0c2c e0be b85f d73d
000000d0: be24 47be 5c49 d63e 881d 71bd 18f2 f93d
000000e0: 84ed 333e b820 40bd 0056 d0bc 0000 2e38
000000f0: a51b c7be 31ac 5dbe 464b ab3e 58aa e43e
00000100: fca4 b73e f6e8 8cbe e0f1 66bd f940 8ebe
00000110: ec2f f0bd 465f 99be d453 4d3e 404a 123e
00000120: 3e67 c7be a874 ad3d 940c debe 4a6b 823e
00000130: 5812 f03d a0c3 623d 1cfd 373e 8422 d2bd
00000140: 4080 183d e496 97be 70e9 9f3d 2879 7a3e
00000150: 0483 cdbd ddae adbe d49d 90bd 6660 e3be
00000160: c4d1 b3be c89f d33d 8c22 ba3e 740c 9e3e
00000170: 80c8 eb3d 337e acbe 285b 733e d880 733e
00000180: cc09 9d3e 3061 cbbd cc79 dd3e b0c8 b43e
00000190: 7d1b 7cbe 9849 6fbd 60e3 98bd 600c 7c3e
000001a0: c666 bc3e e016 31bd 8261 da3e e00b a53d
000001b0: 407b 94be d82a 9abe 5e4e 1dbe 8486 82be
000001c0: 0a1a 96be 28b3 703e b0d0 dcbc ab7e 4bbe
000001d0: 2e7a 4abe 6834 343e f427 273e 4179 9bbe
000001e0: 6a08 dabe c0f3 4abe bcb4 9d3e ca3c 72be
000001f0: 0047 203c 68d6 9c3e 68d3 983d d85e 59bd
00000200: ccb4 b13e 06ec 82be b09a a9be a081 ae3e
00000210: b429 a1be f079 3f3e b836 95be 53b6 8abe
00000220: 1449 3d3e e06e 753e d28c da3e d71a c3be
00000230: 72bf 8ebe e2ea af3e 200b 5f3c 94b2 38be
00000240: 7035 bc3d 944a bc3e 7454 adbd a6d7 df3e
00000250: 78a5 1a3e f611 30be bc03 643e 50a4 4d3e
00000260: 7026 49be dcbc e6bd dc29 443e 00c7 c03b
00000270: 6851 4b3e 7dec 54be c028 e73c 865e a9be
00000280: e5cb cabe c88c 6a3e cc1d 29be 84ab 293e
00000290: ca02 1dbe ae43 25be d024 e93c 04f6 e0be
000002a0: e829 57bd f016 d0bd 13c4 cdbe 00d9 4c3e
000002b0: 0032 f23c a252 63be fc21 ab3e 7250 8e3e
000002c0: 008e 51bb 74c7 663e 3260 ac3e 00d0 7eba
000002d0: 3c18 cbbd 6e77 e13e 66f8 a3be 5cc5 9fbe
000002e0: 6f42 52be c79d 7abe 9cfc 96be 60bd 393e
000002f0: 2530 6cbe 1912 9cbe d598 a7be c833 48bd
00000300: 8c48 02be 94fd 643e 6868 bbbd c073 883b
00000310: 00cd a33c e032 8bbc fe33 873e ac28 3f3e
00000320: 087b 78bd 6839 a8be 508d 013d b8a8 9e3e
00000330: 7e5f 4ebe bc11 d5be 8306 95be f048 ddbe
00000340: 1854 eb3d 0c60 42be 1c70 383e 3c4a 773e
00000350: c417 42be 2200 b63e 3a70 a2be cc88 44be
00000360: 60d3 19be 78de 643e 6151 5ebe e813 b63e
00000370: 5859 353d d67a b8be 68b6 213d 4dd2 c9be
00000380: dc52 b4be 445c 8dbd c036 fdbd e332 a6be
00000390: 5138 79be 3cc6 653e 4035 9a3b 7cd2 653e
000003a0: 3e31 92be cc7b b73e b0c3 f83c 5c56 7c3e
000003b0: 3a16 b23e d81c a03d 5697 8cbe b89d b5bd
000003c0: 4f57 9fbe 606b d13e 3066 613e e99a 79be
000003d0: f0c6 b1be 889c c6bd 0884 a63e 525d b03e
000003e0: 8057 d03e 904b ad3d 7a25 acbe ee4a a2be
000003f0: cd9b 50be fb82 7ebe 2861 b43d ecf5 e7bd
0.16316289 -0.05256033 0.16450787 0.3006332 -0.067882925 0.07893002 -0.21548183 0.13933843
-0.0025429428 0.11968964 -0.3044216 -0.21618795 0.08684635 -0.22314559 0.23918676 -0.3849988
-0.001249522 0.17360824 0.37919152 0.102217555 0.3387984 -0.09704593 -0.11199707 0.40073943
0.080067396 0.38416058 0.4053815 0.2712323 0.12586182 -0.40196306 0.08905071 -0.29863545
0.07536 -0.44067582 -0.2780703 -0.013880432 -0.17471707 -0.39719316 -0.13550785 0.3649565
-0.21294685 -0.3162551 -0.044952273 -0.44084948 0.39476484 -0.09107429 0.09213257 -0.07235864
0.025318205 0.09666836 -0.43783605 0.10516304 -0.1944761 0.41852844 -0.058866054 0.12204379
0.17571074 -0.046906203 -0.025431633 4.1484833e-05 -0.3888828 -0.21647717 0.33455867 0.44661212
0.3586806 -0.27521485 -0.056383014 -0.27783945 -0.1172789 -0.299555 0.20051509 0.14286137
-0.38945955 0.08469516 -0.4336897 0.2547248 0.11722249 0.055362344 0.17967647 -0.102604896
0.037231684 -0.29607308 0.078081965 0.2446028 -0.10034755 -0.33922473 -0.07061353 -0.44409484
-0.35120976 0.1033321 0.36354482 0.30868876 0.11512852 -0.33690032 0.23765242 0.23779619
0.30671537 -0.099306464 0.43256986 0.35309362 -0.24619861 -0.058419794 -0.07465243 0.24614096
0.3679716 -0.043234706 0.42652518 0.080589056 -0.29000282 -0.30110812 -0.15361926 -0.25493252
-0.2931674 0.23505843 -0.026954979 -0.19872539 -0.1977317 0.17598116 0.16323835 -0.30365947
-0.42584544 -0.19819546 0.30801952 -0.23656002 0.009782553 0.3063233 0.074621975 -0.053068966
0.3470825 -0.25570697 -0.3312583 0.3408327 -0.3147713 0.18698859 -0.2914331 -0.27092227
0.18484908 0.23968077 0.42685562 -0.38106415 -0.27880436 0.3435889 0.013613492 -0.18036872
0.0918988 0.3677565 -0.08463374 0.43719214 0.15102184 -0.17194352 0.2226705 0.20082211
-0.19643569 -0.11266491 0.19156593 0.0058830976 0.19855273 -0.20793338 0.028217673 -0.33079928
-0.39608684 0.22905266 -0.16515273 0.16569334 -0.15333095 -0.16139099 0.028459936 -0.43937695
-0.0525302 -0.10160625 -0.40188655 0.20004654 0.029564857 -0.2219949 0.33424366 0.2779575
-0.0031975508 0.22537023 0.3366714 -0.00097203255 -0.09916732 0.4403643 -0.3202545 -0.3120526
-0.20533155 -0.2447425 -0.294896 0.18138647 -0.2306524 -0.30482557 -0.3273379 -0.048877507
-0.12722987 0.22362357 -0.09150773 0.004164189 0.019995213 -0.016992033 0.26406854 0.18667859
-0.060664207 -0.32856297 0.031628907 0.30988097 -0.20153615 -0.41615093 -0.2910653 -0.4321971
0.11490649 -0.18981951 0.18011516 0.24149412 -0.18954378 0.35546976 -0.31726247 -0.19192809
-0.1502204 0.2235049 -0.21710731 0.35562062 0.044274658 -0.36031216 0.039480597 -0.3941826
-0.35219467 -0.06902364 -0.12363958 -0.32460698 -0.24337889 0.22438902 0.004706055 0.22443575
-0.28553194 0.35836637 0.030366749 0.24642318 0.34782583 0.078180015 -0.2745921 -0.08867973
-0.311213 0.40902233 0.22011638 -0.243755 -0.3472209 -0.09697825 0.32522607 0.34446198
0.40691757 0.08461678 -0.33622342 -0.31697792 -0.20371933 -0.24854653 0.088075936 -0.11326203

project_inp.bias f4 [64]
00000000: 17c5 a1be c0e9 37be c37d d1be 80c2 c9bc
00000010: 82f5 bbbe a013 663e c027 e43e 7cb7 703e
00000020: cedc 823e deb6 9b3e 023f 8b3e 43f8 57be
00000030: a426 513e 58bb ca3d 1f00 7abe 9099 c63d
00000040: f2d1 9b3e 36f1 8c3e 60b4 cd3e 0e5e 813e
00000050: 3419 febd 001c 673e 548f b5be eccf 883e
00000060: 563c c23e 08ea 133e 300a 943d eff8 58be
00000070: 0018 39be 5865 c13d 04e8 99bd 307a b8be
00000080: b4d8 aa3e 5c80 adbd b069 b23d 8c1a e0bd
00000090: 4859 8f3e de8a 32be 043d de3e 2ac5 26be
000000a0: f606 a03e a0ee 933e 0831 1bbe 14a0 9d3e
000000b0: 501f 18bd 58f1 193d 58e8 e93d b26f ccbe
000000c0: f877 023e 007a b2bb de96 a93e 20f3 53be
000000d0: 428d b43e 9c2f 093e 6885 273e 2cda 443e
000000e0: 684d 943e 0014 98b9 f4fd 8abe e0b0 e23c
000000f0: dfb6 bcbe 260b e2be b2e3 ce3e 351e e4be
-0.3159568 -0.17960262 -0.4091626 -0.024628878 -0.36710745 0.22468424 0.44561577 0.23507494
0.25559086 0.30412954 0.2719651 -0.21090798 0.20424896 0.09899014 -0.24414109 0.096972585
0.30433613 0.2752778 0.40176678 0.2526707 -0.12407151 0.22569275 -0.35460913 0.26721132
0.37936658 0.14444745 0.072285056 -0.2118871 -0.18075562 0.09443158 -0.075149566 -0.36030722
0.33368456 -0.08471748 0.087115645 -0.109425634 0.27997804 -0.17435786 0.43405926 -0.1628615
0.3125531 0.28892994 -0.15155423 0.30786192 -0.037139237 0.03758368 0.11421269 -0.39928967
0.12741077 -0.0054466724 0.33122915 -0.20698214 0.3526402 0.13397068 0.16359484 0.19223851
0.28965306 -0.000290066 -0.27146876 0.027672231 -0.3685827 -0.4414913 0.40408093 -0.44554296

pos_enc.pe f4 [30, 1, 64]
00000000: dc90 cbbb acfb 073c 1f2f 10bc 85c4 9cbc
00000010: 105f 8cba fc73 6f3c 664c c7bb 4c63 df3b
00000020: 9c13 3cbc 48f4 6dbc 347a 3f3c 92d5 973c
00000030: 0caf 493c 3ae9 983c f89e 99bc e2d8 0c3c
00000040: 2228 183c e471 013c 3aea 873c ac10 703c
00000050: 608c ec3b ec27 513c 8c90 9d3c e8e2 7b3c
00000060: f6bc cdbb d6b5 913c e88d 6c3b c0e1 3abc
00000070: 10e0 dcba 58c3 773c 7d76 8ebc 5ac6 803c
00000080: 5818 eb3b 44f8 523c 9880 533c 3412 873c
00000090: 282f 4e3c 28c9 6ebb 24fa b43b 783a 8bbc
000000a0: c277 63bc 68b5 683b ced6 883c 67b8 a3bc
000000b0: ae0a 223c a22c 343c 8e0e 9d3c 2947 8cbc
000000c0: 000b 763b 8ac0 a0bc 0022 cebb f81a 65bb
000000d0: e459 15bc b206 8e3c 0058 463c 3bd7 a2bc
000000e0: 4c10 93bb 5251 e2bb 6800 173b 0591 05bc
000000f0: 2933 9bbc 54d7 5dbc d241 96bb 8038 8c3a
00000100: 90d4 9cbc 006e b13b 9083 d43b 6ce5 d9bb
00000110: d0de 643c 5c7c 7ebc 3dbb 2ebc 40f6 23bc
00000120: 1239 993c 6011 473c 9011 24bb 0803 bd3b
00000130: 388f a9bb 0a84 89bc 041a 503c 9437 1c3c
00000140: cc7d b2bb dce3 8b3b d473 7abc ce11 8e3c
00000150: 1289 9cbc 8c40 5e3c 1042 d3bb b0bd ee3a
00000160: 0cf8 983c 66fb 913c 0296 a13c 80d0 1bbc
00000170: b857 71bb 87c9 16bc c0b2 323a 667f 2dbc
00000180: fb83 41bc f032 1cbc b867 953c 2c9b 993c
00000190: 0498 173c 4cb1 d63b 1a71 97bb ab99 84bc
000001a0: de65 213c 281a aa3b de93 40bc 30d1 5f3c
000001b0: a0d5 aa3a 2098 203b b033 803c b882 413b
000001c0: b258 adbb 5c15 0b3c 70e4 cd3b 2670 0fbc
000001d0: bb5b 18bc e809 8e3c 00f6 edba 42e4 c4bb
000001e0: 131c 9dbc eb71 8cbc 20ac 983c 80b9 583a
000001f0: d6ef 063c 2e08 33bc 945b c4bb 346b 683c
00000200: 42d0 a7bb 6828 81bb 60bc cf3a d24a 00bc
00000210: 149e f53b 9e55 23bc 50a3 913b b066 183b
00000220: d73f 88bc 73bb 8cbc 88d2 773b f019 ebba
00000230: 28ae ae3b faae 923c 0f18 58bc d41f 7abc
00000240: 7aab afbb e8ff 75bc 0252 60bc a291 943c
00000250: 0040 2d38 210a 7cbc 8a78 013c b0f2 2e3c
00000260: 094f 9cbc 70a0 7a3c b8a6 143c 1aad 813c
00000270: 8899 bc3b 4f72 4fbc 807e e03b 64df 7e3c
00000280: 0ca0 4cbc 00f7 91bb 0014 edb7 5457 953c
00000290: 881c c93b 7c7b 8abb 4052 a2bc 6473 4b3c
000002a0: 64ce 9ebc f03a a53a de26 853c ea52 89bc
000002b0: a049 fc3a 9e1c b0bb d92a 26bc 5004 90ba
000002c0: 7a88 5dbc c0ad f039 0022 d3b9 d040 703b
000002d0: 4480 4f3c 5c21 86bb 0487 953c d84b 34bb
000002e0: 94fc 8abb 921a 0dbc 7078 2e3b f37c 92bc
000002f0: f485 803c ac4f 0b3c 3ae7 7bbc 20e9 733b
00000300: 9b73 93bc bc89 9bbc c174 9dbc 7dd7 01bc
00000310: 9c2a 0e3c fc5a c63b c27f 50bc 259d 81bc
00000320: 90a9 b83b 8cf6 8b3b 4865 61bc 6048 52ba
00000330: 60a4 da3b 284d 433b f44c 653c 40d6 683a
00000340: 4fd0 3ebc f3a4 48bc 78df 40bb 8473 433c
00000350: 90ce f7ba e2d7 99bb d834 4bbb 0f5e 09bc
00000360: ee9f 55bc 0889 693b 78bb 52bc 48eb 573c
00000370: 8b97 96bc 3036 78bc e046 233b 860a a2bc
00000380: 2ce5 9f3c f87b 243b 2c1f 873c 1a6e bdbb
00000390: a459 303c 4e59 96bc 9432 88bb 2848 b13b
000003a0: ec67 913c 7c5c ca3b fe1f 153c 8069 41ba
000003b0: 0020 ebb8 d059 6b3c 5ce8 353c bedd 113c
000003c0: 02df 353c 84ba 8bbc 803f 1d3a 219b 80bc
000003d0: 2cee 8b3b 5637 f4bb 2ca2 ba3b dcd5 4b3c
000003e0: 68ef 6f3c 9672 8cbc 18d9 203b b0a4 28bb
000003f0: 821f 92bc 48fd 253c 80b2 89ba 28e0 e0bb
-0.006212337 0.008299749 -0.008800297 -0.019136677 -0.0010709483 0.014615055 -0.0060821055 0.006817257
-0.011479285 -0.014523573 0.01168685 0.018534455 0.012309801 0.018665899 -0.01875256 0.008596631
0.009286912 0.007900689 0.01659118 0.014652412 0.0072188824 0.012765866 0.019233964 0.015373923
-0.0062786294 0.017786901 0.0036095325 -0.011406362 -0.0016851444 0.015122257 -0.017390484 0.015719581
0.007174533 0.012876574 0.012909077 0.016488172 0.012584485 -0.0036435816 0.005522983 -0.016995654
-0.013883533 0.0035508517 0.01670399 -0.01998539 0.009890242 0.010996969 0.01917198 -0.017123776
0.0037543178 -0.01962306 -0.006290674 -0.0034958702 -0.00911567 0.017337177 0.012105942 -0.01987802
-0.0044880267 -0.006906667 0.0023041014 -0.008152251 -0.018945294 -0.013540108 -0.004585483 0.0010697991
-0.019144326 0.0054147243 0.00648541 -0.0066496637 0.013969138 -0.015532579 -0.010664758 -0.010007441
0.018703971 0.012150139 -0.0025034882 0.0057681836 -0.0051745437 -0.016786594 0.012701515 0.009534735
-0.005447125 0.0042691063 -0.015286405 0.017342474 -0.019108329 0.013565194 -0.0064470842 0.001821449
0.018672965 0.017820071 0.01972485 -0.0095101595 -0.0036825966 -0.009203321 0.0006816797 -0.010589456
-0.011811252 -0.009533629 0.018237934 0.01875075 0.009252552 0.006551897 -0.004621637 -0.016186556
0.009850947 0.0051911063 -0.011754004 0.013660714 0.0013033636 0.0024504736 0.015649647 0.0029527377
-0.0052901143 0.008488979 0.0062833354 -0.008754766 -0.009299214 0.017338708 -0.0018154979 -0.0060086558
-0.019178426 -0.017144164 0.018636763 0.0008267388 0.008235892 -0.010927243 -0.0059923623 0.0141857155
-0.005121262 -0.0039415844 0.0015848987 -0.007830339 0.007495651 -0.009969143 0.004444517 0.0023254566
-0.016632004 -0.017179227 0.0037814695 -0.0017936807 0.0053308196 0.017905701 -0.01318933 -0.0152663775
-0.005361018 -0.015014626 -0.013691427 0.01813585 4.130602e-05 -0.015383274 0.007902274 0.010677978
-0.019080656 0.01529704 0.009072952 0.015829612 0.005755607 -0.012661531 0.0068510175 0.01555619
-0.01248933 -0.0044544935 -2.8261915e-05 0.018230118 0.0061374344 -0.0042261463 -0.01981461 0.012417648
-0.019385524 0.0012606066 0.016253885 -0.01676317 0.0019248016 -0.005374505 -0.010142052 -0.0010987613
-0.013521308 0.0004590582 -0.00040270388 0.0036659725 0.012664858 -0.004093332 0.018252857 -0.0027511027
-0.0042415354 -0.008612292 0.002662208 -0.017881846 0.015688874 0.008502882 -0.015374953 0.003721781
-0.01799946 -0.018986575 -0.019220712 -0.007924912 0.008677151 0.0060533267 -0.012725772 -0.015822003
0.005635448 0.004271334 -0.0137570575 -0.0008021649 0.006672427 0.0029800627 0.013995398 0.00088820234
-0.011646344 -0.012246358 -0.0029430073 0.011929397 -0.0018906165 -0.0046949247 -0.003100684 -0.008384242
-0.0130386185 0.0035634656 -0.012862079 0.013178654 -0.018382808 -0.015149638 0.002491407 -0.019780409
0.019518457 0.0025098305 0.016494356 -0.0057809474 0.0107635595 -0.01835313 -0.00415642 0.005410213
0.01774975 0.006175576 0.009101866 -0.00073780864 -0.00011211634 0.014364675 0.011102762 0.008902965
0.0111005325 -0.017056711 0.0005998537 -0.015698971 0.0042703357 -0.0074528856 0.005695602 0.012441125
0.014644481 -0.017144483 0.002454346 -0.0025732927 -0.01783729 0.010131188 -0.0010505468 -0.006862659

transformer_encoder.layers.0.self_attn.in_proj_weight f4 [192, 64]
00000000: df63 18be 546f 56bd 18b9 a9bc b00a aebc
00000010: 463c 15bd b2e3 fb3d 8395 023e 10c4 053d
00000020: f800 c6bd 46c8 07be 6805 9a3d 96e6 a63d
00000030: b404 973d fac9 ce3d 1cbf 00bd 9e2c 91bd
00000040: de55 01be b85c ea3c 53f5 fbbd 9848 613d
00000050: dcd9 91bd 44d1 f2bd b281 f43d f327 103e
00000060: 4048 8c3d dc8f b33d 96c0 e0bd 6025 b93c
00000070: b3aa 003e 7876 da3c 763c fc3d ae4c e13d
00000080: a416 a83d 6241 1abe 5b7c 023e 4468 13bd
00000090: 2375 fbbd 7db4 c4bd a1c2 8ebd 4051 cabc
000000a0: 088f 99bd c2b9 f93d 781c 953d 70cf b23d
000000b0: a0e0 91bc 4027 1b3d 1c7e eabc 0006 083d
000000c0: c2a7 ab3d 12fe bb3d 2ee8 d73d fefc fa3d
000000d0: ae33 823d a015 bc3d 4ce6 e6bd 9c39 05bd
000000e0: f106 11be a304 023e 0a07 1bbe 0992 133e
000000f0: f085 513c 9773 15be 64bc 11be 8678 b1bd
00000100: 7c1d 4f3d 0071 b43a dc2f 61bd 99cd b3bd
00000110: d746 013e 897e 88bd 3b23 8fbd 70d2 06bc
00000120: 1225 20bd f027 643d baf6 c73d e0d3 a43d
00000130: 7dfd e9bd 70a5 003c 7a01 ff3d 60b5 1bbc
00000140: 4ad2 de3d f568 123e 2e49 fcbd b890 763d
00000150: d804 00be 08b1 dcbd f0ca 4b3d 48b4 273d
00000160: 508c 65bd 3258 ea3d 98dc b03c f611 ee3d
00000170: 0691 c93d a829 f13c 8ee2 fc3d fe51 ce3d
00000180: fe7d f33d 329b a63d 96ad df3d a90e 1b3e
00000190: 4088 ac3d c4c7 ad3d 0e37 36bd 9095 12bc
000001a0: cc4d a23d 57d4 123e 8e5f 12be f080 ea3c
000001b0: 639f 0a3e c09e 96bb c0a6 53bd 10e9 4bbc
000001c0: 5ef6 0ebe d419 06be dc62 543d ad24 193e
000001d0: 18dd c3bc 6383 a0bd 2681 f33d 0c41 9e3d
000001e0: 56a1 e63d 585d f43c 4a2b ca3d ae45 69bd
000001f0: ac74 60bd 407d c3bc 70db 663d 4063 05be
00000200: b12a 0e3e 0d95 a0bd c48c 4f3d d9f4 013e
00000210: 8abb 55bd 3cb6 2e3d 72d5 e13d 10db bfbc
00000220: 408a 6bbb f0fb f33c fe75 a63d de89 f53d
00000230: 780d 363d 88a7 75bd e061 b43d c7e4 1bbe
00000240: 4049 a9bb 9ac3 ec3d 0d1b 0c3e 0687 9c3d
00000250: 9509 13be 0477 efbd f430 1d3d d0c8 afbd
00000260: 1ea2 47bd 0011 543b 0aba b43d 7653 9e3d
00000270: 0085 3ebd 484f 91bd 00bb 27bd 98f7 b2bc
00000280: 1804 7f3d 89da 123e ecae c43d e881 9d3c
00000290: 3851 ae3c 4924 cabd 5220 d63d 0005 49bc
000002a0: 987b fc3c b192 0c3e 1fd7 15be 26a4 79bd
000002b0: 54b1 163d 408f 913d 9af1 953d c6b5 ef3d
000002c0: 6733 afbd c609 34bd de18 a4bd 0895 c6bc
000002d0: 0802 283d 6e6e 30bd caa5 2cbd e8aa c13d
000002e0: f876 b5bd a62a d03d 359b f4bd f25e 26bd
000002f0: b0ed e7bc 1070 2b3c 6eed 903d f562 1c3e
00000300: acb8 18bd 4ee5 17be 70bf ab3c 30f5 133d
00000310: 92c9 e3bd eed6 ebbd 4039 1a3b fc86 edbd
00000320: be5f df3d f068 993d 0085 2f3c 6a83 ee3d
00000330: 8073 b73a c70a b4bd 1446 1cbe 40ff 9cbb
00000340: 0962 083e 9e05 813d b25d b53d 3cdf 0abe
00000350: 90b7 eabd a0f8 df3c 245f 0d3d 5cf4 e7bd
00000360: 5a5d 9dbd d014 02bc 5c82 a9bd e00c 7d3c
00000370: d598 1c3e 0812 83bc 5dca 063e 0070 fbbd
00000380: fc08 313d 02cd 4fbd 6244 4ebd 0674 c3bd
00000390: a844 cabd c8d5 3f3d 98d4 6d3d f64e 2bbd
000003a0: 678f 153e f04a b3bc 5642 dfbd dd8d 85bd
000003b0: 089b 8a3c b0de 9abc cab6 8c3d 16e0 e4bd
000003c0: cd21 85bd b684 d23d 77c8 143e 20c6 733c
000003d0: f51b a3bd 3018 11be 401f 073d 00cd 3fba
000003e0: fa8f c4bd a2b2 34bd c9bd 14be a881 8a3c
000003f0: 90a2 55bd 1c83 373d 84a7 41bd 3e7b b93d
-0.14881848 -0.052352265 -0.020718142 -0.02124533 -0.036434434 0.12299289 0.12752347 0.032657683
-0.096681535 -0.13259992 0.075205624 0.081494495 0.07373944 0.10097118 -0.031432256 -0.07088588
-0.12630412 0.028608665 -0.12302651 0.05500087 -0.071216315 -0.118563205 0.119388 0.1407774
0.06849718 0.087676734 -0.10974233 0.02260083 0.12565117 0.026667818 0.123162195 0.110009536
0.08207443 -0.15064004 0.1274275 -0.035988107 -0.122782014 -0.09604738 -0.06970716 -0.024696946
-0.07497984 0.121936336 0.072808206 0.08730972 -0.017807305 0.03787923 -0.028624587 0.033208847
0.08381607 0.091793194 0.10542332 0.12255286 0.06357513 0.09183812 -0.112743944 -0.032525644
-0.14162804 0.12697081 -0.15139404 0.14411177 0.012788281 -0.14594875 -0.14232022 -0.08665566
0.050565228 0.0013766587 -0.054977283 -0.08779449 0.1262468 -0.0666476 -0.069891416 -0.008228883
-0.039097853 0.05570215 0.09763856 0.080482244 -0.11425302 0.007851943 0.124514535 -0.009503692
0.10879953 0.1429785 -0.123186454 0.06019661 -0.12501848 -0.107759535 0.049754083 0.040943414
-0.056042016 0.11442603 0.021589562 0.116245195 0.09842114 0.029438809 0.123478994 0.100742325
0.118892655 0.0813507 0.10921781 0.15142311 0.08424425 0.08485368 -0.044486098 -0.008946791
0.07924995 0.14338814 -0.14294264 0.028625935 0.13537364 -0.004596561 -0.051672697 -0.012445703
-0.13961169 -0.1309579 0.051852092 0.14955397 -0.023909137 -0.0783756 0.118898675 0.077272505
0.11261241 0.029829666 0.09871538 -0.056951217 -0.054798767 -0.023863435 0.056361616 -0.13026142
0.13883473 -0.07840929 0.050671354 0.12691058 -0.052180804 0.04265426 0.110270396 -0.023419887
-0.0035940558 0.02978322 0.08127974 0.11989187 0.04444644 -0.059974223 0.08807731 -0.1522399
-0.005166203 0.115607455 0.13682194 0.07642941 -0.14359124 -0.11692622 0.038376763 -0.08583224
-0.04873859 0.0032358766 0.08824547 0.07730763 -0.046513557 -0.070952 -0.04094982 -0.021846578
0.062259763 0.14341177 0.09603676 0.019226983 0.021278962 -0.09870202 0.10455383 -0.0122692585
0.030820653 0.13727833 -0.14632843 -0.06094756 0.036790207 0.07107401 0.073214725 0.117045924
-0.08554726 -0.043954633 -0.080125555 -0.024240986 0.041017562 -0.043074064 -0.042150296 0.09456426
-0.08860582 0.101643845 -0.11943666 -0.04061789 -0.02831158 0.0104637295 0.07076536 0.15272124
-0.03728549 -0.14833567 0.020965308 0.0361225 -0.11122431 -0.11515604 0.0023532659 -0.11598012
0.10906933 0.07490718 0.010712862 0.11646159 0.0013996214 -0.08791118 -0.15261108 -0.0047911704
0.13318647 0.062998995 0.088557616 -0.1356172 -0.11460793 0.027340233 0.03451456 -0.11325905
-0.07683821 -0.007939532 -0.08276817 0.015444964 0.15292676 -0.015999809 0.13163133 -0.12277222
0.04322146 -0.05073262 -0.050358184 -0.09543614 -0.098763764 0.046834737 0.058064073 -0.04182335
0.14605485 -0.021886319 -0.109013245 -0.06521199 0.016919628 -0.018905014 0.06870802 -0.111755535
-0.065005876 0.10279219 0.14529596 0.01487878 -0.07964317 -0.14169383 0.032988787 -0.0007316619
-0.09597774 -0.04411567 -0.14525522 0.016907528 -0.052156985 0.04480277 -0.047278896 0.0905671

transformer_encoder.layers.0.self_attn.in_proj_bias f4 [192]
00000000: 0000 0000 0000 0000 0000 0000 0000 0000
00000010: 0000 0000 0000 0000 0000 0000 0000 0000
00000020: 0000 0000 0000 0000 0000 0000 0000 0000
00000030: 0000 0000 0000 0000 0000 0000 0000 0000
00000040: 0000 0000 0000 0000 0000 0000 0000 0000
00000050: 0000 0000 0000 0000 0000 0000 0000 0000
00000060: 0000 0000 0000 0000 0000 0000 0000 0000
00000070: 0000 0000 0000 0000 0000 0000 0000 0000
00000080: 0000 0000 0000 0000 0000 0000 0000 0000
00000090: 0000 0000 0000 0000 0000 0000 0000 0000
000000a0: 0000 0000 0000 0000 0000 0000 0000 0000
000000b0: 0000 0000 0000 0000 0000 0000 0000 0000
000000c0: 0000 0000 0000 0000 0000 0000 0000 0000
000000d0: 0000 0000 0000 0000 0000 0000 0000 0000
000000e0: 0000 0000 0000 0000 0000 0000 0000 0000
000000f0: 0000 0000 0000 0000 0000 0000 0000 0000
00000100: 0000 0000 0000 0000 0000 0000 0000 0000
00000110: 0000 0000 0000 0000 0000 0000 0000 0000
00000120: 0000 0000 0000 0000 0000 0000 0000 0000
00000130: 0000 0000 0000 0000 0000 0000 0000 0000
00000140: 0000 0000 0000 0000 0000 0000 0000 0000
00000150: 0000 0000 0000 0000 0000 0000 0000 0000
00000160: 0000 0000 0000 0000 0000 0000 0000 0000
00000170: 0000 0000 0000 0000 0000 0000 0000 0000
00000180: 0000 0000 0000 0000 0000 0000 0000 0000
00000190: 0000 0000 0000 0000 0000 0000 0000 0000
000001a0: 0000 0000 0000 0000 0000 0000 0000 0000
000001b0: 0000 0000 0000 0000 0000 0000 0000 0000
000001c0: 0000 0000 0000 0000 0000 0000 0000 0000
000001d0: 0000 0000 0000 0000 0000 0000 0000 0000
000001e0: 0000 0000 0000 0000 0000 0000 0000 0000
000001f0: 0000 0000 0000 0000 0000 0000 0000 0000
00000200: 0000 0000 0000 0000 0000 0000 0000 0000
00000210: 0000 0000 0000 0000 0000 0000 0000 0000
00000220: 0000 0000 0000 0000 0000 0000 0000 0000
00000230: 0000 0000 0000 0000 0000 0000 0000 0000
00000240: 0000 0000 0000 0000 0000 0000 0000 0000
00000250: 0000 0000 0000 0000 0000 0000 0000 0000
00000260: 0000 0000 0000 0000 0000 0000 0000 0000
00000270: 0000 0000 0000 0000 0000 0000 0000 0000
00000280: 0000 0000 0000 0000 0000 0000 0000 0000
00000290: 0000 0000 0000 0000 0000 0000 0000 0000
000002a0: 0000 0000 0000 0000 0000 0000 0000 0000
000002b0: 0000 0000 0000 0000 0000 0000 0000 0000
000002c0: 0000 0000 0000 0000 0000 0000 0000 0000
000002d0: 0000 0000 0000 0000 0000 0000 0000 0000
000002e0: 0000 0000 0000 0000 0000 0000 0000 0000
000002f0: 0000 0000 0000 0000 0000 0000 0000 0000
0.0 0.0 0.0 0.0 0.0 0.0 0.0 0.0
0.0 0.0 0.0 0.0 0.0 0.0 0.0 0.0
0.0 0.0 0.0 0.0 0.0 0.0 0.0 0.0
0.0 0.0 0.0 0.0 0.0 0.0 0.0 0.0
0.0 0.0 0.0 0.0 0.0 0.0 0.0 0.0
0.0 0.0 0.0 0.0 0.0 0.0 0.0 0.0
0.0 0.0 0.0 0.0 0.0 0.0 0.0 0.0
0.0 0.0 0.0 0.0 0.0 0.0 0.0 0.0
0.0 0.0 0.0 0.0 0.0 0.0 0.0 0.0
0.0 0.0 0.0 0.0 0.0 0.0 0.0 0.0
0.0 0.0 0.0 0.0 0.0 0.0 0.0 0.0
0.0 0.0 0.0 0.0 0.0 0.0 0.0 0.0
0.0 0.0 0.0 0.0 0.0 0.0 0.0 0.0
0.0 0.0 0.0 0.0 0.0 0.0 0.0 0.0
0.0 0.0 0.0 0.0 0.0 0.0 0.0 0.0
0.0 0.0 0.0 0.0 0.0 0.0 0.0 0.0
0.0 0.0 0.0 0.0 0.0 0.0 0.0 0.0
0.0 0.0 0.0 0.0 0.0 0.0 0.0 0.0
0.0 0.0 0.0 0.0 0.0 0.0 0.0 0.0
0.0 0.0 0.0 0.0 0.0 0.0 0.0 0.0
0.0 0.0 0.0 0.0 0.0 0.0 0.0 0.0
0.0 0.0 0.0 0.0 0.0 0.0 0.0 0.0
0.0 0.0 0.0 0.0 0.0 0.0 0.0 0.0
0.0 0.0 0.0 0.0 0.0 0.0 0.0 0.0

transformer_encoder.layers.0.self_attn.out_proj.weight f4 [64, 64]
00000000: 5a44 873d 724d aabd 8214 bd3d 30ed 43bd
00000010: 52db b6bd 9c4a d03d 0047 31bb 904a 953c
00000020: f831 2abd ca9a 963d f8c2 04bd 28aa f73c
00000030: dc5f c73d 7026 183d 5ce4 b53d 3c28 a2bd
00000040: 1cb6 793d b88d d6bc a8af 15bd da77 a63d
00000050: f0e4 303c bc77 6ebd eaf8 8a3d c0bb f53d
00000060: 2cf3 58bd 64a9 92bd 4ecb fe3d 64c8 9e3d
00000070: 7e9c debd d637 8a3d d670 e5bd 306a 673d
00000080: 0e21 adbd d08e 7f3c 0aed 81bd 2c3e 773d
00000090: 609d ca3c c23e 903d a4b3 513d a6a8 84bd
000000a0: bcf3 98bd 501a 073c 8e40 d23d 54e5 3cbd
000000b0: d86b a83d b4f6 a83d 10f9 073d e00b 133c
000000c0: 1049 05bc 4256 d9bd 002d cabb 8462 7e3d
000000d0: 6eab 843d ec85 77bd dcc6 293d eef3 fdbd
000000e0: 80e4 833b 5893 87bd 589c 483d 289f 8e3c
000000f0: 00fb daba d8fa a73d 28c7 bd3c b431 bcbd
00000100: 0c06 35bd d086 10bd 84cf d8bd de26 e3bd
00000110: 505f e1bd 3420 6c3d f0c6 8a3c 58f7 b13c
00000120: fa89 b3bd 7049 d7bc b81f eb3d e055 8fbb
00000130: 6013 babc dc6d e2bd dccb 9bbd 14b7 5bbd
00000140: de49 a93d 40b2 043d d027 c9bc d0e7 d53c
00000150: 5ae4 933d d0bb 41bd 8265 aebd 78bd 76bd
00000160: 4076 b73d 3438 a2bd a83e db3c c0b9 0c3c
00000170: 80b8 2b3b 8645 f03d ce65 b23d 3ea8 97bd
00000180: 20c3 193c 509a 3e3c 7c43 f3bd f433 03bd
00000190: 9028 54bd 8060 e63a 8647 bf3d 94bf 3b3d
000001a0: 483a 03bd 10db 823d 4849 2dbd 96b7 8e3d
000001b0: b807 d73c 421b acbd 5a02 f63d 3c80 dd3d
000001c0: 30e7 7e3d 68ec 303d 4c93 003d 4ce0 4e3d
000001d0: e099 453c 8052 c13d aabe c23d c860 fabc
000001e0: 3e65 acbd d60e e43d d84c 56bd 084d 9ebc
000001f0: d080 f6bc 349a cebd d885 273d 84d5 b8bd
00000200: a451 413d 3cde c3bd 58e0 90bd 7e04 ca3d
00000210: 149a 31bd 6e99 9e3d 6040 b5bc 8a0f a43d
00000220: cea2 94bd fad6 953d 2e1e a03d 50a6 9d3d
00000230: 2a92 9fbd 88c3 ab3d 104c 38bd 3e20 d9bd
00000240: c847 ec3d 24da f93d f8d6 d03c b80b f3bc
00000250: ca5c e33d c090 06bb 7626 923d 387b abbc
00000260: 60e6 d0bd a867 69bd f23b ae3d a82b adbd
00000270: 4651 f1bd 2854 d73d 40ab e43d 8045 413d
00000280: 00bd 28ba c831 863c 404f 563d f0e0 d23d
00000290: 8a72 de3d 0067 363a b6cd cfbd 381a b5bc
000002a0: b0fa 4fbd e004 80bd 54fb 023d 20be 1c3d
000002b0: 002f 8ebd e2d6 d0bd f03b f6bd 38f4 89bc
000002c0: 90ec 2a3c eead 923d 2e44 da3d f899 44bd
000002d0: 5076 d73c 647c 4dbd be77 cd3d 7406 5d3d
000002e0: b234 f93d 8037 4cbb bc44 033d 2067 aebb
000002f0: f847 ddbc 709b 823d 4e5f c63d 308e 6bbc
00000300: 58da 1abd 1451 a93d 5013 453c 1828 b63c
00000310: 7090 223c 3eca b73d 3cac c43d a81d bdbd
00000320: d63c fdbd ba73 f2bd 34cd 82bd 2eac e1bd
00000330: 1066 133d b0f9 4fbd 5082 03bc 6cf6 dc3d
00000340: d8e3 debc b091 1d3d 48a9 b3bc 2425 ec3d
00000350: 1cb1 da3d 2247 953d 00ce a33b eede dc3d
00000360: f818 b8bd 64e5 c4bd a4d2 c83d 90e0 b53c
00000370: 3821 3dbd aa98 ae3d 00d7 4f3d ca62 d9bd
00000380: 90cd 08bc eca5 52bd f2f7 853d 9a93 ab3d
00000390: d82a e33c 5c70 5fbd dcd1 3bbd 9efb fcbd
000003a0: 2c3f a83d 00ea a4bc 58f3 853c 7c9d 7abd
000003b0: a013 c93d 481d 22bd a22e 88bd 0851 98bc
000003c0: 9058 3cbd b06a ce3c b064 30bd 1c5f c03d
000003d0: c23c d2bd 140a aa3d 5ce6 b23d 48d6 dabd
000003e0: 761b 84bd 2eb1 d6bd a424 78bd 6c45 ea3d
000003f0: 163d dc3d 6060 e73c 0436 0b3d 626b b93d
0.06604834 -0.08315553 0.09232427 -0.04783362 -0.08928551 0.101704806 -0.0027050376 0.01822403
-0.04155156 0.073537424 -0.0324125 0.030232504 0.097350806 0.03714603 0.08881447 -0.0791783
0.06096469 -0.026190624 -0.036544472 0.081283286 0.01079677 -0.058219656 0.06785758 0.11998701
-0.05296628 -0.07161215 0.12441121 0.07753065 -0.10869692 0.06748931 -0.11203162 0.056497753
-0.0845357 0.015598014 -0.0634404 0.060362026 0.024733245 0.0704322 0.05119671 -0.0647748
-0.07468364 0.0082460195 0.10266219 -0.04611714 0.082236946 0.0825018 0.03319651 0.008974999
-0.008135095 -0.106121555 -0.006169915 0.06210567 0.0647801 -0.060430452 0.041449413 -0.124000415
0.004025042 -0.066199005 0.048977226 0.017409876 -0.0016706884 0.082021415 0.023166254 -0.091891676
-0.04419522 -0.035284817 -0.105864555 -0.11091398 -0.110045075 0.0576479 0.016940564 0.021724388
-0.08766551 -0.026280135 0.11480659 -0.004374251 -0.022714317 -0.1105611 -0.076072425 -0.053641394
0.08266042 0.032396555 -0.024555117 0.026111513 0.07221289 -0.047298253 -0.08515455 -0.060239285
0.08958101 -0.07920876 0.026763275 0.008589208 0.00262025 0.117320105 0.08710824 -0.074051365
0.0093849 0.011633471 -0.11878106 -0.03203197 -0.051796496 0.0017576367 0.09339814 0.045837
-0.032038003 0.06389439 -0.042306215 0.0696861 0.026248798 -0.084036365 0.12012167 0.108154744
0.062232196 0.043194205 0.031390473 0.050506875 0.012060612 0.09439564 0.095090225 -0.030563727
-0.08417748 0.11135642 -0.052319378 -0.01932384 -0.03009072 -0.10088006 0.040899128 -0.090251
0.047197 -0.09563872 -0.0707404 0.09864138 -0.04335983 0.07744108 -0.022125423 0.08010776
-0.07257615 0.07316394 0.07818256 0.07697737 -0.077915505 0.08386904 -0.044994414 -0.10601853
0.11537129 0.1219981 0.02549313 -0.029668674 0.111016825 -0.0020533055 0.07136242 -0.020932779
-0.102001905 -0.05698362 0.085075274 -0.084555924 -0.1178308 0.105140984 0.11165476 0.04718542
-0.00064368546 0.01638116 0.052321672 0.1029681 0.1086169 0.0006958097 -0.10146658 -0.022107229
-0.050776184 -0.0625093 0.031977966 0.038267255 -0.06942558 -0.10197236 -0.12023151 -0.016840085
0.010432377 0.07162081 0.106575355 -0.0479984 0.026301533 -0.050167456 0.10032605 0.053961232
0.12168254 -0.003116101 0.032047972 -0.005322352 -0.027011856 0.063773036 0.09686147 -0.014377162
-0.037805885 0.082674176 0.01202853 0.022235915 0.009922132 0.089741215 0.096031636 -0.09234172
-0.12365119 -0.11838479 -0.06386796 -0.11019169 0.035986006 -0.05077523 -0.008026674 0.10789189
-0.027208254 0.038469017 -0.021931306 0.115305215 0.10678312 0.07288958 0.0049989223 0.10784708
-0.089891374 -0.09614065 0.098058015 0.022201806 -0.046174258 0.08525212 0.05074215 -0.10614546
-0.008349791 -0.051427767 0.065414324 0.08377762 0.02773039 -0.054550514 -0.045854434 -0.1235268
0.08215174 -0.020131111 0.016351387 -0.061185345 0.09818196 -0.039578706 -0.066495195 -0.018593326
-0.045982897 0.025197357 -0.043064773 0.09393141 -0.10265495 0.083027035 0.08735344 -0.10685402
-0.0645055 -0.10483013 -0.06058182 0.114390224 0.10753839 0.028244197 0.03398706 0.09053685

transformer_encoder.layers.0.self_attn.out_proj.bias f4 [64]
00000000: 0000 0000 0000 0000 0000 0000 0000 0000
00000010: 0000 0000 0000 0000 0000 0000 0000 0000
00000020: 0000 0000 0000 0000 0000 0000 0000 0000
00000030: 0000 0000 0000 0000 0000 0000 0000 0000
00000040: 0000 0000 0000 0000 0000 0000 0000 0000
00000050: 0000 0000 0000 0000 0000 0000 0000 0000
00000060: 0000 0000 0000 0000 0000 0000 0000 0000
00000070: 0000 0000 0000 0000 0000 0000 0000 0000
00000080: 0000 0000 0000 0000 0000 0000 0000 0000
00000090: 0000 0000 0000 0000 0000 0000 0000 0000
000000a0: 0000 0000 0000 0000 0000 0000 0000 0000
000000b0: 0000 0000 0000 0000 0000 0000 0000 0000
000000c0: 0000 0000 0000 0000 0000 0000 0000 0000
000000d0: 0000 0000 0000 0000 0000 0000 0000 0000
000000e0: 0000 0000 0000 0000 0000 0000 0000 0000
000000f0: 0000 0000 0000 0000 0000 0000 0000 0000
0.0 0.0 0.0 0.0 0.0 0.0 0.0 0.0
0.0 0.0 0.0 0.0 0.0 0.0 0.0 0.0
0.0 0.0 0.0 0.0 0.0 0.0 0.0 0.0
0.0 0.0 0.0 0.0 0.0 0.0 0.0 0.0
0.0 0.0 0.0 0.0 0.0 0.0 0.0 0.0
0.0 0.0 0.0 0.0 0.0 0.0 0.0 0.0
0.0 0.0 0.0 0.0 0.0 0.0 0.0 0.0
0.0 0.0 0.0 0.0 0.0 0.0 0.0 0.0

transformer_encoder.layers.0.linear1.weight f4 [256, 64]
00000000: f876 063d 80be 6b3b c075 fcbd 8cac e93d
00000010: 8627 9b3d 0624 dbbd a42a 96bd 0cb4 3a3d
00000020: 04c9 4fbd 603f da3c 703f 6ebd 0c9a 1cbd
00000030: c267 f6bd 006f 5dbb 0a1f 943d a006 5fbd
00000040: b86a 5fbd 7007 f2bc ac72 d5bd 7c93 99bd
00000050: 44e2 6fbd 78d2 a03d ce46 92bd de69 cd3d
00000060: 90c2 463c 22ee 85bd 00ab 7abd 9af3 d03d
00000070: 8807 94bc 807d ab3c c04d 5e3c 2041 833d
00000080: 80e8 cfba 80ac ad3d 0260 e43d 6020 8b3b
00000090: ac1a c33d 4470 9c3d 8803 f6bd 92f7 883d
000000a0: 921a ffbd bc7d 3a3d b027 7cbc 3c77 00bd
000000b0: b401 b93d 1e42 f7bd 54dc de3d 303a 91bc
000000c0: 129e d03d dcc7 d0bd 6075 debd fc11 a53d
000000d0: a874 493d 0c36 7cbd 5ca6 eebd de1c e3bd
000000e0: 402d 073c 086a 36bd 841f 8b3d 90b4 b43c
000000f0: e69e eebd 484e c83c 3c8a 3f3d 86d5 f3bd
00000100: 186b 973d 882b c13d 94da 03bd 14fc 22bd
00000110: 18a4 7e3d bc9a fd3d 3097 633d 18f1 62bd
00000120: ce39 d4bd a40a 1abd b08b a4bd e040 efbc
00000130: d007 26bd d209 ee3d 1edb bc3d 3837 a9bc
00000140: 002d ba3c cacf ed3d 1858 b0bd 50fb ef3c
00000150: 80b9 9dbc 4e46 c5bd e417 3c3d 0842 babd
00000160: 0020 0b39 8672 bbbd 1a5d af3d 3e0b ec3d
00000170: 981f 863d 9016 28bc 2c78 3c3d e847 d03c
00000180: a486 bfbd da9c e03d 984c f43d d4d3 0e3d
00000190: c87a cf3d d2d3 b6bd 988f 78bd ead9 d53d
000001a0: 7417 69bd 70a6 27bd 845a af3d d8ed 45bd
000001b0: a073 773c c03b a53c b09b c53d d0a2 053d
000001c0: 9a9a bb3d 560d 943d 405a 873d 761b 95bd
000001d0: 5802 6bbd 701e 15bd e40e 09bd 6c10 1f3d
000001e0: 1259 82bd dc4e 3dbd 164d b8bd bcca b0bd
000001f0: b857 e3bd 8a87 acbd 7879 f33c b8d1 46bd
00000200: 8864 85bd cc40 57bd 2648 a1bd 8cf7 8a3d
00000210: e048 ed3d 1801 57bd 0848 803c c82a 843c
00000220: 868d 8b3d 0280 dbbd aa1e e73d 000b 253a
00000230: 80ba 663d d4a6 34bd 00f4 703a aee7 fcbd
00000240: c69d f7bd 9811 cabd a02e 7fbd 381c c23d
00000250: 2673 ab3d b2b1 893d 8021 dcbb 7487 d7bd
00000260: 4072 be3d 4e0c a1bd d6bb b63d 80b7 633b
00000270: 24cd a43d f82c 82bd a87e 82bc 9ea3 f13d
00000280: d88a c0bc 5c94 0a3d 68a1 4b3d 50a5 be3c
00000290: 106c 3cbc bcc0 463d 7024 06bd 3cec 60bd
000002a0: 226b a23d ac8b bd3d e2ad a7bd c0cc 113d
000002b0: 00c4 6f39 68ad f9bd 6e76 aebd d8cf 87bd
000002c0: 8814 ebbd c0cd 13bc f4a3 e13d 8090 ef3a
000002d0: 4c23 62bd 9cea f93d e2fe f13d 720b 983d
000002e0: 80fe 8b3c ec83 73bd b82e 613d f011 c4bd
000002f0: 0242 eb3d f44c 07bd ee45 c9bd 7c95 72bd
00000300: 2022 5dbc 2edc ae3d 08b2 cbbd 808e 87bb
00000310: da96 9d3d de1a b6bd 90c6 9abc ba40 85bd
00000320: 383e 8cbd d85b 3b3d 642a 72bd 84c2 cdbd
00000330: 40ea 25bd 3c15 9f3d 680e 303d a020 443c
00000340: ceda e3bd aca3 08bd 58d0 3fbd 4e98 b0bd
00000350: 98ee d7bc fed9 d93d b01c 56bd 0483 30bd
00000360: 3462 9a3d 0033 debd d8b0 fd3d 403c b53c
00000370: 86ad eb3d 6a94 d33d ac9c 4cbd ee7e be3d
00000380: 10f4 733d 18e6 8ebc 04f1 0d3d a024 1cbd
00000390: 046c 5a3d 96d4 f23d b2c3 d83d 904e 6d3c
000003a0: 0cfa b9bd f827 523d 5c84 4f3d c005 0d3c
000003b0: eafd f3bd 7016 ac3c 0040 5737 9e90 da3d
000003c0: 888f e83d 605d cbbc d470 48bd a4c6 34bd
000003d0: 80dd 82ba f846 c13d cc0c 59bd 78d6 5e3d
000003e0: 96b6 d93d 907d 6cbc c441 84bd 48b8 f0bd
000003f0: 4e06 bbbd 3c14 b43d 60de 51bd 6484 13bd
0.0328283 0.00359717 -0.123271465 0.11409864 0.07575898 -0.1070023 -0.07332352 0.045581862
-0.050728813 0.026641548 -0.058165967 -0.038232848 -0.12031509 -0.0033788085 0.07232483 -0.054449677
-0.054545134 -0.029544562 -0.104222625 -0.074988335 -0.058565393 0.07852644 -0.07142411 0.10029958
0.012131348 -0.06539561 -0.061198235 0.10202713 -0.018069997 0.020933867 0.013568342 0.06408906
-0.0015862137 0.084801674 0.111511245 0.0042458028 0.09526572 0.076386005 -0.12012392 0.06687845
-0.1245624 0.045530066 -0.015390322 -0.03136371 0.09033528 -0.12073158 0.10881868 -0.017727941
0.101863995 -0.1019437 -0.10862231 0.08060071 0.049183518 -0.06157498 -0.11652824 -0.1108949
0.008250535 -0.044534713 0.067931205 0.022058755 -0.11651401 0.02445139 0.04676269 -0.11905961
0.073934734 0.09432131 -0.032190874 -0.03979118 0.06216821 0.12383029 0.055564106 -0.055405706
-0.10362588 -0.037607804 -0.08034456 -0.02920574 -0.040534794 0.11622967 0.09221481 -0.020656213
0.022726536 0.11611898 -0.086105525 0.02929464 -0.019253492 -0.0963255 0.04592122 -0.09094626
0.00013267994 -0.09152703 0.085626796 0.11525582 0.06548995 -0.010259286 0.046013042 0.025424913
-0.093518525 0.10967417 0.119286716 0.034869984 0.101308405 -0.0892712 -0.060683817 0.104419544
-0.056907132 -0.04093021 0.08562186 -0.04832253 0.015103251 0.020170093 0.09648836 0.032625973
0.09160347 0.07229106 0.06609011 -0.072806284 -0.057375282 -0.03640598 -0.033461466 0.03883402
-0.06364645 -0.046217784 -0.08999078 -0.086324185 -0.111007154 -0.084242895 0.029721007 -0.048539847
-0.065133154 -0.05255203 -0.07875089 0.06785497 0.115861654 -0.052491277 0.015659347 0.016133681
0.06814103 -0.10717775 0.112851456 0.00062958896 0.056330204 -0.044104412 0.0009191632 -0.12348877
-0.1209064 -0.09866637 -0.062300324 0.094780385 0.08371572 0.06723346 -0.0067178607 -0.105238825
0.09299135 -0.07863675 0.089225456 0.0034746826 0.0804694 -0.06356233 -0.015929535 0.117987856
-0.023503706 0.033832893 0.049714476 0.023272187 -0.0115003735 0.04852365 -0.032749593 -0.05491279
0.0793059 0.09255156 -0.081874624 0.035595655 0.00022865832 -0.12191278 -0.085186824 -0.0663144
-0.114785254 -0.009021223 0.110176 0.0018277317 -0.055209443 0.12202951 0.11816193 0.07424058
0.017089128 -0.059451982 0.054976195 -0.09573734 0.11487199 -0.033032373 -0.09827791 -0.05922459
-0.013496906 0.0853809 -0.09946066 -0.0041368604 0.07694788 -0.08891843 -0.01889351 -0.06506486
-0.06847805 0.045741886 -0.059122458 -0.100468665 -0.0405066 0.07767722 0.04298249 0.011970669
-0.11125718 -0.033359215 -0.04682955 -0.086228 -0.026358888 0.10637282 -0.052273452 -0.043093696
0.07538262 -0.10849571 0.12387246 0.022123456 0.11507706 0.10331042 -0.0499541 0.09301554
0.059558928 -0.017443702 0.03465368 -0.038120866 0.053325668 0.11856954 0.10584201 0.014484063
-0.09080896 0.05130765 0.050663337 0.008607328 -0.11913665 0.021006793 1.28299e-05 0.10672115
0.113555014 -0.024824798 -0.048935726 -0.04413475 -0.0009984225 0.09437364 -0.05299072 0.054403752
0.10630529 -0.014434233 -0.06457856 -0.11753899 -0.09132062 0.08792922 -0.051237464 -0.03601493

transformer_encoder.layers.0.linear1.bias f4 [256]
00000000: 00f4 d43a c8e3 edbc 2462 0dbd 7468 52bd
00000010: 4017 a83c e082 f3bb 7e7f 87bd a226 ee3d
00000020: 12ae e03d b0dc 703c e652 95bd 688d 8cbd
00000030: c638 cd3d ac10 85bd 3c14 6fbd ceab f63d
00000040: 1e09 8fbd c80a 19bd d85e b0bc 44c4 563d
00000050: 64b4 e33d d0e6 1dbc f843 d2bd 8066 8f3b
00000060: fcf3 47bd 00b4 653c 942b aa3d 0084 90b9
00000070: e072 f53c 5482 7cbd 446c 5fbd 5c70 f33d
00000080: 9c19 863d 1822 9ebc 0422 a33d 4285 da3d
00000090: e829 fa3c e6c9 e7bd d831 d7bc 706e f6bd
000000a0: 46a3 e73d ba9f abbd 3c1a 0d3d 9451 5ebd
000000b0: ec09 42bd d091 9dbc 5428 e13d 2c92 06bd
000000c0: 90e1 5e3d 18e9 73bd eadb b93d 0cee 6c3d
000000d0: 30ac a0bd b889 0a3d 5444 adbd 50bd aebd
000000e0: ba2f a13d 12bf d23d 6078 e6bb 2499 4dbd
000000f0: a866 a23d a81e a63d b0b2 1c3c 00a7 463d
00000100: 2e9c d6bd 7887 9bbd dca4 d2bd 446f b5bd
00000110: 2273 e43d 9020 90bd a045 c3bd 2082 d0bc
00000120: 9625 833d 60ad cb3c 30d8 1abd c0f6 d0bc
00000130: 3070 f6bc a849 723d 908e 47bd 1623 92bd
00000140: c039 fbbc 708a 96bd b81f b2bc 1068 e2bc
00000150: e873 fd3d d0b9 2d3c 5c44 303d 1024 2cbc
00000160: ec3a a63d c017 5cbc d40d 313d 00f0 f1ba
00000170: a015 f53d 740a 213d 84c8 cdbd e24a dcbd
00000180: fe13 f0bd d8f9 1e3d 9a23 80bd 9454 b6bd
00000190: ba42 853d 805b ed3d 703a bcbd 801c c53a
000001a0: 3cd2 46bd 00c2 4a3c bc92 aa3d 180a cd3c
000001b0: 5496 17bd f01a b73d c859 bd3d 405b 7bbc
000001c0: 40b1 b8bb 6877 1d3d 6885 d9bd 54a4 0e3d
000001d0: 40ad 943d 769b 9f3d 088b 8f3c 00c2 b6bd
000001e0: e636 f93d 803e 15bb c4f7 a2bd 0884 973d
000001f0: 809c b33a 16eb e13d 220b fc3d fc59 cf3d
00000200: 6872 8d3d 683e 973d 7880 b43c da92 b23d
00000210: 2e16 993d 287b e63c a6d4 ef3d 5a66 b23d
00000220: 2c55 c23d 1a97 f0bd e005 b2bb 826d efbd
00000230: a06a eabd c0cc 28bb 1a57 b63d 7051 47bd
00000240: d0ca e0bd 0066 013b 60a0 a63c 0059 f63c
00000250: 84e6 cf3d 744c e7bd 7a88 bd3d 90ea b9bd
00000260: c0a7 f03b 38a3 a73d 8c42 813d e49e 143d
00000270: c254 933d 8056 99bb 3a1f 953d 2043 b6bb
00000280: 8c98 603d e4d0 183d 5cdc 693d cc81 b8bd
00000290: aa9b b53d f449 3d3d a4ca 98bd 60bc 9a3d
000002a0: d444 7c3d 807c a4bd f255 b23d 90bb dd3d
000002b0: 5e5c bfbd 20dc 5f3c 98d9 9bbc f440 85bd
000002c0: e277 b53d 4cbf 453d 0895 6dbd 78e3 b1bd
000002d0: e4ba 3dbd 3a8e ba3d 78c7 cbbd 7428 59bd
000002e0: d049 483c f69a 88bd 62a6 a6bd 5ab5 ff3d
000002f0: 00b5 b33c 3456 1abd 20dc 953b 2a7b ab3d
00000300: 9085 35bd 00f0 c9bd 48a1 ebbd 0a29 f23d
00000310: 2c3c 22bd 4077 67bd 6045 94bc fa96 ffbd
00000320: 9e7b 9d3d 7831 233d ec51 afbd 68ac 5f3d
00000330: 4c2c 3abd 06ec fb3d 1a6f ebbd f619 f53d
00000340: 52d9 a53d 6082 db3d 4ed0 dc3d d0d2 3b3d
00000350: f8cf a83d 1c16 64bd 504c a9bd f88f 863d
00000360: a439 ecbd 4038 95bb 50fb cc3c 90cc c33c
00000370: 7011 f63d b054 e7bc 6e28 813d 28b5 963d
00000380: c2c5 86bd 64dc 49bd b487 563d ae9f d53d
00000390: 740a d83d 7e5c 913d 88ce 27bd c033 0f3b
000003a0: 38e8 a7bc e0cf f9bd 0467 393d b836 65bd
000003b0: a646 fa3d f001 7a3d ea8b f9bd 8810 8e3d
000003c0: 90bf 3c3c e878 29bd 00d5 543b 9ed9 e13d
000003d0: 7ed9 b3bd a0db b33d 6086 1bbd a81c 753d
000003e0: 40ae ab3c 0af4 f3bd b00a d73c b8d1 c23d
000003f0: 6a3a 92bd e49e fa3d f4ab 7dbd 464b a13d
0.0016247034 -0.029039279 -0.034517422 -0.051369146 0.020518899 -0.007431373 -0.06616114 0.116284624
0.10970701 0.0147010535 -0.07291202 -0.068629086 0.10020594 -0.064973205 -0.058368906 0.12044488
-0.06984161 -0.037363797 -0.0215296 0.052433267 0.11118391 -0.0096375495 -0.1026687 0.0043762326
-0.048816666 0.014019966 0.08309093 -0.00027564168 0.029962003 -0.061647728 -0.05454661 0.11886665
0.06547853 -0.019303367 0.07965472 0.10669948 0.03053756 -0.11317806 -0.026268885 -0.12032783
0.11310439 -0.08380075 0.034448847 -0.054277018 -0.047372743 -0.019234568 0.1099402 -0.032854244
0.054414332 -0.059548467 0.090751484 0.057844207 -0.07845342 0.033822745 -0.08460298 -0.08532202
0.07870431 0.1029035 -0.007033393 -0.050194874 0.079297364 0.08111316 0.009564087 0.048499107
-0.10479008 -0.07594198 -0.10285351 -0.08859113 0.11154772 -0.07037461 -0.09534764 -0.025452673
0.06403653 0.024862945 -0.03780383 -0.025508285 -0.030082792 0.059152275 -0.048719943 -0.07135598
-0.030667186 -0.073506236 -0.02174364 -0.027637511 0.12375623 0.010603383 0.043033943 -0.010506645
0.08116707 -0.013433397 0.04322608 -0.0018458366 0.11967015 0.03931661 -0.10048011 -0.1075647
-0.11722563 0.03881249 -0.062567905 -0.08902851 0.06506868 0.11589718 -0.091908336 0.0015038401
-0.04854034 0.012375355 0.083287686 0.025029227 -0.0370086 0.08940685 0.0924564 -0.01534158
-0.005636364 0.038443953 -0.10621148 0.034824684 0.07259607 0.07793324 0.01752235 -0.08923721
0.12168674 -0.0022772849 -0.07957414 0.0739823 0.0013703257 0.11031167 0.12306811 0.10124585
0.06906587 0.0738495 0.022033915 0.08719416 0.074749336 0.028134897 0.11710481 0.08710928
0.094889015 -0.1174757 -0.0054328293 -0.11690809 -0.11446118 -0.0025756806 0.08903332 -0.04866165
-0.109761834 0.0019744635 0.020340145 0.030071735 0.10151389 -0.11293879 0.092545465 -0.09077942
0.007344216 0.081854284 0.06311521 0.036284342 0.07193901 -0.004679501 0.072813466 -0.005562201
0.05483298 0.03730859 0.057094917 -0.09009132 0.08867581 0.046213105 -0.07460526 0.07555461
0.061589077 -0.08031559 0.08707799 0.1082679 -0.093437895 0.013663322 -0.019024655 -0.065065295
0.088607565 0.048278138 -0.058003455 -0.08685964 -0.04632081 0.09109159 -0.09950155 -0.053017095
0.0122246295 -0.066701815 -0.08137204 0.12485762 0.021936893 -0.037679866 0.00457336 0.08373101
-0.04431683 -0.098602295 -0.11505371 0.11824234 -0.039608166 -0.05651021 -0.018099487 -0.12479968
0.07689594 0.0398421 -0.08560547 0.05460778 -0.0454524 0.12300877 -0.114958 0.11967842
0.08098091 0.107182264 0.107819185 0.045855343 0.08242792 -0.055685148 -0.082665086 0.065704286
-0.115344316 -0.0045538247 0.025022179 0.023901254 0.12015045 -0.028238624 0.063065395 0.073587716
-0.06580688 -0.049282447 0.05237551 0.10430847 0.10548869 0.070977196 -0.040968448 0.0021850914
-0.020496473 -0.12197852 0.04526426 -0.055960387 0.12220506 0.061037004 -0.121848896 0.06936747
0.011520281 -0.04137507 0.003247559 0.11027835 -0.08781718 0.087821245 -0.037969947 0.05984178
0.020957112 -0.11911781 0.026250213 0.09512657 -0.07140048 0.12237337 -0.061931565 0.078756854

transformer_encoder.layers.0.linear2.weight f4 [64, 256]
00000000: 30ba abbb 2654 21bd a090 58bd 7082 113c
00000010: 2cdd ad3c 8ca7 243d d05b 5d3c a2f0 223d
00000020: b070 763d c809 163c 5063 aebc 3a01 5d3d
00000030: 2e46 4fbd 66a2 073d 303f c33c b008 573d
00000040: f03b 863b e09f e03b 50de c7bb f410 223d
00000050: 8ec6 4ebd 5085 35bc ce67 793d 00d7 0f3b
00000060: 1456 e7bc d87c 30bd d062 f53c 44cf 4cbd
00000070: b80a 4a3d b8e0 6fbc 2e7c 1dbd f436 b63c
00000080: 7e34 433d f0e7 75bd 82c8 473d 1a21 73bd
00000090: 66be 313d 502e cdbc 22be 653d 7e78 2bbd
000000a0: 7813 543c 5280 34bd c4dd 643d 6093 eabb
000000b0: 8cd4 383d d676 7a3d 386e 38bd e6ec 2f3d
000000c0: 00c7 a439 c657 20bd 40a7 003b 00be 183d
000000d0: aaa9 773d 7af4 1abd e0d1 1dbd f0e8 1dbc
000000e0: dca8 e33c 4288 223d a88d 30bd 803a 063d
000000f0: 4098 ccbb 888c 38bd 620f 3abd a873 7fbd
00000100: c860 e3bc 40bc 31bd 2492 053d 5048 f1bc
00000110: 1486 27bd 0298 103d ceb1 0b3d 9c30 023d
00000120: 28f8 0ebd b8c5 af3c fed3 4f3d c8aa 90bc
00000130: b4f4 26bd 4a89 1cbd c440 3abd 3442 3f3d
00000140: be3c 143d 1e9d 3bbd 4e48 053d 54cd 7b3d
00000150: 00a7 663b 00c0 f7bb 4863 74bc 449d 00bd
00000160: 008b 81ba a046 85bb 8806 9e3c 488a 03bc
00000170: b478 32bd 18aa 11bc c299 493d ba24 6b3d
00000180: b401 483d 78c7 6e3c 3851 1b3c c445 bebc
00000190: a0a1 1cbc 7829 7b3c f46b 33bd e0fb f13b
000001a0: 4083 91bc 18ca 7d3d 2c4b 543d 84a3 8c3c
000001b0: 00d4 5b3d 108c 733c 9401 8f3c 8c13 ba3c
000001c0: 40fb bf3b e82b 273c c0f5 e03c bee9 58bd
000001d0: f20c 783d c02a 463b 408b 543b 60e2 7d3d
000001e0: 20e0 143d c0c2 273b 089e 3e3d 6833 b7bc
000001f0: 9445 733d ac4d a23c a063 7d3d 6087 57bb
00000200: 60e0 bdbc 78b9 373c ce39 6fbd d414 5cbd
00000210: 3070 b33c ac4d 1c3d dc40 64bd 4859 7e3d
00000220: 9c05 1a3d 007e de3c 0807 a1bc 0066 723c
00000230: 0053 42bd 6c1f dd3c fe96 303d 88d0 ffbc
00000240: e48d 69bd b052 3e3c d4d3 a8bc 589b bdbc
00000250: a092 32bc a044 fabb ccbd 1ebd ea25 69bd
00000260: 90f0 b93b 80bf 023a 0aef 29bd 0ee6 1dbd
00000270: 1c91 893c 244f 05bd 608c e83b d441 ed3c
00000280: d0ee dd3b a8ca 63bd 6042 53bd 70b7 f03c
00000290: 00fd 983b 54e7 1fbd f40c 18bd a87d c4bc
000002a0: 2401 bfbc a0f2 15bb 00b0 9139 2857 cf3c
000002b0: 5453 633d e8fb 803c 94da cb3c 6468 18bd
000002c0: dc6b 40bd e03e 4cbb 104e d53c ba3e 4c3d
000002d0: 086d b2bc a8d3 5f3c 109e 10bd f893 47bc
000002e0: bc89 7bbd f8c5 a9bc d8d9 59bc 0a06 4abd
000002f0: 1842 01bc 143f 7ebd 1c62 68bd dc3d 67bd
00000300: b0b4 09bc c042 1d3c c0df 8e3b 70f5 3a3c
00000310: fce5 753d 48db 21bd 801f a73b 54b1 70bd
00000320: b214 13bd de56 59bd 8c69 643d 2873 173d
00000330: 0081 edbc e2d5 643d 10d8 22bc 8621 173d
00000340: c075 47bb fc77 bf3c 40b2 b7bb d055 9c3c
00000350: 1ac7 563d 82ef 1a3d b65c 0cbd 2c93 cf3c
00000360: 0099 adba 90cf c6bb b0a8 593d 00e3 50bb
00000370: c020 533c 6cfe 853c 28f1 c8bc 1441 75bd
00000380: 54dc 2d3d 26c8 4cbd d0a9 943c 802d 1d3a
00000390: 5805 3b3c 0c4e c9bc 3ee0 103d 9c70 c43c
000003a0: 6a30 7a3d 68d1 ecbc 50a0 843b 882e a33c
000003b0: b0be 55bd 0095 743d dc33 13bd fc47 9f3c
000003c0: e805 703c 8e71 283d 9428 f0bc 422b 1bbd
000003d0: 906f 8dbc 22c1 773d 1cea c43c 5ce7 043d
000003e0: e4ca e6bc 66ed 0b3d 3cd7 74bd acd9 20bd
000003f0: 4484 713d ec85 4abd 266a 173d 3808 5abd
-0.005240701 -0.03938689 -0.0528723 0.008881196 0.021223627 0.040198848 0.013510659 0.039780267
0.06016606 0.0091576055 -0.02128759 0.053956248 -0.050604038 0.03311386 0.023833841 0.05249852
0.0040965006 0.006854996 -0.0060994998 0.03956695 -0.050482325 -0.011079147 0.06089001 0.0021948218
-0.028239287 -0.04308781 0.029954344 -0.05000235 0.04932663 -0.0146409795 -0.038448505 0.022243
0.047657482 -0.060035646 0.048775204 -0.05935774 0.04339447 -0.025046498 0.056089528 -0.041862957
0.012944095 -0.04406769 0.055875555 -0.0071586818 0.045124575 0.061148487 -0.045026988 0.042950533
0.00031428784 -0.039146207 0.0019630939 0.037290573 0.06046454 -0.037830807 -0.03853023 -0.009638056
0.02779048 0.039680727 -0.043103844 0.032770634 -0.0062437356 -0.045055896 -0.045424826 -0.062366158
-0.02775611 -0.04339242 0.032610074 -0.029453427 -0.04089935 0.035301216 0.034105115 0.03178464
-0.03490463 0.021456584 0.05073928 -0.01765956 -0.04076071 -0.038216867 -0.04547192 0.046693996
0.03619074 -0.045804136 0.03253966 0.061475113 0.0035194755 -0.00756073 -0.014916249 -0.03139998
-0.0009883344 -0.004067257 0.019290224 -0.008028574 -0.043572143 -0.008890651 0.0492189 0.057408072
0.04882975 0.014573924 0.009479813 -0.023226626 -0.009560019 0.015329711 -0.043804124 0.007384762
-0.01776278 0.06196031 0.051829502 0.017167814 0.053668976 0.0148649365 0.017456807 0.022714399
0.0058588088 0.010203339 0.027460933 -0.05295729 0.06055922 0.0030237883 0.0032431632 0.061983466
0.036346555 0.0025598258 0.04653743 -0.02236338 0.059392527 0.019812427 0.061862588 -0.0032887086
-0.02317828 0.011213653 -0.058404736 -0.0537308 0.021904081 0.03816001 -0.055725917 0.062096864
0.037603006 0.02715969 -0.019656673 0.0147948265 -0.047442436 0.026992522 0.043112747 -0.031227365
-0.057020083 0.011616394 -0.02060882 -0.023145363 -0.010899216 -0.0076375753 -0.038755223 -0.056920923
0.0056744292 0.0004987642 -0.04148773 -0.038549475 0.016792826 -0.032546178 0.007096812 0.028962053
0.0067728534 -0.05561319 -0.051576972 0.029384345 0.004668832 -0.03903897 -0.037121728 -0.023985699
-0.023315974 -0.0022880211 0.00027787685 0.025310114 0.05549939 0.015745118 0.0248845 -0.03720893
-0.046977863 -0.0031165406 0.0260382 0.04986451 -0.021780506 0.013661303 -0.03530699 -0.012181275
-0.06141065 -0.020724282 -0.013296567 -0.049322166 -0.007889293 -0.062071875 -0.05673419 -0.056455478
-0.008404896 0.009598434 0.004360169 0.011411056 0.060033783 -0.039515764 0.0051001906 -0.058762863
-0.03590841 -0.05306136 0.05576472 0.036975056 -0.028992176 0.055868037 -0.009939209 0.036897205
-0.0030435175 0.023372643 -0.005605966 0.019083887 0.05243597 0.03782607 -0.034268104 0.025338732
-0.001324445 -0.006067224 0.05313939 -0.0031873584 0.012886226 0.01635667 -0.024529055 -0.059876516
0.04244645 -0.049995564 0.01814738 0.0005995855 0.011414848 -0.024573348 0.035370104 0.023979478
0.061081327 -0.028908446 0.004047431 0.019919649 -0.052183807 0.05971241 -0.03593813 0.019443505
0.014649846 0.04112392 -0.029316224 -0.03788305 -0.017265111 0.06048692 0.024037413 0.032447204
-0.028172918 0.034161948 -0.059775576 -0.039270088 0.05896403 -0.049444124 0.036966465 -0.053230494
